blocksnet/machine_learning/regression/density/models/model.pt (torch, 407835 bytes, 23 tensors)

enc_fc.weight f4 [32, 9]
00000000: b30f 993e b6cd 363e cb03 0abe 887e 163f
00000010: caba aa3e aeac 033e ac1e a73d 8a43 963e
00000020: 711e 6cbe 39f1 eebd eba5 1ebc d58b e9be
00000030: 3737 c2be 554e 7dbe d772 923e 9d29 6abe
00000040: 36f1 05be ff98 923e b802 603e a804 4d3e
00000050: 2194 15be 4022 433e da04 1bbe 82e8 17be
00000060: 1f10 9ebd 576c 13be 1c2f a4be babc 883e
00000070: 3719 bfbe 3488 e1bd 193c bf3e 856e 38bd
00000080: 5acb c5be a4fb 56bf 876f 9dbe a1e3 a8be
00000090: d9c4 aabe 052c 1a3f ccce 61be 51b2 883d
000000a0: 0f3e a4be 8cb1 b0be a959 883e cbae 853e
000000b0: 4704 ac3e 336d d8bd 86b0 04be f298 403d
000000c0: 9f3a 7cbe adc4 3c3e 711a 183e 9951 893f
000000d0: 0e50 d9be 8dbe bbbe b6c8 453e e0ba 0abf
000000e0: bcaf bf3c c337 c0be 85c6 12be eef9 a7be
000000f0: aa3d af3e 41b7 a53e f514 87be 9fa9 983e
00000100: 5560 14bf d5fe 6b3e cee1 863e f6a0 1bbf
00000110: 2433 9dbd a822 e03e 1361 973e 3354 b23e
00000120: 6db7 58bd 3518 31bf 6dc7 0d3f 368b d3be
00000130: 1510 eabe 6467 3e3f 27be d1bd 5029 a83e
00000140: 0955 04be e37a 2bbe b425 df3e 40f2 8e3d
00000150: 8e29 153f 5b06 8d3d 0fd0 c7be a3a3 913e
00000160: 532f 46bd d4bd 603e 14d7 87bd b28c ec3d
00000170: 17af a2be 6e62 2cbe 93a6 fb3d a155 87be
00000180: 4cfa 17be ac6d 773e fc7e 923e fd4d b6bd
00000190: a9c9 173f cfec 9f3e 1f1b 6e3e 608e 2dbf
000001a0: a908 d6bd 5e62 1cbf 4b9d 143f ef8b 903e
000001b0: 1bb5 f33d 4931 61bf 6736 e9bd 5959 bd3c
000001c0: e2a5 9e3e 0d48 523e 4ece 49be 7b9d fbbd
000001d0: 14cc 05be c945 b53d b061 1abf a7f2 9b3e
000001e0: 3f62 743e 7731 73be 5bcd 45be e8a5 f4be
000001f0: 74b8 a4be 9790 d3bc 421a 1c3e f766 6abf
00000200: 91c7 25bd c3dc bebe cd97 a3be edb6 193f
00000210: 5801 573c ca20 93bd 543b f6bd a380 a63e
00000220: a8e6 35bf be86 b8be 7a3e 0dbe 308a 22bf
00000230: 33ae 71be 7856 6d3c c960 e3bd e3e8 db3d
00000240: 889c 36be 5ad2 a03e 9b67 c93e 3314 b13e
00000250: 5e8d e2bd 4b29 ba3d 982f 09bf be21 efbc
00000260: 3b39 6d3e bab7 cabd 6b95 db3e 7364 9bbd
00000270: 0b79 9ebc 7d67 573e 6b5e a53e fde6 f9bd
00000280: b9fe e63d 7e49 1fbe 6ea8 88bd f368 fa3e
00000290: 2567 bf3e 5222 eabe 49ba 043f fa67 f53e
000002a0: a96f 9e3e c6aa 733e 5278 aa3e d9b5 7abe
000002b0: 39d7 a7be 028a 043e 6938 4cbe 40c2 49be
000002c0: c28b b73c 4f31 1a3f 6cf3 0fbe 7c77 be3e
000002d0: e0c3 79be b191 223f 38a8 00be 6023 fe3e
000002e0: 1161 a13e d698 a2be c114 dfbe 837a 8cbe
000002f0: ee8d b13d 983d e8bd 178b 48be 3b43 3c3f
00000300: 22bb 3fbd 10f3 81be 365a cb3e 49a8 423f
00000310: 5120 ee3c 9d1d bfbe 98f0 b7be 3a74 fd3e
00000320: 5ee1 993e 3a4e a9be 69a3 a4be f2ad 66be
00000330: dfc2 bd3d 6801 c03d 9734 92be 141f a0be
00000340: 5e02 78bd da26 f6be 8668 2d3f eac1 9dbe
00000350: 8719 9e3c e354 87be 9bbd 16bc 503b 793e
00000360: b96f 10be 2569 86bd 5bf4 b13d 785c 713f
00000370: e7c0 f7be ccd5 463e fc60 0abf bf6a 043e
00000380: 1023 5cbe e07d 87be e78d 0a3e fb44 533e
00000390: a5d6 0b3d 8f41 c93e 5505 de3e 9353 adbe
000003a0: 1147 903b 82a0 02bd 216c 66bc 8754 d13c
000003b0: 51e4 cebe 84b2 ebbc 65d4 a8be 8478 2abe
000003c0: 80e2 313e 5cf4 63be 9777 07be 2ccd be3e
000003d0: d9ab b23d 469e 363e 7e49 c73e 01d9 5fbe
000003e0: 173c 933e 1cba 94bd 2e63 47be defc c2be
000003f0: 58f2 ae3e f7d5 973e 3840 513e f0cc 9ebe
0.2989479 0.1785191 -0.1347801 0.5878682 0.33345634 0.12858841 0.08160147 0.29348403
-0.23058487 -0.11667103 -0.009683113 -0.45614496 -0.3793275 -0.24736913 0.2860324 -0.22867437
-0.13080296 0.28632352 0.21876037 0.20021307 -0.14607288 0.19056034 -0.1513857 -0.14834788
-0.077179186 -0.14396797 -0.32067192 0.26706487 -0.37323925 -0.11012307 0.37350538 -0.045027275
-0.38631707 -0.83977723 -0.3074915 -0.32986167 -0.33353308 0.6022342 -0.22051543 0.06674636
-0.32078597 -0.34510458 0.26630905 0.2610992 0.33597013 -0.10567703 -0.12957963 0.04702086
-0.24631737 0.18434401 0.14853837 1.0728027 -0.4244389 -0.36668816 0.19314846 -0.541914
0.023399226 -0.37542543 -0.14333542 -0.3280787 0.34226733 0.32366374 -0.26383176 0.2981691
-0.5795949 0.2304643 0.2634415 -0.6079248 -0.0767577 0.4377644 0.2956625 0.34829864
-0.052909303 -0.6917756 0.55382425 -0.41317147 -0.45715395 0.7437651 -0.10241347 0.3284402
-0.12923063 -0.16746096 0.43583453 0.06979799 0.5826653 0.06885978 -0.39025924 0.28445157
-0.048384976 0.21947414 -0.0663282 0.11550273 -0.31774208 -0.16834423 0.12287631 -0.26432517
-0.14841574 0.2416293 0.28612506 -0.08901594 0.59292084 0.31235358 0.23252533 -0.6779537
-0.104508705 -0.61087596 0.5805251 0.2823176 0.118997775 -0.8796583 -0.113873295 0.023113893
0.30985934 0.20535298 -0.19707605 -0.122858964 -0.13066131 0.08851201 -0.6030531 0.30458567
0.23865603 -0.23749338 -0.19316618 -0.47782826 -0.32171977 -0.025825782 0.15244392 -0.9156336
-0.040473524 -0.37277803 -0.31951752 0.6004475 0.013122879 -0.071839884 -0.12023035 0.32520017
-0.7105508 -0.360403 -0.13793364 -0.6349211 -0.23601608 0.014485948 -0.11102445 0.10737779
-0.1783315 0.31410486 0.39336857 0.34585723 -0.1106212 0.09089907 -0.5358825 -0.029190894
0.23166363 -0.09898324 0.42887434 -0.075875185 -0.019344827 0.21035571 0.32298598 -0.12202261
0.11279053 -0.15555379 -0.066727504 0.48908195 0.3738338 -0.4572931 0.5184675 0.4793089
0.30944565 0.23795614 0.33294922 -0.24483432 -0.3278139 0.12943271 -0.19943394 -0.19703007
0.022405509 0.6023149 -0.14057702 0.37200534 -0.24391127 0.6350356 -0.1256417 0.49636364
0.31519368 -0.3175723 -0.4357052 -0.2743722 0.08669649 -0.11339873 -0.19584309 0.73540086
-0.046809323 -0.25380754 0.39717263 0.7603803 0.029068144 -0.3732728 -0.35925746 0.49502736
0.30054754 -0.33067495 -0.32155922 -0.22527292 0.09265684 0.09375268 -0.28555748 -0.3127371
-0.060549133 -0.48076516 0.67737615 -0.30812007 0.019299282 -0.2643195 -0.009200479 0.24339032
-0.14105119 -0.065630235 0.08689185 0.9428172 -0.4838936 0.19417495 -0.54054236 0.12931345
-0.2149775 -0.26463223 0.13530694 0.20631783 0.034140248 0.3930783 0.43363443 -0.33852825
0.004403003 -0.031891353 -0.014063866 0.025553001 -0.40408567 -0.028771646 -0.32974544 -0.16647536
0.17371559 -0.22261184 -0.13229214 0.3726591 0.087241836 0.17833814 0.38923258 -0.21860124
0.28756782 -0.0726206 -0.19471428 -0.38083547 0.3416927 0.2965543 0.20434654 -0.3101573

enc_fc.bias f4 [32]
00000000: 2ce1 053d db22 a63e e74c 2bbe 8cfb a4be
00000010: 342f 29be df70 783c e921 c53d 1789 1bbe
00000020: 1530 203e 354d 513e 4598 02bd 08a5 52bd
00000030: 1683 0ebe 8b45 aeba 423f 4ebe 5355 ffbd
00000040: 3426 8b3d 66f0 d5bd b4b6 b13e f9fd 193e
00000050: 2e4b 53bb e7e0 823e 419b a43c e223 b13d
00000060: f945 853d 76ba 6b3e 48c7 843e 4679 b33d
00000070: 7f5a cfbd 1542 6dbe 9692 42be 14d8 8bbe
0.032685444 0.32448468 -0.16728555 -0.32223165 -0.16521913 0.015163629 0.096256085 -0.15189014
0.15643342 0.20439608 -0.031883497 -0.051426917 -0.13917193 -0.0013295872 -0.20141318 -0.12467446
0.06794396 -0.10446243 0.34709704 0.15038289 -0.0032240856 0.25562212 0.020093562 0.08649422
0.06507487 0.23020348 0.2593329 0.087633654 -0.10124683 -0.2316974 -0.1900123 -0.27313292

enc_conv1.lin_l.weight f4 [64, 32]
00000000: d69c 8e3d ef91 a63d 24be 88bd 8384 4bbd
00000010: b183 02bd 611f 0b3e fcc4 3c3e 23e2 11be
00000020: 59a1 203e 42c7 fd3c fe9c 35bc c8ec 67bd
00000030: 14af 1bbe f11b 1d3e 6215 eebc c4ed 2ebc
00000040: 6baa e5bc 0ef8 9dbd faca 11be 16da 68bc
00000050: 6cf8 3cbe 8681 21bd 971d 563c 5559 e33d
00000060: d2f6 043e c749 01be 6f79 10be 4944 2c3d
00000070: 9762 f53d c3f3 0f3e 97b1 1ebe 973b 2ebe
00000080: c2e3 febc 55e0 42bd 8687 06bd 8f1d 31be
00000090: c16f 0fbe 2912 f53b a5c6 3f3e 384e 99bd
000000a0: 9f25 403e 0141 16be 9b02 ef3d 8d8f febd
000000b0: 77c9 bcbd 1f8a 53be 9720 57bd dc33 4abe
000000c0: 5a1a d7bd c0f9 19be 5444 3a3e d7ef d3bc
000000d0: 55bc f8bd a1bf 5e3d 81b9 80be 8c07 f33c
000000e0: 6198 8bbe 9f83 24bd 9793 6f3c b1c0 45be
000000f0: 9ea0 19bd f649 51bc 83dd 26ba cf3f 0abe
00000100: 7c29 0abd efa1 c13d 7b37 10be 6fde 5f3d
00000110: 6cb4 39bd 68a3 613d d6aa 453d ce65 833d
00000120: 427a 78bc 7a5d 083e 23bb ee3d 3a5f 323d
00000130: ab4c 48bc d55d dabd 4911 813c ca49 94bd
00000140: cc40 cabd 4e2e 22bc a7df 7a3e 64b3 cb3d
00000150: 8832 87bd 3de2 b33d 97b3 f1bd c926 1bbc
00000160: 0cb2 a13c b300 613d 8582 aa3d 2dc4 5d3d
00000170: 96b5 12be ca45 30be 4b17 bcbc a19e 06be
00000180: 283e a53d f6b8 41be a7f8 843d b187 ec3d
00000190: 73b6 2ebd 712b 89bd 1617 403e f79d 91bd
000001a0: c283 973d c300 283e 0e4c 1dbd c04b 683d
000001b0: 1cfe 6d3d 76a8 243e a457 1c3e f5fb 823d
000001c0: 387a b0bd b465 8cbd d622 0b3e 8742 fabd
000001d0: ade7 04be a783 5d3d 5a10 5ebc 3929 863a
000001e0: bb33 dabd 641b 673d fd86 6bbc f3d1 de3d
000001f0: 8399 99bd ebe3 bdbc 43cf 563e 42aa a63d
00000200: 30ce 60bc 4734 b03d cebe 6cbd 419a 1b3e
00000210: f72d 483e 0afd 72be 20b9 b3bd 49d1 dbbb
00000220: 835d 763c 7871 373e 13f3 c7bd 776d 813d
00000230: 7cb2 a2bc 0c71 a5be 4a3c 5bbd 506c 42bd
00000240: c34e 08be 375a d1bd 63cd 08be df5e c13d
00000250: febf 40be 1389 7dbe 09c2 93bd 466f 293e
00000260: 8918 e1bd f97d 073e 0616 473d 6a89 eabc
00000270: 5ea7 193e 28c9 cebc aeb2 87bc 3a44 1f3e
00000280: 7ef3 bd3d 0a30 0fbe e024 0d3e e373 6e3d
00000290: 0023 24be a4dc 2a3e 1442 04bc a8bb 8fbd
000002a0: 07b5 533b f27c 183e e5c4 1a3d 17c9 d9bc
000002b0: 4a53 6f3d fd9d aebd ebf5 ad3d 0032 2abe
000002c0: b3c7 37bd 3dcf 8fbd e784 49be b697 1f3d
000002d0: e350 41be 51f2 10be a32d 3d3a 1c6a 9b3a
000002e0: c5b6 143e b2eb df3d dff1 963d 64b0 37bc
000002f0: 0b18 0c3e 6da2 aa3d def8 c33c 3feb e23d
00000300: ff93 9c3c 8ae3 0e3e 3727 0cbe 9124 c43d
00000310: cb39 efbd 0f73 4939 22f3 743d 9b44 eebd
00000320: ecf6 37be 2a0a 02bd b1ec 203e e6e2 96bc
00000330: 954c e5bd 8e28 ea3d 86fd 04bc 288c 9b3c
00000340: d8ff d9bc f54b a1bd 8aad 2a3e e0ff 273d
00000350: 3824 52bd ce4b f53d c680 8fbb a34d 2ebe
00000360: 28ec 5d3d 80b1 98bb 0502 423d 129b d63d
00000370: 0629 bc3d 52ff f9bc 9372 083d 131c e53c
00000380: f849 9ebd ec41 9d3c b3e5 41be 4427 39be
00000390: acd0 02bc ed08 b93c fe49 06bd ba57 f1bd
000003a0: 98f9 2e3d e517 823e 90d7 b4bd 2f8e 90bd
000003b0: ec04 61be 6c2d 403e ba5d 01be a535 cfbd
000003c0: 6f1e 153e 9a25 023c 9a53 7c3e f284 15bd
000003d0: 85e5 b5bd 6ae5 163e 359a 15be 6b97 82bd
000003e0: d0a7 903d 8792 043f 71b1 0fbd fbbf 073e
000003f0: 28d6 31bc b69f 083e 5498 56be 84d7 783d
0.06963508 0.081333034 -0.066768914 -0.04968692 -0.031863872 0.13586189 0.18434519 -0.1424642
0.15686549 0.030978803 -0.011084793 -0.056622297 -0.15203506 0.1534269 -0.02906293 -0.010676805
-0.028035363 -0.07713328 -0.14237586 -0.014212152 -0.1845414 -0.039430164 0.013068578 0.11101023
0.1298478 -0.126258 -0.14108823 0.04205731 0.11981695 0.14057831 -0.15497433 -0.17014919
-0.031114463 -0.04757722 -0.03284409 -0.17296432 -0.14007474 0.0074789715 0.1872812 -0.07485622
0.18764351 -0.14673235 0.11670419 -0.12429724 -0.09218114 -0.20658158 -0.052521314 -0.19746345
-0.10503073 -0.15036678 0.18190128 -0.0258712 -0.121452965 0.05438197 -0.25141528 0.029666685
-0.27264693 -0.040164586 0.0146225905 -0.19311787 -0.037506692 -0.012773981 -0.0006365405 -0.13500904
-0.03373097 0.094547145 -0.14083664 0.05465549 -0.04533808 0.055087477 0.048258625 0.06415902
-0.015165867 0.13316908 0.11656787 0.043547846 -0.01222531 -0.10662428 0.015755313 -0.07240637
-0.0987564 -0.009898735 0.24499379 0.099463254 -0.06601435 0.08783386 -0.11801832 -0.009469696
0.01973822 0.054932307 0.08325676 0.054142166 -0.14327082 -0.17214122 -0.022960326 -0.1314645
0.08068496 -0.18918213 0.06492739 0.115493186 -0.042654466 -0.06697739 0.18758807 -0.071102075
0.07398178 0.1640654 -0.03840261 0.056712866 0.058103666 0.16079888 0.15267807 0.06395713
-0.086170614 -0.06855336 0.13587508 -0.1221972 -0.12979002 0.05408063 -0.013553703 0.0010235674
-0.10654398 0.056422606 -0.014375445 0.108798884 -0.07499983 -0.023179969 0.20977502 0.08137943
-0.013721034 0.08603721 -0.057799153 0.15195562 0.19548784 -0.23729339 -0.08775544 -0.0067082983
0.015036943 0.17914379 -0.097631596 0.06319707 -0.019860499 -0.3231281 -0.053524293 -0.047466576
-0.13311295 -0.10222285 -0.13359599 0.09441923 -0.18823239 -0.24759321 -0.07214744 0.16546354
-0.10991008 0.13231649 0.048604988 -0.028629977 0.15005252 -0.025242403 -0.016564693 0.1555337
0.09274958 -0.13983169 0.13783598 0.058215987 -0.16028976 0.1668573 -0.008072395 -0.070182145
0.0032303946 0.14891413 0.03778543 -0.026585145 0.05842904 -0.085262276 0.08494171 -0.16620636
-0.044868182 -0.070219494 -0.19679604 0.038963042 -0.18878512 -0.14154936 0.0007216578 0.0011857185
0.14522846 0.10933627 0.07370352 -0.011211488 0.13681047 0.083317615 0.02392238 0.11080026
0.019113539 0.13953987 -0.13686834 0.09577287 -0.11680945 0.00019211716 0.059802182 -0.11634179
-0.17965287 -0.031747974 0.1571529 -0.01841874 -0.111962475 0.114335164 -0.008117085 0.01898773
-0.026611254 -0.07875816 0.16667762 0.041015506 -0.051304072 0.11977349 -0.0043793647 -0.17021804
0.054180294 -0.0046598315 0.047365207 0.10478796 0.09187512 -0.030517254 0.03331239 0.027967488
-0.07728952 0.019196473 -0.1893528 -0.18081385 -0.007984322 0.022587264 -0.03278541 -0.11784311
0.0427185 0.25408855 -0.08830178 -0.07058369 -0.21974534 0.18767327 -0.1263341 -0.10117654
0.1456239 0.007943535 0.24641266 -0.03650374 -0.08881668 0.14735952 -0.14609607 -0.06376537
0.07063258 0.51786083 -0.03508133 0.13256828 -0.0108542815 0.13342175 -0.20956546 0.060752407

enc_conv1.lin_l.bias f4 [64]
00000000: ce46 5abd d745 32be 1cb0 89bd 8923 973d
00000010: 19a2 bb3d b09c 9b3d 5ce6 eebc 5066 c8bd
00000020: 7cc3 683d b6b1 e43d 7eb6 b93d 6446 b83d
00000030: 0a2f ebbb 2355 b2bd e20b e5bd 4c85 913d
00000040: cc8c fcbb 9f56 1fbd 3842 78bd bc7e c3bd
00000050: fef7 cc3d 5cb5 393e e48d ed3c a064 1ebd
00000060: 023b 2fbe a62c 2d3c a3ce 303e a03b aebc
00000070: a373 003e 2626 84bc 22de cc3d d937 74be
00000080: 69e6 1f3e e0ef e13d 8bf8 0c3d a693 59bd
00000090: ae3a d13d 8f52 123e c6ab 0fbe b571 fd3b
000000a0: 9b24 373e c634 d4bd 47be 0f3e 1600 e3bc
000000b0: c712 383e 9976 0ebe 82e6 383e 9114 dd3c
000000c0: 04b4 a4bd eff9 b63d 3056 2bbe d7b1 01be
000000d0: 4c39 553d 5a0e c1bd d92c 69bd 7086 203e
000000e0: 5c3b 123e 17b7 773d 36f7 043e 399b 24bd
000000f0: ab4e 293e 306e f3bd 86ea 4ebe 1cfa 2ebe
-0.05329018 -0.17409454 -0.06723043 0.07379825 0.09161777 0.07598245 -0.029162578 -0.097851396
0.056827053 0.11166708 0.09068011 0.08997801 -0.0071772384 -0.08707645 -0.11183907 0.071055025
-0.007707214 -0.038900968 -0.060610026 -0.09545657 0.10008238 0.1813559 0.028998323 -0.038670182
-0.17112353 0.010569727 0.17266326 -0.021268666 0.12544112 -0.016131472 0.10003306 -0.23849429
0.15615238 0.11032081 0.034416717 -0.053119324 0.102162704 0.14289306 -0.1403037 0.007734502
0.17885058 -0.10361628 0.14037429 -0.027710002 0.17975913 -0.13912429 0.18056682 0.026987346
-0.08042148 0.0893439 -0.16732097 -0.12665497 0.052056596 -0.094265655 -0.056927536 0.15676284
0.14280456 0.060477342 0.12984928 -0.040187094 0.16533916 -0.11886251 -0.20206651 -0.17087597

enc_conv1.lin_r.weight f4 [64, 32]
00000000: 5de9 163e 157c c43d b27c d8bd 7f1a 2dbe
00000010: 3a7e 01be 7889 80be 3282 3c3d fc62 823e
00000020: 82e4 ebbd d16d d73d 0853 733e 9a61 483c
00000030: 78f4 67be 7907 5dbe de09 b3bb 5366 eb3c
00000040: 48f1 223e 6ca1 f9bc 950c ef3b 10d4 32be
00000050: 81e3 903b 57f8 ddbd c40c 42be 370a 5c3e
00000060: dec6 8c3d d70f c3bc 633c c3bd 6fe0 353d
00000070: 5b9a 12be 6c39 b33d c1f4 c6bd 4135 52bd
00000080: 1063 8cbd 1d09 07be da2f 943d 0397 3a3e
00000090: e328 25be 136a 173d 4c67 22bd 953f 3ebe
000000a0: f4b1 2abe f469 44be d8cc 5bbe 8f0d 64bd
000000b0: f551 033e bc5a 86bd b7bc 573e c3be 2bbe
000000c0: 70b5 81bc 3ce1 bd3d dfbf 0cbd b940 1dbe
000000d0: daf4 ca3c 09a6 6f3d bf05 0d3e 81a6 ac3c
000000e0: 600f b73e 15bd 5b3e cfce 353c 81d3 6ebc
000000f0: 7b6a 453d fd32 623c e416 553d b044 8c3b
00000100: 5aba 67bd 72a3 3c3d bbd4 113d 8283 223b
00000110: 0556 14be 806a c0bd 725c 833e e0ea ba3e
00000120: c635 db3e a0af d63d 68dc 05be 6c7f 9abd
00000130: af9b abbd 1f20 393e 55cf 433e b982 e73d
00000140: fb33 54bd 496e fdbd c5e0 3f3e 723e 993d
00000150: d9d0 70be 41c1 5dbd 9b70 553e de9d 4a3d
00000160: bbc9 c43e 6b2f 10be d179 833d dfda c23c
00000170: 4830 083e d8b8 c53c 9742 133e 42c9 a83c
00000180: be35 c2bc 0576 0cbb 8a7f 05be 2bf8 afbc
00000190: ffb6 9bbd 08b6 bbbd 5388 123e 7b27 653e
000001a0: 7110 623e 21bd 14bd 0ac0 ff3d 537e ad3d
000001b0: da8e fb3b f99e 963d 9e54 2e3e 9522 693e
000001c0: deb1 0ebe 8a7d c5bc 08ae 7cbd 0f32 4f3d
000001d0: 0871 47be 21e4 e1bc 4b3b 983d 51c6 84bd
000001e0: c8a5 6ebe ab0f a23b 052f 54bc e54c b6bd
000001f0: 20a5 20bd cc9d 353e 6173 023e 602a ddbd
00000200: 16b2 7abd c30c 8a3e f223 35be ab39 8a3e
00000210: ac9c 03be 29f1 f43d 6c45 94be 9ac0 48be
00000220: d3c1 90be d78b 063e e76c 583c a89f 563d
00000230: 04bc 943e 9269 3f3e 6d73 1dbb 4100 e4bd
00000240: b244 2cbd c191 ce3d 4b85 e9bd 92f9 103e
00000250: 75c2 aa3e 6cd2 62be d6d3 88be 1d4c 40bd
00000260: 9bad b4be 4c4a 1d3e e57c 62bd a2e7 923d
00000270: 433f 9abd f4a7 a6bd d295 38bd e5aa 32bd
00000280: b86b 04bd 3f2d 16be b7a0 10be 86e9 3dbe
00000290: 35ed 3bbe 1009 8abc 7ff8 82bd d907 173e
000002a0: aef5 a9bd 8bd1 713d 4af4 153d 041a fcbc
000002b0: 4515 32be cad9 5f3d 1034 72be 76a3 823a
000002c0: 1289 533d 5408 03be 2798 e03c 7c6b a8bd
000002d0: 9360 c43d 3a9f da3d fb0e 6cbd 23b3 2abe
000002e0: 7cfe d63d 2486 a8bd bfec 34be 2b33 16be
000002f0: 5c7a aabd 8682 083e a97c 3dbe e45e c7ba
00000300: 75b8 49be 89ba 4b3e 6295 52be b209 b1bd
00000310: 6f65 77bb 12bb 8f3d 7f29 21be c1d4 713e
00000320: f3a4 b83d 8eb0 a43e cc9f 403b c1da 353c
00000330: 2dc4 05be 5afa 343e 604a babd c6b4 4c3e
00000340: 8039 4d3e 5d9c 73be c498 e5bb 82fd 463e
00000350: 2684 4bbe 1eca 99bd b363 d3bc 5694 a83d
00000360: 9a36 b73c ea31 2fbe 722f 9a3d 36e7 b6bd
00000370: 57eb 33be 8129 74bd 6087 babd b801 31be
00000380: a023 6d3d a2c7 1bbe 6412 36be c183 843d
00000390: 6919 9fba d945 473e 3d5c 99bd ea38 7fbd
000003a0: cdf7 9c3e 1299 9dbd a963 f93d be0d 0a3d
000003b0: 2e4e 143e bfd9 0abd 0846 e53d 3fb9 b1be
000003c0: c5a9 67bc cced 203e f594 e33d 7687 263e
000003d0: 8cd7 81bd 1fd0 863d 4ba9 a83e be10 14bd
000003e0: 2b74 b7be f0c7 aa3e a5c6 65be 0a18 423d
000003f0: 2167 d33d 748e 2a3d 852b 3d3e ba25 bdbd
0.14737459 0.09593979 -0.10570659 -0.16904639 -0.12645808 -0.2510488 0.0460226 0.25466144
-0.11518194 0.10518993 0.23762143 0.012230301 -0.22651851 -0.21584882 -0.0054638227 0.028735315
0.15912354 -0.03047248 0.007295201 -0.17463708 0.004421652 -0.10838383 -0.18950182 0.21488272
0.068738684 -0.023811264 -0.09533002 0.04440349 -0.14316694 0.08751187 -0.09714652 -0.051320318
-0.06854832 -0.1318707 0.072356895 0.18221669 -0.16128878 0.036966395 -0.039649293 -0.18578942
-0.16669446 -0.19181043 -0.2146486 -0.055676993 0.12824233 -0.06560275 0.21068083 -0.16771989
-0.015833586 0.09271476 -0.03436267 -0.15356721 0.024774957 0.058507953 0.13771723 0.021075489
0.35753918 0.21458848 0.01109667 -0.014576794 0.04819725 0.013806102 0.052023783 0.004280649
-0.056574203 0.04605431 0.035603266 0.0024797623 -0.14485939 -0.09395313 0.25656468 0.3650732
0.42814463 0.104827166 -0.1307236 -0.07543835 -0.08379304 0.1807866 0.1912206 0.1130423
-0.051807385 -0.12374551 0.18738087 0.074826136 -0.23517169 -0.05413938 0.20843737 0.04946696
0.38435158 -0.14080589 0.06419719 0.023786006 0.13299668 0.024135992 0.14380871 0.02060378
-0.023707267 -0.002143265 -0.13036934 -0.02148064 -0.07603263 -0.09165579 0.14309816 0.22378342
0.22076584 -0.03631318 0.124878004 0.0847136 0.0076769413 0.073545404 0.17024466 0.22767098
-0.13935038 -0.024107713 -0.061689407 0.05058485 -0.19476712 -0.0275746 0.07433184 -0.06483138
-0.23305428 0.0049457154 -0.012950663 -0.08901385 -0.039219975 0.17735976 0.12739326 -0.10799098
-0.061204992 0.2696286 -0.17689493 0.26997122 -0.12852734 0.1196006 -0.28959215 -0.19604722
-0.28272876 0.13139282 0.013209558 0.052398354 0.29049695 0.18692616 -0.0024025098 -0.11132861
-0.0420577 0.10086394 -0.11402377 0.14157704 0.33351484 -0.22150582 -0.26724118 -0.046947587
-0.352887 0.15360373 -0.05529489 0.07173087 -0.075315975 -0.08137503 -0.045064755 -0.04362001
-0.03232929 -0.14665698 -0.14123808 -0.18546113 -0.18352206 -0.016850024 -0.06395053 0.14749087
-0.08298813 0.059037726 0.036609925 -0.030774124 -0.17390926 0.05465106 -0.23652673 0.0009966928
0.051644392 -0.12796146 0.027416302 -0.08223626 0.095887326 0.10674901 -0.057631474 -0.16669898
0.10497758 -0.0822871 -0.17668436 -0.14667957 -0.083241194 0.1333104 -0.18504585 -0.0015210775
-0.19699271 0.19895376 -0.20564798 -0.08644427 -0.0037749668 0.07018103 -0.15738486 0.23616315
0.090158366 0.3216595 0.0029392121 0.011099518 -0.13063116 0.17673627 -0.09096217 0.19990835
0.20041466 -0.23790117 -0.0070067365 0.19432643 -0.1987463 -0.07509254 -0.025804376 0.08231418
0.022364903 -0.17108884 0.07528581 -0.08930819 -0.17570244 -0.059609894 -0.09107852 -0.17285812
0.057895303 -0.15212873 -0.17780453 0.064704426 -0.001213831 0.19460239 -0.07488296 -0.062310137
0.30657807 -0.076952115 0.12177212 0.03370451 0.14482948 -0.033899065 0.11194998 -0.34711644
-0.014139597 0.15715712 0.11112396 0.16262612 -0.063399404 0.06582665 0.3294166 -0.03614878
-0.35830817 0.33355665 -0.22439058 0.047386207 0.10322405 0.04163976 0.18473633 -0.092357114

enc_conv2.lin_l.weight f4 [128, 64]
00000000: 72ef 5dbc c9f5 5bbd d00b 583c bdfc ba3d
00000010: c71a efbc 4810 ce3d b1b1 06be e13d bcbd
00000020: c22c 11be 6315 b7bb 1e49 afbc 9161 c4bb
00000030: a5a1 03be b17e a43d 1a91 9a3d 52c5 1fbe
00000040: ce53 0c3e 0487 be3d c58c 13bd 71f0 573d
00000050: e239 8fbd e1dc 413d 6326 c8bd 6783 523c
00000060: 9fc3 fb3d f0c7 383c bb2c 2c3c 5971 e83d
00000070: c2e9 023d 6bed ad3d b35f 6abd bae7 40bd
00000080: 99a0 1ebc dc11 cfbd 60e8 8dbd 6a95 8a3b
00000090: be1d 84bd db96 873d 4192 87bd 0416 903d
000000a0: 448b f3bd fa77 f0bd 6af1 853a ae74 6f3a
000000b0: adf6 a03c 5491 b13d d011 e9bd 46f8 8e3d
000000c0: 98ea 103c f215 2b3d 804c 9c3d 11a6 27be
000000d0: 15aa 993d 51cb 213d c80d 103e c5a4 b2bd
000000e0: 74eb e13d 98c7 cd3d 772b 8bbd 6ee6 623d
000000f0: 308e ddbd 1b6e 62bd 5eaa 03be b6b1 28bc
00000100: a2f5 853d 351e 84bd 5cc0 f0bb 4765 b1bd
00000110: b1c4 c63d 0003 e53c cff6 7d3d 0cb0 e33d
00000120: ca78 b1bd db35 ff3d ad94 1cbe d329 17bd
00000130: df50 0d3e dc81 ff3d 821b f23d 1d36 923c
00000140: 5fea b4bc 5a13 c5bd 7c5c 23bd 4287 913d
00000150: 98fc 103d c729 6dbc bf2d 82bd b770 dd3d
00000160: b972 4cbc f2b2 32bd ac70 b83d e0f9 c03d
00000170: fda6 c83d e483 f93d 3a86 57bd 14c6 b83d
00000180: 6c88 99bd a1ac 03be 24a0 d6bd d56d c33c
00000190: 0460 183e 73eb 48bc 4b42 773d 0dd6 ff3d
000001a0: 97cf 7cbc 34d8 ee3d cb97 6f3d 9ac9 1cbe
000001b0: f124 093d a951 e03c 020b 493d 41ef 8cbd
000001c0: b307 633e 212f d33d 66e9 e93a 00fd 653d
000001d0: 47ca 05be fe61 a6bc 0c93 08bd a382 653b
000001e0: 0fdb a53d dc7c cd3d 3601 dfbd f364 d33d
000001f0: 4b3b 15be b91f 98bd 40af c2bb 521f bb3c
00000200: afed 803d 54c7 a83d 4ca3 a5bd c24a f83d
00000210: 9b51 c5bd b9d4 29bd 669b ab3b 5225 9fbd
00000220: d1a4 f63c c079 093e 709e 903c 82b0 7fbd
00000230: e84f 9e3d 7b83 28b9 bce3 8d3c 170d a23d
00000240: c291 233e 87ff 123e 06c7 0d3e 376e 31bd
00000250: 5a13 4e3d 7787 c03d b76d d0bd a258 c03d
00000260: 5389 b53a d733 6fbd 098f 573d e9aa bbbd
00000270: aa83 ae3d de43 8d3e 2bbc f2bd d342 433d
00000280: 1e23 3a3d 64b3 053d 56a2 fa3d e70f 06bd
00000290: dc93 44bd 3113 19bd 98d3 c73d 4bc5 1b3e
000002a0: 8956 023d 7d64 0f3e be82 f0bd 3d94 d0bb
000002b0: 3708 bfbc d02d afbc 762a d8bd 1603 ebbd
000002c0: 56a1 03be 0269 8d3b 81e5 fb3d d4fe 953d
000002d0: 67b7 84bd f380 e93c 6f35 5cbb 15a5 a1bd
000002e0: bbcf 133d bc70 023e 46fd 48bd b919 b83d
000002f0: b334 65bd 366d 10be c5b2 4d3e 0529 b3bd
00000300: a20f 01bd c929 733d ac63 b0bc 68d5 2fbd
00000310: 6d81 1e3e c39b 34bc 2c40 9abd c745 08be
00000320: b409 acbc 6c20 803d c5f0 cdbd 0e03 08bd
00000330: ac2b d43d 88a9 363d 2b10 b0bd 4698 7a3d
00000340: 2eae 2bbd f876 863d 0474 bfbc 75d7 fa3d
00000350: 5344 713d 84f8 ec3d 663a d1bd fd18 e8bd
00000360: f4d0 b9bd fa73 b7bc e2db 5f3d 645d a5bd
00000370: 76d7 b1bd b5f9 a63d 6333 0a3d 76d9 fa3d
00000380: bb48 c8bd b579 e33d de30 6d3d 3e37 afbd
00000390: 19c4 4f3d 0bd4 923d ca1b c13d f354 8bbd
000003a0: 80fe 953d 6495 393d dd44 183d 9eba 0d3d
000003b0: 3d11 20bd a880 a93b bdb0 953c 3f43 15be
000003c0: f507 373e f186 cabd 6d65 1dbc 8c7e a43d
000003d0: 3eca a5bd c4ef 193c 6417 393c 40df 9bbd
000003e0: 835e 8b3d 6293 a73d d05e f93d 7741 ffbc
000003f0: 1f1d debd 6abb 13bd a586 bebc 0e22 f13c
-0.013545858 -0.053701196 0.01318641 0.09130237 -0.029187573 0.10061699 -0.13153721 -0.0919149
-0.1417723 -0.0055872663 -0.02139717 -0.005993076 -0.12854631 0.08031977 0.07547207 -0.15602615
0.13703844 0.09303096 -0.03602292 0.052719537 -0.06993462 0.047329787 -0.09772947 0.012848712
0.12293171 0.011278138 0.010508711 0.11349744 0.03196121 0.084925495 -0.057220172 -0.04709599
-0.009681844 -0.10110828 -0.06929088 0.0042292373 -0.06450985 0.0662057 -0.066196926 0.07035449
-0.11891797 -0.11741634 0.0010219042 0.0009134513 0.019648874 0.08670297 -0.113803506 0.06980948
0.008844994 0.041768976 0.07631779 -0.16371943 0.07503144 0.03950054 0.14067757 -0.087228335
0.11031237 0.10047835 -0.067954 0.055395536 -0.10818136 -0.055280786 -0.12857959 -0.010296276
0.06540991 -0.06451074 -0.00734715 -0.08661895 0.09705485 0.027955532 0.062002953 0.11117563
-0.08665617 0.12461444 -0.1529109 -0.03690512 0.13800381 0.124759406 0.11821653 0.017848069
-0.022084413 -0.09622832 -0.03988312 0.071058765 0.035397142 -0.0144752925 -0.063563816 0.10812514
-0.012478524 -0.043627687 0.090058655 0.0942266 0.097974755 0.12183359 -0.052618243 0.090221554
-0.074967235 -0.12858821 -0.10479763 0.023856083 0.14880377 -0.012263167 0.060365956 0.12491999
-0.015430353 0.11662331 0.05849437 -0.1531128 0.033482496 0.027382689 0.049082763 -0.068815716
0.22170906 0.103117235 0.0017846047 0.056149483 -0.13065444 -0.020310398 -0.03334336 0.0035020493
0.08098423 0.10033581 -0.10888903 0.10321989 -0.145734 -0.074279256 -0.0059413016 0.022842083
0.062953345 0.08241144 -0.08087787 0.12123634 -0.09634706 -0.041462634 0.005237031 -0.0777079
0.030107887 0.1342535 0.017653674 -0.06242419 0.07730085 -0.00016070709 0.017320506 0.07912653
0.15973571 0.14355288 0.13845453 -0.043318 0.050311424 0.09400838 -0.101771764 0.09391905
0.001385013 -0.058399048 0.052626643 -0.09163458 0.08521207 0.2759084 -0.118522964 0.04767115
0.045443647 0.032641783 0.122379944 -0.03273001 -0.047992572 -0.037371818 0.09757155 0.1521198
0.031820808 0.14003177 -0.11743687 -0.0063653276 -0.023319347 -0.02138415 -0.10554974 -0.11475198
-0.12854514 0.0043154964 0.12299634 0.07323995 -0.06480294 0.02850387 -0.0033601185 -0.07892815
0.03608678 0.12738317 -0.049069665 0.08989281 -0.05595846 -0.1410416 0.20087726 -0.08748058
-0.03150905 0.05936602 -0.021531902 -0.04292813 0.1547906 -0.011023465 -0.07531771 -0.13307868
-0.02100072 0.06256184 -0.10055689 -0.03320604 0.10359892 0.04459527 -0.08596834 0.061180376
-0.041914158 0.0656566 -0.02337075 0.122481264 0.05890305 0.11570838 -0.10216217 -0.11332891
-0.09073058 -0.02239417 0.054653056 -0.080744535 -0.08683674 0.081530966 0.033740412 0.12248509
-0.09779497 0.11107198 0.05790793 -0.085554585 0.050724123 0.0716935 0.094291285 -0.06803312
0.07323933 0.045308486 0.03717505 0.0346018 -0.03907894 0.0051728077 0.018272752 -0.14576434
0.17874129 -0.09889019 -0.009606701 0.080319494 -0.08095215 0.0093955435 0.011297081 -0.07610941
0.06805136 0.08182408 0.12176287 -0.031159146 -0.10845398 -0.036067404 -0.023257563 0.029435184

enc_conv2.lin_l.bias f4 [128]
00000000: 668d 0cbd 4b9d c3bd 7341 b63d cc6b adbd
00000010: 62ce 91bd 0ba3 8f3c 998f e3bd efc3 eebd
00000020: 8812 a2bb bcfd 7dbd 361b b6bd 7fdd 1ebb
00000030: 5020 e8bd ee8f 543c 9872 163c bebd e73d
00000040: 8e37 363c 9a2b 863d 0fc8 1c3e e050 a73d
00000050: bccd 053e 1fcf c63c 2321 f63d 36b0 853c
00000060: 9b41 f2bd 1f34 ed3a bdcd 82bd e9e4 653d
00000070: 9178 c7bd 61e7 d5bd 87ee ee3c ca68 e73b
00000080: 5ed7 e6bd f6b2 243e 50ef babd 2162 d5bd
00000090: 29f8 55bc 8d77 e8bd 4fb3 933d 2757 043e
000000a0: e03e bd3d 6e2a 003a c328 c0bd 6405 c0bc
000000b0: 101e cd3d c3a5 a8bc 02ba 0d3e 2de4 373d
000000c0: f297 a53d 5053 e33d b33c 7a3c d8b5 5f3c
000000d0: ebe4 d03d 7919 1c3d a17d 753d 38fb c5bc
000000e0: 212a 043e f867 a6bd 187a 123d 8809 a7bd
000000f0: 0940 f0bc 037b dc3c 8e01 923d 1e23 95bd
00000100: 7d54 003b 811c 7d3c 732b 963d bb39 c53d
00000110: cad5 d83d b93b 123e 7672 d0bd 9bcd 9b3d
00000120: 27ed d93d f1ff 723d 8065 4ebd c320 ec3d
00000130: a5a6 d7bd b102 e9bd e673 89bc a8a4 fd3b
00000140: 9ac7 3f3c ea8d f83d 8666 66bd d823 943d
00000150: 534c f53d 890e babd f226 abbd 0ffa ce3d
00000160: 674e f1bd 9eea 9e3d ff38 03be f1ab 86bd
00000170: 9bf6 c83d e299 973d 89c0 f93d e53a 93bd
00000180: 52f5 1bbc 8f98 04be 9125 edbd 5ffa 17bd
00000190: 4877 023d 9772 d4bc 0297 e93d e62d 3d3d
000001a0: 7a14 5fbc 99c8 e73d 6be5 f23b e302 9a3d
000001b0: 22de 6abb 7b6c 6f3d e1ad c33d 18db a1bc
000001c0: f225 38bd 5250 b43d be67 163d af88 8abd
000001d0: 288a 3e3b 666a ca3b 23ec 20bc 2db3 603d
000001e0: 8c58 b0bd acb5 fc3d 7105 e1bc 4336 c4bd
000001f0: fc9e 43bc 85a1 0e3d a611 d03d 25f6 e33b
-0.034314536 -0.09551486 0.08899202 -0.08467826 -0.071194425 0.0175338 -0.111113735 -0.11658465
-0.0049460568 -0.062009558 -0.08891909 -0.0024240909 -0.11334288 0.012973769 0.009182595 0.11315487
0.011121644 0.06551285 0.15310691 0.081697226 0.13066763 0.024268685 0.12018039 0.016319375
-0.118289195 0.0018097198 -0.06386898 0.05612651 -0.09739793 -0.10444523 0.029166473 0.0070620524
-0.11271547 0.16083893 -0.091276765 -0.10419107 -0.013059654 -0.113509275 0.07211935 0.12923871
0.09240508 0.0004889135 -0.09382775 -0.02344007 0.100154996 -0.020586854 0.13840488 0.04489534
0.08085622 0.11099875 0.015273261 0.013654195 0.10199913 0.03811023 0.059934262 -0.024167642
0.12906696 -0.08125299 0.03576097 -0.08156115 -0.02932741 0.026914125 0.07129203 -0.07282089
0.001958161 0.01544869 0.07332506 0.09630152 0.10587652 0.14280595 -0.10178082 0.076075755
0.10640936 0.059326116 -0.050389767 0.11529686 -0.10529832 -0.113774665 -0.016778897 0.007740576
0.011705304 0.12136443 -0.056250118 0.07233399 0.11977448 -0.090848036 -0.083570376 0.10106289
-0.11782532 0.077595934 -0.12814711 -0.06575764 0.09812661 0.07402398 0.12194926 -0.071889676
-0.009518938 -0.12948821 -0.11579431 -0.037104007 0.031852037 -0.025933547 0.114057556 0.04618635
-0.013615722 0.11317558 0.0074126027 0.07520082 -0.0035837968 0.058453064 0.09554649 -0.019757792
-0.044958062 0.088043824 0.03672003 -0.067643516 0.0029074047 0.0061772345 -0.009821924 0.054858375
-0.08610639 0.12339339 -0.027468415 -0.09580662 -0.01193976 0.034822006 0.10159616 0.006956833

enc_conv2.lin_r.weight f4 [128, 64]
00000000: 532b 80bd bc2a 0cbb 009f ba3c b1f7 353e
00000010: 66fc d7bd 783c 023c a1ad 85bd a0d1 263c
00000020: d0ac 5c3c 9dd2 ea3b 7f1c ed3d 43e3 0dbe
00000030: ab4d eabd 4192 0439 b08b dfbd dfd7 fa3c
00000040: 0c8f 88ba 6b32 c5bd 62fb c03d fe77 78bd
00000050: 5116 66bb 847a f03d b343 68bd cc69 d7bd
00000060: 8bd8 db3d fdc7 22bc 515f debd eabf 893b
00000070: 1a3a febd ffea c4bd 9e03 57bd 4e2a f0bd
00000080: 98f9 2bba 30cf 08bd 2c2f afbc 9cdf bdbd
00000090: 8351 2ebe 1981 1d3e 4e28 43be 74b9 c13d
000000a0: 7981 183d 9670 1dbe 7f56 e1bd 8ed5 7cbb
000000b0: 69c1 973d 7d63 983d f4e6 0fbc bb1d c7bb
000000c0: 344d 02bd 6440 e7bc 1faf d9bd 2543 01be
000000d0: 6743 963d c4a7 89bd c433 e83d e3fa 0b3d
000000e0: d124 593e 6ab6 9ebd a981 14be 9b7b 28bd
000000f0: 5cad 80bd 20c6 b6bd 678b 9c3d ac19 7abd
00000100: d7bc e13d 644e 983d 0e44 1c3d 59aa be3d
00000110: ee98 863c 32bd 74bd 5859 2ebe 6cea cabc
00000120: b39c 033b 471c 7b3d 449c 83bd f7d7 893c
00000130: 4cff c43d b0ed ce3c 7eb6 173d f663 49be
00000140: f4f8 e33d 808d 733d 6b2e 693d faaa 64bd
00000150: 0c61 8a3d 82ef 5bbd 3ae4 873c 140d 07bd
00000160: 8dd7 92bd 2cea a1bd f5db efbd e597 34bd
00000170: 7c23 3f3c 19d5 ae3c 642a 07be 1e95 d23d
00000180: ff83 c2bd 9a6a 133e 6418 0d3d 3158 a63d
00000190: a651 d8bc 50e7 81ba 2601 503e edb6 91bc
000001a0: f213 75bd b4aa 203e 8093 fb3d 08f1 82bc
000001b0: d9ad 8a3c 969d 1c3e 276f 603d 1231 223e
000001c0: 0f24 303d 7a72 01bd d573 e8bd e7ac 013e
000001d0: 8712 ee3d ff71 313e df13 ddbd c100 09be
000001e0: b8e7 57bc 2e92 a2bd de52 323d fd15 e9bd
000001f0: f81c 593d 6ef6 1c3d f843 da3d d8fa 443e
00000200: f9e0 bebc ea70 c9bc 0bca 593d d0e7 24be
00000210: 31d7 f73d 8129 303c 6d01 a63c bbe8 ccbd
00000220: 3ed5 8ebd a095 c3bd 6eab 893d ba29 ee3d
00000230: 637d c63d eeaa 6bbd 5be1 aebd a0e2 37bd
00000240: d525 333e 4a7c d53c 0790 31bb 10f8 a1bd
00000250: d9d7 fb3c 46fe ae3d 7dac f23d 392d 16be
00000260: aefa 19bd 3c94 3c3d c8a7 fa3d 800c c43d
00000270: a0ef 65bd 84a1 2b3e 0fb9 c53d bc98 b03d
00000280: 090b 403c 7137 a3bd c329 9abd 23fd 3b3a
00000290: 3788 13be 1967 0abd 7bdf 653d 0ef9 2bbe
000002a0: 6fea 813d 3a54 903c de9a c13c c1cc 5f3d
000002b0: 6886 b7bc 1b7c b0bc 8d06 5a3d 49ca 8a3d
000002c0: e952 863d 4619 8f3d b281 efbd 26bf ffbd
000002d0: bf3b 54be 83e9 81bd 4273 01bd fe1c 40bd
000002e0: 726a 65be bdda b83d 1a85 bfbd 1ed0 eebc
000002f0: 7dd5 60bd c66b 873d 4df7 963d ace5 bbbd
00000300: cae2 4fbe 0fdb 573d 49c2 713d e155 b5bb
00000310: 9dbf 5a3e dec7 30be 5dc1 e9bc 4a29 cf3d
00000320: 3fd4 a2bb a709 26be 4734 9e3d a648 79bc
00000330: 430c 16be 0eca 3dbd e82b 4ebd b7b7 55bb
00000340: e4f1 fc3c 79cf 42ba 7b0d 5abc 86f8 253d
00000350: 290f 023e f214 08be 6d5e 4f3d e071 b9bd
00000360: 1ec6 2f3e dec0 d73d e824 f0bd a5c2 863d
00000370: dc55 b13c d370 10be ab1f c63d aaa1 503d
00000380: b1c3 7abd 1b05 cdbd e7e8 273d 144c 073d
00000390: 4153 7abe 6300 563e 9d4c bbbd 48cb e23d
000003a0: 0317 053e 4eac ddbc 4fd7 e1bc 4f8d a73d
000003b0: 9bb5 8c3d 258d 6abd cf43 42be 729e 033b
000003c0: c504 a5bd cc77 b83d 02bd 053d 3080 2dbe
000003d0: f846 7abd 6a68 cebb 0005 11be bad8 383c
000003e0: bc41 b03d 10d2 9cbc 6954 edbd abd9 193e
000003f0: fd37 9abd 0629 b23d 9d4c 4c3e 2df1 cf3c
-0.062582634 -0.0021387776 0.022780895 0.17770268 -0.10546188 0.007948987 -0.06527258 0.010181814
0.013468936 0.0071662203 0.11577701 -0.13856225 -0.11440595 0.00012642985 -0.10915315 0.030620513
-0.0010418608 -0.09628757 0.094229475 -0.06066131 -0.0035108516 0.11742118 -0.056705188 -0.10518226
0.10734662 -0.009935376 -0.10858024 0.004203786 -0.12413426 -0.096151344 -0.052493684 -0.11726819
-0.00065603247 -0.033400714 -0.021384798 -0.09271166 -0.17023282 0.15381278 -0.19058344 0.094592005
0.03723285 -0.1537498 -0.11002826 -0.0038579437 0.07409937 0.07440851 -0.008783091 -0.006076542
-0.031811908 -0.028228946 -0.10629105 -0.1262327 0.07337075 -0.06721452 0.113379985 0.03417481
0.2120545 -0.077496365 -0.14502586 -0.041133504 -0.06283066 -0.08924508 0.076437764 -0.06105964
0.110223465 0.07436827 0.03815084 0.09309835 0.016430344 -0.059750743 -0.1702627 -0.024769984
0.0020082414 0.061306264 -0.0642629 0.016826613 0.096190065 0.025259823 0.037039272 -0.19667038
0.111314684 0.059461117 0.056929033 -0.05582712 0.067567915 -0.05369521 0.01658832 -0.032971457
-0.07170019 -0.07905993 -0.11711875 -0.04409017 0.011666175 0.021341847 -0.13199764 0.10282348
-0.094978325 0.14396134 0.03444709 0.0812229 -0.02640612 -0.0009910855 0.20312938 -0.017787421
-0.059833474 0.15690118 0.12283993 -0.015984073 0.0169286 0.1529449 0.054793503 0.15839031
0.04300314 -0.031603314 -0.11350218 0.12663613 0.116246276 0.17328642 -0.10794806 -0.13379194
-0.013177805 -0.07938038 0.04353606 -0.11381147 0.053006142 0.03832095 0.10657495 0.19236314
-0.023300635 -0.024589974 0.0531712 -0.16104054 0.121015914 0.010752083 0.020264352 -0.10005327
-0.069742665 -0.09550023 0.06722151 0.116290525 0.09691884 -0.057536058 -0.08539077 -0.04489386
0.174949 0.026060242 -0.0027093904 -0.07908642 0.030742573 0.085445926 0.11849306 -0.14665689
-0.037592582 0.046039805 0.12239033 0.09572697 -0.056136727 0.16760832 0.09654438 0.08622882
0.011721381 -0.07969559 -0.07527497 0.0007171204 -0.1440743 -0.033789728 0.05612133 -0.16794226
0.06343543 0.017618287 0.023633417 0.054638628 -0.022402957 -0.021543553 0.053228904 0.06776864
0.065587826 0.069872424 -0.11694659 -0.124876305 -0.20725916 -0.06343367 -0.03160406 -0.04690265
-0.22403887 0.09026096 -0.09351559 -0.029151972 -0.0548911 0.06612353 0.07371388 -0.09174666
-0.20301357 0.052699145 0.059023175 -0.005533919 0.21362157 -0.17263743 -0.028534586 0.10115297
-0.0049691494 -0.1621462 0.07724815 -0.015215075 -0.14653115 -0.046335272 -0.05033484 -0.0032610723
0.030877061 -0.00074314285 -0.013308878 0.040520214 0.12701096 -0.1328924 0.05062716 -0.09054923
0.1716542 0.10534833 -0.11725789 0.06580094 0.021647386 -0.14105539 0.09674009 0.050935425
-0.061221782 -0.100107394 0.040993597 0.033031538 -0.24445821 0.20898585 -0.09145472 0.11073929
0.1299706 -0.0270597 -0.027568487 0.08181249 0.06870576 -0.057263512 -0.1897118 0.0020083454
-0.0805755 0.090072244 0.032650955 -0.16943431 -0.061102837 -0.006299068 -0.14162064 0.01128214
0.08606288 -0.019143134 -0.115883656 0.1502444 -0.0753021 0.08699231 0.199511 0.025383556

bottleneck.lin_l.weight f4 [128, 128]
00000000: 4c1e a33d 3c21 b9b9 6085 6e3c 70ad 47bd
00000010: 359f 9dbd 35d7 8abd 16f1 a43d c4f8 2a3d
00000020: e8c9 60bd 56b1 32bd b8a2 113d 5526 b9bd
00000030: 0770 aabd 2dca abbc 0b77 2cbd 21eb 9a3d
00000040: 745f 453e 5bfc 28bc 05c4 9ebd e631 a63d
00000050: 3367 1abe 8c10 ce3d 7eba 28bd a70a 68bd
00000060: f424 50bd 51a4 bc3d 388a d6bd 9e41 cebc
00000070: cb1f 89bc b8f5 7cbd 9e46 e83c 6e93 edbd
00000080: e8da 80bc 7a10 113e 68d2 f8bc d26c c1bd
00000090: ae45 b63d 0315 c7bd 142b b83d c1f0 b4bd
000000a0: e3d2 843d 223f eebd 2630 1d3c 19e9 93bd
000000b0: c797 adbd 0a17 eabc d28d ea3d da79 96bd
000000c0: b869 263d 74cd d03d 1381 acbd 88f6 023d
000000d0: 1dbc 5bbd 0821 743d ae41 a8bd ab01 a1bd
000000e0: 2574 ad3d b579 73bd c662 573c c30a b63c
000000f0: 800a 14be cd6c f73b ef2b ab3d 6de6 5a3d
00000100: 2534 4f3d 641d 9d3d 2949 8e3c 4e7d a83d
00000110: c584 ba3c f0c1 6e3d 7aca fabc 16ee 0c3e
00000120: 334f ccbc e4fc f5b9 bfd5 f6bc 064f 93bd
00000130: f093 9c3d cad0 17bc c6a7 05bd c011 f03c
00000140: 8fcc efbc e3e1 a53d a43b 9cbd 85b8 6f3d
00000150: de28 fd3c 5f2e f0bc 6a45 90bd 49cc 873d
00000160: d794 96bd 18c6 7b3d 20c0 e3bc 3432 cb3d
00000170: 9fff 7fbd 8552 c33c ef9d 3fbd 627e 203d
00000180: 5fea 053d cdde babc 2540 913d 712e 04bd
00000190: a90e 2d3d 63d4 b93c dd9a 043e 7d80 c33d
000001a0: 5f70 ae3b d9da f63d 38da c2bd 259f 0e3e
000001b0: 185e a8bd 4bef b9bc 327c 493d 08e6 893d
000001c0: 22fd 1e3e 61fb 333d 5663 1a3d 67d7 003d
000001d0: ba23 c23b 3709 063d 3250 953d 0a18 4e3d
000001e0: 587c 6dbd 42f5 113d 7f6c 843d 2830 70bc
000001f0: 35e9 af3d 32f7 6c3c d931 2abd fa5b 5fbd
00000200: 2a3d e5bd 90b9 293e 4edb b2bd 73a9 86bd
00000210: 1d06 8bbc f550 993d 21ae 1fbc bf94 663d
00000220: 52d9 873c 7515 6ebb 9588 54bd ed16 d63b
00000230: a551 dbbb b805 023d 75f6 5abc 5f16 04bd
00000240: 05a1 16be e7a6 4fbd a022 ff3c 2fd9 9a3d
00000250: e522 393d 9c10 8d3c 5973 e73b f0e8 ad3d
00000260: 5ab1 713d 0318 593d 5d7e 3e3c 072e 123d
00000270: 826e 843d 710b adbd e5c5 353d 8387 023c
00000280: 1970 753d eba8 3cba 2c3c e03b 537c 943d
00000290: e084 373d 0ad2 cdbd a3be 503d 6465 b23d
000002a0: 64e7 0abd aaa8 33bb f2ce 19be 3b11 84be
000002b0: e33d 983d f9ac a83d 159b 183e 03a4 95bd
000002c0: 34e3 6e3d 317a 92bd c337 06be 82a5 633d
000002d0: 6fc6 bfbd 2f51 98bd 489e 223d 3932 eabc
000002e0: 8bab 47bd b263 113d 2795 fabd 7b7d c2ba
000002f0: 8dff de3d 9d50 ccbc 60e2 963d 71b9 22bd
00000300: 86ae b33d 1f58 b83d 3fb8 ccbb 1ab6 813d
00000310: 2406 aa3c be95 643d 79ce 4e3e 4259 f1bc
00000320: 11d8 c6bc 612e 3f3d 7c66 543e 55d9 d5bc
00000330: d11e 193d 878e 6bbd 904a febc 18d2 6ebd
00000340: 82d4 32bc a55d 963c bd66 153e 2e10 c1bd
00000350: 2a8c 443c ba7e b03c ff12 2bbd b9d4 043e
00000360: 7e47 14bd e60e 293e 471f a73d 95d8 79bd
00000370: f554 693c 2c97 37bd 1847 f0bc c8fa c0bb
00000380: aedd dbbd 0fa3 80bd e506 3ebd 59be fd3d
00000390: 8735 cdbd e6ec bb3d 6b9b 183e d0e7 45be
000003a0: d905 723d 81d9 5cbd 6261 e9bd 6ff0 843d
000003b0: 1843 88bb 80fe 92bd b71d 92bd 7447 df3d
000003c0: f195 35bc 8c51 a4bd 7e1b fcbd 1fe5 203d
000003d0: f1f6 c9bd 8174 95bd f6bf dfbc 3a93 033e
000003e0: 9bad 0b3d 623b 8dbd d247 713d b3c4 ccbd
000003f0: 70b8 b53c 7be2 dc3d 2728 343d f091 10bd
0.07964763 -0.0003531071 0.014558166 -0.048749387 -0.07696382 -0.06779329 0.08053796 0.041741148
-0.054880053 -0.043626152 0.03555557 -0.090405144 -0.08322149 -0.020970428 -0.042105716 0.075643785
0.19274694 -0.0103140725 -0.077522315 0.08114986 -0.1507843 0.1006175 -0.041193478 -0.056650784
-0.05081649 0.09211028 -0.10475582 -0.025177773 -0.016738793 -0.061757773 0.028353985 -0.116003856
-0.015729383 0.14166442 -0.030373767 -0.09444584 0.08900009 -0.097208045 0.089925915 -0.08834983
0.06485536 -0.116331354 0.009593999 -0.07222194 -0.08476215 -0.028575439 0.11452831 -0.0734746
0.040628165 0.10195437 -0.084230565 0.03197339 -0.053646196 0.059601814 -0.082156524 -0.07861646
0.084694184 -0.05944224 0.013146108 0.022221928 -0.1445713 0.007550812 0.08357989 0.053442407
0.05058684 0.076716214 0.01736887 0.08227025 0.022768388 0.058290422 -0.030614126 0.13762698
-0.024940109 -0.0004691846 -0.030131219 -0.07192807 0.07645404 -0.009266088 -0.032630704 0.029305339
-0.029272346 0.08099725 -0.07628563 0.05852558 0.030903276 -0.029318986 -0.0704449 0.06630761
-0.07352608 0.061468214 -0.027801573 0.09921685 -0.06249964 0.02384306 -0.046781477 0.039183028
0.032694217 -0.022811318 0.07092313 -0.032270852 0.04225031 0.022684282 0.129497 0.095459916
0.0053234543 0.12053461 -0.09514278 0.13927896 -0.08221072 -0.022697112 0.049190708 0.06733328
0.1552625 0.043940905 0.03769239 0.031455424 0.005924669 0.03272363 0.07290687 0.050315894
-0.05797991 0.035634287 0.064660065 -0.014659919 0.085894026 0.014463233 -0.041551445 -0.054531075
-0.11193307 0.16574693 -0.08733235 -0.065752886 -0.016970688 0.074861445 -0.009746105 0.0562942
0.016583119 -0.0036328707 -0.051888067 0.0065334947 -0.0066930824 0.031743735 -0.013364424 -0.032247897
-0.14709862 -0.05069628 0.03114444 0.07560956 0.045199294 0.017219834 0.007063311 0.08491695
0.059007026 0.053001415 0.011626807 0.035688426 0.0646639 -0.08449448 0.04437818 0.007966879
0.059921358 -0.00071968016 0.0068431105 0.072502755 0.044804454 -0.100498274 0.050963055 0.08710745
-0.033912078 -0.0027413764 -0.1502035 -0.25794396 0.07433679 0.08236117 0.14902909 -0.073066734
0.058322147 -0.071522124 -0.13107209 0.055577762 -0.0936402 -0.074373595 0.03970173 -0.028588401
-0.04874758 0.035495467 -0.1223548 -0.0014838421 0.10888586 -0.024940783 0.07367396 -0.039727632
0.08773522 0.09001183 -0.00624755 0.06333561 0.020754881 0.055806868 0.2019595 -0.029461507
-0.02427295 0.04667509 0.2074222 -0.026104609 0.037382904 -0.05750897 -0.031041414 -0.05830583
-0.010914924 0.0183552 0.14589973 -0.09426914 0.011996308 0.021544803 -0.041766163 0.12971772
-0.036200993 0.1650959 0.081602626 -0.060997564 0.014241447 -0.044821903 -0.029330775 -0.0058892705
-0.107356414 -0.06281101 -0.046393294 0.123898216 -0.10019975 0.09176044 0.14903037 -0.1932671
0.059087608 -0.053918365 -0.113955274 0.064911716 -0.004158389 -0.07177448 -0.07134574 0.109023005
-0.011083112 -0.08023366 -0.12309931 0.039281007 -0.098615535 -0.07297612 -0.027313214 0.12849131
0.03410111 -0.06896092 0.058906384 -0.09998455 0.022182673 0.10785385 0.043983605 -0.035295427

bottleneck.lin_l.bias f4 [128]
00000000: f6fe f1bc c05c a4bc 85ca 87bc 0ce1 ffbc
00000010: 3897 c1bd 0140 a03c 1a51 603d f2a6 4cbd
00000020: 42af b83d 9bca f8ba 6502 adbd 4042 883d
00000030: cf9c ed3d 3f95 9dbc 1cac 7f3c 1cd5 81bd
00000040: 19cd c0bc f97e 3dbd a887 de3c 997a f23c
00000050: cde3 8b3d b593 06be 842b 9abd 2a1b ad3d
00000060: bf7b 0c3d 253e d33b eb98 8b3c a262 5f3d
00000070: f6ab 3fbd 3762 773d b162 573d 61e0 c1bd
00000080: 0af2 8c3c 7a2a 883d 0f0f a1bc 847b b03d
00000090: 1b17 803d 1923 1b3d fd3f 923b f607 a8bd
000000a0: 9402 283d 2b50 6d3d 508d dabc 3c41 893d
000000b0: 928c b7bb c6f6 d03c a721 71ba 93f1 b83d
000000c0: f4fe 08bd 4c49 18bc 0f5b 39bd bba4 c13d
000000d0: 9916 ac3d 292c 093d b86f 74bd 5535 783d
000000e0: c9ed eb3c bdee 8a3b 8fa6 45bc 1f3c 18bb
000000f0: 36ac 9b3c 2cb9 ba3c aba2 bebd 3b46 98bd
00000100: 41e6 713d 2b61 523b c8d4 cc3d 749a d5bc
00000110: 3c69 783d fe2c 703d 6e7b 8b3d abc1 4ebd
00000120: 15f6 4d3d 0953 a03d e6ac d9bd 770e 0fbd
00000130: 0568 4cbd 1b37 16bd 8bfe 9cbd 7f23 b73c
00000140: b808 adbd 8167 af3d 44df c9bb b2ee 533d
00000150: 8b41 cd3d e552 e0bc 0555 973d 1028 89bd
00000160: fda6 a83d 5871 89bc 6e81 d23c c831 793c
00000170: 6548 a5bc 99b5 453c dc1c f13c 5dd1 983d
00000180: e23a 46bd ec57 2d3d 78e4 91bb bd89 3b3d
00000190: 34fe 5bbd a5c7 d03d 2767 ffbc c261 8a3d
000001a0: df03 0a3d 7ad3 57bd 2bd9 b2bc cfdd 2a3d
000001b0: aeb2 89bc b9c9 17bc 7cf8 58bd 0214 b9bd
000001c0: b9db 853d 4b56 9abd f46b 2a3c a89e b2bc
000001d0: e0fb debb 5175 eebb 91da 9a3a 8d3b 0dbd
000001e0: 4fc8 5fbc 8bc9 a3bd 656e 24bb 779a 863d
000001f0: 37f1 9bbd 9d9c 343d 5644 91bc 6a0f ba3c
-0.02954052 -0.020063758 -0.016576061 -0.03123524 -0.09452671 0.01956177 0.054764844 -0.0499639
0.09017803 -0.001898128 -0.08447722 0.06653261 0.116021745 -0.019236205 0.015604999 -0.063394755
-0.023535298 -0.04626367 0.027164295 0.029599475 0.06830559 -0.13142283 -0.07527831 0.08452447
0.0342977 0.006446617 0.01704069 0.054537423 -0.046794854 0.0603964 0.052584354 -0.09466625
0.017205257 0.06648727 -0.0196605 0.08617309 0.06254407 0.03787527 0.0044631944 -0.082046434
0.041018084 0.057937782 -0.026678711 0.067018956 -0.005601474 0.025508296 -0.0009198435 0.090304516
-0.033446267 -0.009294819 -0.045252856 0.09455248 0.08402748 0.03348938 -0.059676856 0.060597736
0.028799908 0.0042398856 -0.012063636 -0.0023229194 0.019003015 0.022793375 -0.0930837 -0.074352704
0.059057478 0.0032101374 0.10001522 -0.026074626 0.060647234 0.058636658 0.06810652 -0.050477665
0.05028351 0.07828338 -0.10628681 -0.034925904 -0.04990389 -0.036673646 -0.07665738 0.022355793
-0.084489286 0.08564664 -0.0061606485 0.05174131 0.10022267 -0.027383277 0.07389263 -0.066970944
0.082349755 -0.01677768 0.025696483 0.015209623 -0.020176122 0.012067222 0.029432707 0.07461808
-0.048396 0.042320177 -0.0044522844 0.045785654 -0.053709224 0.10194329 -0.031177117 0.06756927
0.033695098 -0.052691914 -0.02183207 0.04171544 -0.016808834 -0.009264403 -0.05297135 -0.09037019
0.065360494 -0.0753599 0.010401715 -0.021804169 -0.006804928 -0.007277169 0.0011814405 -0.03448062
-0.013658597 -0.07997426 -0.0025090214 0.065724306 -0.076143675 0.04409467 -0.01773278 0.022712428
