blocksnet/machine_learning/regression/density/models/model.pt (torch, 12444 bytes, 10 tensors)

fc1.weight f4 [16, 9]
-0.10794656 -0.0059067872 0.10650251 0.007433851 0.23380983 0.006922007 0.011160801 -0.13134223
-0.18495822 -0.036743723 -0.0019883888 0.035359617 0.0020511467 0.06251909 0.0030093477 0.0036057557
-0.0286326 -0.026623871 -0.07711872 -0.0017418013 0.054858446 0.0040839054 0.078092046 0.004052059
0.008442106 0.009502032 0.055718806 -0.052669585 -0.002881006 0.051947277 0.0036489316 0.11411032
0.0033770623 0.005439139 -0.06411793 -0.090293676 -0.05842235 -0.0013364407 0.041523855 0.003080676
0.05911425 0.0030707594 0.0064147827 0.007307508 0.042163596 -0.11213838 -0.0061354334 0.11060797
0.007722351 0.24286282 0.007187896 0.011588808 -0.13642108 -0.19209477 -0.03667664 -0.0020886215
0.035473485 0.0023348157 0.06501912 0.0029245608 0.0036298113 -0.031551294 -0.030510873 -0.06663114
-0.0015105556 0.047336876 0.0035200878 0.06738348 0.0034982965 0.0073031434 0.008307341 0.048088547
-0.20673484 -0.004670449 0.14688896 0.010930894 0.20918784 0.010879875 0.022593807 0.025763443
0.14926328 -0.085096955 -0.0046558096 0.08391651 0.005859891 0.18430707 0.0054556024 0.0087957755
-0.103527255 -0.1457735 -0.102116644 -0.005586596 0.100791045 0.007032072 0.22111559 0.0065480056
0.010555224 -0.12417903 -0.17490332 -0.03826639 -0.0020920052 0.03768604 0.002626396 0.082901314
0.0024538322 0.003955708 -0.046580233 -0.06558069 -0.11482891 -0.0062829503 0.11329393 0.007906567
0.24867815 0.007363281 0.0118694 -0.13969329 -0.19674441 -0.079376146 -0.004344378 0.0784307
0.0054872963 0.17196816 0.005091622 0.008210099 -0.09655146 -0.13600782 -0.08882266 -0.004757862
0.08507392 0.00443398 0.15028918 0.007204071 0.008633612 -0.06909128 -0.060855795 -0.18491256
-0.0041804975 0.13155985 0.009795664 0.18733303 0.009741061 0.020239819 0.022890976 0.13384955
00000000: 1613 ddbd b98d c1bb fd1d da3d a997 f33b
00000010: d86b 6f3e 01d2 e23b cbdb 363c 947e 06be
00000020: b065 3dbe 9680 16bd a14f 02bb 3fd5 103d
00000030: 886c 063b 020a 803d 7a38 453b 8b4e 6c3b
00000040: ea8e eabc 4e1a dabc 6bf0 9dbd 274d e4ba
00000050: 40b3 603d 48d2 853b b9ee 9f3d 22c7 843b
00000060: c250 0a3c 69ae 1b3c 6739 643d 10bc 57bd
00000070: 43cf 3cbb abc6 543d ea22 6f3b acb2 e93d
00000080: b451 5d3b ce3a b23b 4350 83bd e4eb b8bd
00000090: 464c 6fbd 822b afba eb14 2a3d 2be5 493b
000000a0: c921 723d cb3e 493b 1933 d23b d273 ef3b
000000b0: bcb3 2c3d cfa8 e5bd bf0b c9bb 6e86 e23d
000000c0: c60b fd3b 08b1 783e 7188 eb3b fcde 3d3c
000000d0: f8b1 0bbe 7eb4 44be 3f3a 16bd 41e1 08bb
000000e0: a54c 113d b503 193b bf28 853d fda9 3f3b
000000f0: 21e2 6d3b ee3b 01bd f0f1 f9bc e875 88bd
00000100: d6fd c5ba 50e4 413d 46b1 663b 5a00 8a3d
00000110: ad43 653b 354f ef3b 831b 083c 7ff8 443d
00000120: 4cb2 53be 910a 99bb 0f6a 163e 7e17 333c
00000130: 5635 563e 8141 323c a616 b93c db0d d33c
00000140: 79d8 183e 5047 aebd c38f 98bb 6bdc ab3d
00000150: 5404 c03b feba 3c3e e9c4 b23b 281c 103c
00000160: 1906 d4bd a645 15be 8822 d1bd c40f b7bb
00000170: 896b ce3d 4c6d e63b 206c 623e a790 d63b
00000180: d1ef 2c3c 9351 febd db19 33be 38bd 1cbd
00000190: 061a 09bb ad5c 1a3d 9d1f 2c3b 2ac8 a93d
000001a0: 79d0 203b e29e 813b eaca 3ebd 2b4f 86bd
000001b0: 6b2b ebbd 35e1 cdbb a606 e83d 8c8a 013c
000001c0: 7ca5 7e3e ae47 f13b df77 423c c20b 0fbe
000001d0: 5e77 49be f68f a2bd 495b 8ebb 46a0 a03d
000001e0: c7ce b33b 6c18 303e 9fd7 a63b a783 063c
000001f0: c6bc c5bd a245 0bbe a8e8 b5bd d7e7 9bbb
00000200: 3c3b ae3d ec4a 913b 68e5 193e 2110 ec3b
00000210: fe73 0d3c bb7f 8dbd ed43 79bd b859 3dbe
00000220: 8efc 88bb a0b7 063e fe7d 203c 3bd4 3f3e
00000230: f998 1f3c facd a53c db85 bb3c db0f 093e

fc1.bias f4 [16]
0.2658016 0.07219749 0.076616175 0.129723 0.057954818 0.2760852 0.0751614 0.0660655
0.20493202 0.2095249 0.25140125 0.094232686 0.28269345 0.19551396 0.17244713 0.18377243
00000000: 2617 883e 47dc 933d f1e8 9c3d 1bd6 043e
00000010: 0862 6d3d 0a5b 8d3e 38ee 993d 594d 873d
00000020: b3d9 513e b28d 563e aab7 803e 11fd c03d
00000030: 32bd 903e d034 483e fb95 303e d72e 3c3e

conv1.lin_l.weight f4 [32, 16]
-0.0081765745 -0.00085363165 0.016083848 -0.003979987 0.012138772 -0.008493747 -0.0011139603 0.013859179
0.043017857 -0.006440275 -0.007730634 -0.0028902958 -0.008697049 -0.0060100444 -0.0018862764 0.038576733
-0.00032522975 -3.3940178e-05 0.0006460039 -0.00015605181 0.0004881629 -0.00033836224 -4.25148e-05 0.0005575222
0.0017071646 -0.0002545962 -0.00030872884 -0.000112490634 -0.0003463282 -0.00023740597 -7.606584e-05 0.0015288781
-0.0058821775 -0.0006138025 0.011570218 -0.0028668542 0.008741318 -0.0061107245 -0.0008011775 0.009972645
0.030979287 -0.0046327426 -0.0055613485 -0.0020835833 -0.0062565347 -0.0043234825 -0.0013584942 0.02777751
-0.0053442814 -0.00055767095 0.010514333 -0.0026063186 0.007946719 -0.005552466 -0.00072866137 0.00906084
0.02815409 -0.0042095976 -0.005052522 -0.0018952034 -0.0056849024 -0.00392879 -0.0012333421 0.025243638
-0.007001532 -0.0007304788 0.013773885 -0.0034094204 0.010396694 -0.0072732326 -0.0009534093 0.011871671
0.03685515 -0.005514867 -0.006620019 -0.0024763201 -0.007446962 -0.0051463307 -0.0016162029 0.03304904
-0.0031078642 -0.00032307615 0.00612695 -0.0015226103 0.004633581 -0.0032279696 -0.00042773114 0.005282656
0.016369984 -0.0024507858 -0.002939486 -0.0011075631 -0.0033054778 -0.0022902263 -0.0007164264 0.014679692
-0.006926713 -0.0007226682 0.013626463 -0.0033731384 0.010285878 -0.0071954536 -0.0009432123 0.011744786
0.036462527 -0.0054559372 -0.006549305 -0.002449985 -0.0073673557 -0.0050913086 -0.0015992296 0.032696806
-3.5449625e-06 -3.6094139e-07 7.09881e-06 -1.7359444e-06 5.358616e-06 -3.6420354e-06 -4.770915e-07 6.128611e-06
1.9025603e-05 -2.8042225e-06 -3.354411e-06 -1.2593192e-06 -3.7657278e-06 -2.6136145e-06 -7.95942e-07 1.7066464e-05
-0.003140261 -0.0003264302 0.006190637 -0.0015384036 0.0046817027 -0.0032616605 -0.00043222567 0.005337344
0.016541174 -0.002476305 -0.002970097 -0.0011190976 -0.003339968 -0.0023139832 -0.0007231933 0.014832971
-0.0002309709 -2.2629605e-05 0.00045897305 -0.0001102888 0.0003453764 -0.0002383094 -3.0489131e-05 0.0003948956
0.0012133687 -0.00017806936 -0.00021702817 -7.93046e-05 -0.00024441103 -0.00016801358 -5.281833e-05 0.0010869965
-0.0030536577 -0.0003173842 0.006020336 -0.0014961999 0.004553013 -0.0031715883 -0.00042034505 0.0051910896
0.016083479 -0.0024080456 -0.0028882122 -0.0010882415 -0.003247763 -0.0022504285 -0.0007028434 0.014423088
-0.004523979 -0.0004716609 0.0089057265 -0.0022097225 0.0067327125 -0.004700215 -0.00061851594 0.007670289
0.02384059 -0.0035641803 -0.0042769536 -0.0016071274 -0.004812525 -0.0033275231 -0.0010444062 0.02137525
-6.134877e-05 -6.8864047e-06 0.000120361365 -3.0927036e-05 9.0834656e-05 -6.320473e-05 -7.986695e-06 0.00010391277
0.0003235247 -4.8726408e-05 -5.78322e-05 -2.1620479e-05 -6.4789514e-05 -4.554094e-05 -1.5458929e-05 0.00028824437
-0.0025060268 -0.00026071173 0.0049386 -0.0012287126 0.0037361193 -0.0026024827 -0.00034496147 0.00426033
0.013193132 -0.0019773082 -0.0023703314 -0.00089240813 -0.0026650683 -0.0018486305 -0.00057494425 0.011832983
-5.472172e-06 -5.528831e-07 1.1076761e-05 -2.67728e-06 8.362921e-06 -5.794236e-06 -7.349127e-07 9.565743e-06
2.9824225e-05 -4.314961e-06 -5.1736542e-06 -1.9461777e-06 -5.8263686e-06 -4.0223003e-06 -1.2111506e-06 2.673488e-05
-1.1067015e-05 -1.1219705e-06 2.2639615e-05 -5.444417e-06 1.7093207e-05 -1.15186085e-05 -1.4858383e-06 1.954903e-05
6.088693e-05 -8.776666e-06 -1.0565291e-05 -3.9748224e-06 -1.1768836e-05 -8.145632e-06 -2.6759333e-06 5.4646138e-05
00000000: 0af7 05bc 40c6 5fba 46c2 833c 8d6a 82bb
00000010: b3e1 463c 5b29 0bbc 4e02 92ba 9c11 633c
00000020: 7e33 303d f108 d3bb 4251 fdbb 1e6b 3dbb
00000030: 117e 0ebc e8ef c4bb ef3c f7ba a302 1e3d
00000040: 9983 aab9 fd5a 0eb8 9658 293a d7a1 23b9
00000050: 1ef0 ff39 3666 b1b9 eb51 32b8 ae26 123a
00000060: f0c2 df3a 537b 85b9 e2dc a1b9 f3e8 ebb8
00000070: 6293 b5b9 2ef0 78b9 8985 9fb8 a364 c83a
00000080: 48bf c0bb 97e7 20ba 0391 3d3c d5e1 3bbb
00000090: bf37 0f3c 793c c8bb 1d06 52ba 4e64 233c
000000a0: 46c8 fd3c 43ce 97bb f93b b6bb ba8c 08bb
000000b0: 9e03 cdbb 00ac 8dbb 800f b2ba a98d e33c
000000c0: 151f afbb aa30 12ba 4f44 2c3c c5ce 2abb
000000d0: f532 023c 76f1 b5bb a303 3fba eb73 143c
000000e0: 68a3 e63c aaf0 89bb a08f a5bb 7968 f8ba
000000f0: 6b48 babb 14bd 80bb 18a8 a1ba bfcb ce3c
00000100: 1b6d e5bb 9a7d 3fba dcab 613c 9570 5fbb
00000110: e556 2a3c 4c54 eebb 37ee 79ba 6681 423c
00000120: 6df5 163d 0fb6 b4bb bfec d8bb c249 22bb
00000130: a505 f4bb 8da2 a8bb c5d6 d3ba 6e5e 073d
00000140: 4fad 4bbb 8c62 a9b9 95c4 c83b 5392 c7ba
00000150: 4bd5 973b 588c 53bb 1a41 e0b9 211a ad3b
00000160: 581a 863c 5d9d 20bb 64a4 40bb a72b 91ba
00000170: b7a0 58bb 9f17 16bb 90ce 3bba 1783 703c
00000180: 7bf9 e2bb 7171 3dba 8741 5f3c df0f 5dbb
00000190: 1986 283c d7c7 ebbb e841 77ba 346d 403c
000001a0: bb59 153d b8c7 b2bb 8d9b d6bb ed8f 20bb
000001b0: dc69 f1bb fed4 a6bb 3e9d d1ba 16ed 053d
000001c0: fee5 6db6 68c7 c1b4 5032 ee36 98fe e8b5
000001d0: 29ce b336 b169 74b6 7a11 00b5 5ea4 cd36
000001e0: 2c99 9f37 2d30 3cb6 581c 61b6 e105 a9b5
000001f0: b6b6 7cb6 8e65 2fb6 b8a8 55b5 f429 8f37
00000200: d6cc 4dbb b824 abb9 d4da ca3b 42a4 c9ba
00000210: f868 993b 95c1 55bb 599c e2b9 e3e4 ae3b
00000220: 5b81 873c 8149 22bb f5a5 42bb afae 92ba
00000230: 5de3 5abb 32a6 17bb ae94 3dba fd05 733c
00000240: c730 72b9 b5d4 bdb7 52a2 f039 d94a e7b8
00000250: a313 b539 b1e2 79b9 e9c2 ffb7 fd09 cf39
00000260: e609 9f3a 21b8 3ab9 0e92 63b9 5550 a6b8
00000270: 4b24 80b9 cd2c 30b9 4089 5db8 8d79 8e3a
00000280: e01f 48bb 9666 a6b9 3d46 c53b 231c c4ba
00000290: 7131 953b 6cda 4fbb c261 dcb9 041a aa3b
000002a0: 80c1 833c 4dd0 1dbb 2948 3dbb 53a3 8eba
000002b0: 6cd8 54bb ed7b 13bb 063f 38ba d14e 6c3c
000002c0: e33d 94bb 4149 f7b9 53e9 113c fed0 10bb
000002d0: 169e dc3b 4304 9abb e723 22ba 0c57 fb3b
000002e0: 574d c33c 0695 69bb b025 8cbb 3fa6 d2ba
000002f0: 63b2 9dbb 9312 5abb 75e4 88ba 261b af3c
00000300: 5fa8 80b8 c411 e7b6 846a fc38 a7b7 01b8
00000310: 7c7e be38 c88c 84b8 98fe 05b7 beeb d938
00000320: c09e a939 955f 4cb8 da90 72b8 a05d b5b7
00000330: 9bdf 87b8 3603 3fb8 ccad 81b7 811f 9739
00000340: 273c 24bb 23b0 88b9 fbd3 a13b c10c a1ba
00000350: aed9 743b 6a8e 2abb f2db b4b9 3d9a 8b3b
00000360: 0228 583c ba95 01bb 9057 1bbb 7ff0 69ba
00000370: 6da8 2ebb bf4d f2ba dbb7 16ba 21df 413c
00000380: 999d b7b6 d669 14b5 54d6 3937 52ab 33b6
00000390: 794e 0c37 1c6c c2b6 d146 45b5 8e7c 2037
000003a0: 092f fa37 3cc9 90b6 5a99 adb6 149b 02b6
000003b0: 2080 c3b6 4cf7 86b6 d18e a2b5 b844 e037
000003c0: 78ac 39b7 9d96 96b5 34ea bd37 30af b6b6
000003d0: 6263 8f37 0c40 41b7 046d c7b5 39fd a337
000003e0: d860 7f38 7e3f 13b7 9441 31b7 775f 85b6
000003f0: c472 45b7 39a9 08b7 2f94 33b6 d833 6538

conv1.lin_l.bias f4 [32]
0.14483133 0.0057626753 0.10430089 0.09479545 0.124081284 0.055177324 0.122759365 6.399121e-05
0.055753235 0.004100377 0.054213278 0.08028677 0.0010833126 0.0444756 9.891332e-05 0.00020244173
0.19451049 0.017854884 0.08180466 0.09439663 0.015554695 0.041460354 0.1040191 0.06541474
0.18157907 0.0062613287 0.11494194 0.1182443 0.09381976 6.911342e-05 0.06362343 0.022134265
00000000: aa4e 143e d3d4 bc3b b49b d53d 1e24 c23d
00000010: 541e fe3d 9e01 623d 4369 fb3d 0533 8638
00000020: 815d 643d 755c 863b be0e 5e3d 646d a43d
00000030: f0fd 8d3a 0c2c 363d af6f cf38 8a46 5439
00000040: c22d 473e 6844 923c 3489 a73d 0553 c13d
00000050: 1fd9 7e3c 55d2 293d f707 d53d 2af8 853d
00000060: ddef 393e d52b cd3b ae66 eb3d 112a f23d
00000070: 9324 c03d fcf0 9038 004d 823d eb52 b53c

conv1.lin_r.weight f4 [32, 16]
0.13388462 0.03451029 0.04380631 0.06534643 0.033183202 0.1390737 0.03598935 0.037824474
0.1173676 0.10554593 0.12663925 0.047468606 0.1424063 0.09847839 0.08260257 0.10511222
0.005324808 0.0013730059 0.0017487751 0.0026017078 0.0013233955 0.0055306302 0.0014314002 0.0015087469
0.004652149 0.0041981456 0.0050358814 0.001889386 0.0056637716 0.003916802 0.0032843237 0.0041623153
0.09641893 0.024855578 0.031545524 0.04706358 0.023896676 0.10015662 0.025919722 0.027239395
0.08451851 0.076012075 0.09120316 0.03418869 0.102557875 0.070921846 0.059486624 0.07568875
0.08763231 0.02259104 0.028669348 0.042776063 0.021719025 0.09102928 0.023557806 0.024757432
0.07681287 0.069086485 0.08289194 0.031074185 0.09321236 0.064459965 0.054066814 0.06878722
0.11470364 0.029567385 0.037530057 0.055985637 0.028428825 0.119149774 0.03083398 0.032406203
0.1005516 0.09042538 0.108497664 0.040669557 0.12200545 0.08437023 0.07076671 0.090049945
0.05101032 0.013147383 0.016686039 0.024897946 0.012647772 0.052988864 0.01370953 0.014419825
0.04470191 0.040218085 0.048251826 0.018087786 0.054262936 0.03752485 0.031472392 0.0400392
0.113481686 0.02925249 0.037130132 0.055389352 0.028125895 0.1178805 0.030505536 0.032060895
0.09948021 0.0894621 0.10734191 0.04023642 0.12070581 0.083471455 0.07001275 0.08909109
5.9194746e-05 1.5244873e-05 1.9362258e-05 2.8888877e-05 1.4662667e-05 6.148926e-05 1.5894988e-05 1.6689875e-05
5.1688323e-05 4.6653677e-05 5.5984892e-05 2.0974714e-05 6.296678e-05 4.353342e-05 3.6505677e-05 4.628744e-05
0.051542718 0.013284646 0.016860044 0.025157886 0.012779635 0.053541884 0.013852594 0.014569968
0.04516832 0.040637877 0.048755474 0.018276604 0.05482913 0.03791654 0.031800978 0.040456884
0.0037887157 0.00097569113 0.0012440168 0.0018511426 0.0009411917 0.0039355964 0.0010178722 0.0010728051
0.0033041416 0.002987674 0.0035837395 0.0013432587 0.0040294137 0.0027878874 0.0023375906 0.0029577767
0.050119128 0.01291786 0.01639488 0.024462856 0.012427051 0.052063182 0.013470229 0.014168518
0.04392123 0.039515406 0.047408756 0.017771833 0.053315207 0.036869183 0.030922407 0.039339874
0.07422134 0.019133214 0.024279607 0.036231752 0.01839504 0.077098124 0.019951584 0.020970002
0.06505161 0.058516297 0.07020657 0.026318684 0.07894823 0.054597992 0.045794487 0.058255117
0.0009991415 0.00025766183 0.00032796583 0.00048747455 0.00024844828 0.0010376029 0.00026863028 0.00028310058
0.0008731159 0.0007873029 0.0009448779 0.0003540447 0.0010627307 0.00073497987 0.00061666936 0.0007861906
0.041117802 0.010599022 0.013457368 0.020067466 0.010193427 0.0427128 0.011051759 0.011627855
0.03603632 0.03241594 0.038893543 0.014578993 0.04374154 0.03024558 0.02536762 0.032275956
9.176851e-05 2.3667815e-05 3.0166382e-05 4.4806868e-05 2.2845828e-05 9.531358e-05 2.4674631e-05 2.603414e-05
8.070811e-05 7.2346615e-05 8.679725e-05 3.2540076e-05 9.760589e-05 6.750907e-05 5.6663022e-05 7.225247e-05
0.00018803835 4.844749e-05 6.1657185e-05 9.1766844e-05 4.6686506e-05 0.00019530667 5.051303e-05 5.3108663e-05
0.00016515033 0.00014822674 0.00017785728 6.664534e-05 0.00019999416 0.00013830529 0.00011605357 0.00014770793
00000000: 0d19 093e a95a 0d3d 3f6e 333d 59d4 853d
00000010: 1ceb 073d 5669 0e3e 9269 133d d6ed 1a3d
00000020: 6d5e f03d 7728 d83d b8ad 013e 716e 423d
00000030: f5d2 113e 0aaf c93d 892b a93d 1345 d73d
00000040: ba7b ae3b 6ff6 b33a 2837 e53a 6a81 2a3b
00000050: c975 ad3a 4a3a b53b d29d bb3a 25c1 c53a
00000060: 0e71 983b 9990 893b 0904 a53b 46a5 f73a
00000070: 2997 b93b 8458 803b cf3d 573b 0864 883b
00000080: 4a77 c53d ed9d cb3c e135 013d bec5 403d
00000090: f6c2 c33c ea1e cd3d 9955 d43c 2725 df3c
000000a0: 0a18 ad3d 38ac 9b3d b9c8 ba3d 7109 0c3d
000000b0: dd09 d23d 793f 913d 3fa8 733d b402 9b3d
000000c0: 9278 b33d d810 b93c fbdb ea3c f435 2f3d
000000d0: 19ec b13c 8f6d ba3d 4dfc c03c 19d0 ca3c
000000e0: 1150 9d3d 377d 8d3d 40c3 a93d 4a8f fe3c
000000f0: 1fe6 be3d 9603 843d 2a75 5d3d 50e0 8c3d
00000100: bee9 ea3d 4d37 f23c 1eb9 193d 3251 653d
00000110: 91e3 e83c cc04 f43d 8b97 fc3c 5ebc 043d
00000120: ffed cd3d f130 b93d 0634 de3d 1f95 263d
00000130: fedd f93d 4dca ac3d 23ee 903d 1b6c b83d
00000140: 33f0 503d 1f68 573c 29b1 883c c7f6 cb3c
00000150: 9a38 4f3c da0a 593d f09d 603c 2141 6c3c
00000160: 5a19 373d b8bb 243d b5a3 453d d62c 943c
00000170: d042 5e3d a8b3 193d 32e9 003d 2500 243d
00000180: 1669 e83d eba2 ef3c c415 183d f2df 623d
00000190: 4768 e63c 556b f13d bfe6 f93c 4952 033d
000001a0: 48bc cb3d e837 b73d 13d6 db3d f2ce 243d
000001b0: 9c34 f73d 15f3 aa3d d862 8f3d 6475 b63d
000001c0: e047 7838 3bc4 7f37 226c a237 6456 f237
000001d0: adff 7537 ccf3 8038 3a56 8537 3c01 8c37
000001e0: eacb 5838 01ae 4338 52d1 6a38 dbf2 af37
000001f0: 080d 8438 a797 3638 ac1d 1938 c324 4238
00000200: 751e 533d d8a7 593c 131e 8a3c e917 ce3c
00000210: ad61 513c bc4e 5b3d fef5 623c e0b6 6e3c
00000220: 6b02 393d e773 263d d2b3 473d d1b8 953c
00000230: 8394 603d 604e 1b3d be41 023d 1eb6 253d
00000240: 1a4c 783b 86c5 7f3a 470e a33a 0aa2 f23a
00000250: 4eba 763a 2df6 803b 206a 853a 5e9d 8c3a
00000260: 4c8a 583b dacc 433b 2cdd 6a3b 4810 b03a
00000270: 2c09 843b fdb4 363b 4332 193b 42d7 413b
00000280: b749 4d3d 6fa5 533c 8e4e 863c 5466 c83c
00000290: d49a 4b3c 3440 553d 3cb2 5c3c 1223 683c
000002a0: bfe6 333d e8da 213d af2f 423d 3c96 913c
000002b0: 0c61 5a3d 2404 173d fd50 fd3c d922 213d
000002c0: 5c01 983d 42bd 9c3c 07e6 c63c bf67 143d
000002d0: 32b1 963c 9fe5 9d3d 8171 a33c 48c9 ab3c
000002e0: c739 853d c9ae 6f3d 76c8 8f3d 489a d73c
000002f0: 9caf a13d 25a2 5f3d 0093 3b3d eb9c 6e3d
00000300: a0f5 823a c916 8739 d4f2 ab39 ba93 ff39
00000310: 2a42 8239 2d00 883a f2d6 8c39 1e6d 9439
00000320: d1e1 643a 0163 4e3a afb1 773a 139f b939
00000330: 534b 8b3a aaab 403a fba7 213a 5c18 4e3a
00000340: 246b 283d 85a7 2d3c 4b7c 5c3c 8764 a43c
00000350: 5502 273c 9ef3 2e3d 7012 353c c282 3e3c
00000360: d29a 133d 94c6 043d d64e 1f3d bbdc 6e3c
00000370: 542a 333d 94c5 f73c c1cf cf3c cb33 043d
00000380: d873 c038 3f8a c637 d00d fd37 02ef 3b38
00000390: 0ba5 bf37 17e3 c738 5efc ce37 e463 da37
000003a0: d641 a938 cbb8 9738 eb06 b638 a47b 0838
000003b0: c3b1 cc38 a893 8d38 75a9 6d38 4086 9738
000003c0: 292c 4539 1934 4b38 f34d 8138 f372 c038
000003d0: 41d1 4338 3ccb 4c39 f4dd 5338 fec0 5e38
000003e0: 342c 2d39 506d 1b39 337f 3a39 f2c3 8b38
000003f0: 86b5 5139 0b06 1139 c961 f338 0ce2 1a39

conv2.lin_l.weight f4 [16, 32]
0.014511296 0.0005690231 0.010450538 0.009498377 0.012432433 0.005526374 0.012299972 6.2802037e-06
0.005584177 0.0004072678 0.0054296213 0.008045366 0.0001056034 0.0044544283 1.0018664e-05 2.0082934e-05
0.019485991 0.0017884491 0.008197389 0.009458417 0.0015572448 0.0041529597 0.010422271 0.00655427
0.018191325 0.00061780174 0.0115166465 0.011847616 0.009400662 6.775406e-06 0.0063744453 0.0022174264
7.947434e-06 3.3067937e-07 5.884419e-06 5.358837e-06 6.9305565e-06 3.1199181e-06 6.863008e-06 3.60818e-09
3.152253e-06 2.3548046e-07 3.065801e-06 4.5404463e-06 6.254257e-08 2.5205009e-06 5.6628817e-09 1.15001795e-08
1.0178341e-05 1.0209025e-06 4.626526e-06 5.3365607e-06 8.909909e-07 2.3518548e-06 5.869077e-06 3.6967926e-06
9.608699e-06 3.608087e-07 6.45637e-06 6.62959e-06 5.304295e-06 3.8975534e-09 3.5955543e-06 1.2639554e-06
4.039217e-06 1.6382324e-07 2.9284126e-06 2.662993e-06 3.477391e-06 1.5579456e-06 3.4407883e-06 1.7856904e-09
1.5741346e-06 1.1658527e-07 1.5310843e-06 2.2580014e-06 3.0909142e-08 1.2591978e-06 2.8002363e-09 5.6901364e-09
5.272363e-06 5.076297e-07 2.3001799e-06 2.651997e-06 4.426887e-07 1.174775e-06 2.9207074e-06 1.8433226e-06
4.9683385e-06 1.7867451e-07 3.2246617e-06 3.3162273e-06 2.63587e-06 1.928825e-09 1.7932316e-06 6.2918764e-07
0.03090519 0.0012266535 0.022251815 0.020221595 0.026476163 0.011765592 0.026193885 1.3593125e-05
0.011888393 0.0008666227 0.011560011 0.0171235 0.00023461573 0.009484687 2.1206066e-05 4.3212443e-05
0.041500017 0.003808286 0.017447414 0.020136453 0.0033146925 0.008842481 0.022191862 0.013949247
0.038742736 0.0013309786 0.024524638 0.025230216 0.020013215 1.4669472e-05 0.013567091 0.004721454
0.031069601 0.0012318318 0.022376318 0.020336298 0.026619922 0.011838103 0.026336467 1.3696679e-05
0.011961484 0.00087055337 0.011631653 0.017223194 0.00023131302 0.009546231 2.1353548e-05 4.3491338e-05
0.041731257 0.003834859 0.017548708 0.020250732 0.0033373625 0.008899876 0.022315867 0.014032252
0.03895387 0.0013372411 0.024659792 0.02536815 0.020126788 1.4780376e-05 0.013648152 0.0047529438
0.0036841189 0.00014377078 0.00264995 0.002408525 0.0031545216 0.0014043932 0.0031207388 1.5746177e-06
0.0014191157 0.000103921164 0.0013797007 0.0020419548 2.6350026e-05 0.0011299805 2.5173463e-06 4.9976106e-06
0.0049479953 0.00045238843 0.002080204 0.0023984034 0.00039179926 0.0010525357 0.0026427326 0.0016655504
0.0046193083 0.00015547378 0.002921135 0.003005574 0.002383806 1.706916e-06 0.0016199976 0.00056215335
7.410634e-08 4.2365453e-09 5.9104877e-08 5.520144e-08 6.671942e-08 3.6254576e-08 6.6227045e-08 3.6960518e-11
3.6564444e-08 2.9621035e-09 3.573051e-08 4.8821875e-08 8.324963e-10 3.0226886e-08 6.609796e-11 1.2279083e-10
8.700954e-08 1.27921425e-08 4.951454e-08 5.503378e-08 1.1245692e-08 2.843926e-08 5.9000087e-08 4.1618335e-08
8.4769e-08 4.7527884e-09 6.328287e-08 6.45382e-08 5.4789098e-08 4.0186326e-11 4.070435e-08 1.579992e-08
0.0049375705 0.00019241835 0.0035546287 0.0032297284 0.004229897 0.0018818444 0.004184782 2.1135804e-06
0.0019014663 0.0001394103 0.0018489382 0.0027346755 3.5455512e-05 0.0015160906 3.372708e-06 6.723288e-06
0.006631004 0.0006077156 0.0027863535 0.0032161523 0.00052813365 0.0014127691 0.0035449646 0.0022299045
0.0061904513 0.00020834644 0.0039180005 0.0040307846 0.0031964025 2.2890745e-06 0.0021691446 0.0007535218
00000000: c9c0 6d3c 7e2a 153a bc38 2b3c 159f 1b3c
00000010: 67b1 4b3c 9616 b53b d285 493c 8aba d236
00000020: 79fb b63b 8f86 d539 f7ea b13b b6d0 033c
00000030: 6577 dd38 74f6 913b d615 2837 c677 a837
00000040: 16a1 9f3c 656a ea3a 574e 063c 7af7 1a3c
00000050: 771c cc3a 8d15 883b 2cc2 2a3c 34c5 d63b
00000060: f905 953c f9f3 213a 51b0 3c3c 811c 423c
00000070: 3c05 1a3c 4b58 e336 b9e0 d03b 3e52 113b
00000080: f855 0537 3a88 b134 c672 c536 0fd0 b336
00000090: 078d e836 c95f 5136 ca48 e636 c6f3 7731
000000a0: 4b8b 5336 60d8 7c34 0fbe 4d36 235a 9836
000000b0: 244f 8633 e025 2936 3c93 c231 5392 4532
000000c0: a4c3 2a37 f105 8935 8e3d 9b36 b510 b336
000000d0: 6e2c 6f35 8fd4 1d36 fdee c436 6a16 7836
000000e0: 0c35 2137 2cb5 c134 cca3 d836 bf73 de36
000000f0: 8cfb b136 3eeb 8531 274b 7136 2da5 a935
00000100: 9c88 8736 64e7 2f34 bf85 4436 dfb5 3236
00000110: 1f5d 6936 9a1a d135 4be8 6636 656c f530
00000120: da46 d335 6e5d fa33 a87f cd35 2b88 1736
00000130: f6c0 0433 b501 a935 476e 4031 f882 c331
00000140: 41e9 b036 0c44 0835 ca5c 1a36 f6f8 3136
00000150: acaa ed34 f6ac 9d35 5f01 4436 1568 f735
00000160: b4b5 a636 add9 3f34 4467 5836 5a8c 5e36
00000170: e7e3 3036 408c 0431 f8ae f035 72e5 2835
00000180: e22c fd3c a9c7 a03a 7049 b63c c2a7 a53c
00000190: 8ae4 d83c 78c4 403c 8f94 d63c 070e 6437
000001a0: 89c7 423c 112e 633a 3366 3d3c 9546 8c3c
000001b0: 2e03 7639 a965 1b3c aee3 b137 023f 3538
000001c0: ecfb 293d 7094 793b e1ed 8e3c 34f5 a43c
000001d0: 503b 593b 0ee0 103c b5cb b53c 628b 643c
000001e0: b4b0 1e3d 3b74 ae3a e5e7 c83c 99af ce3c
000001f0: c1f2 a33c e71c 7637 8148 5e3c 6db6 9a3b
00000200: ad85 fe3c 6b75 a13a 8a4e b73c 4f98 a63c
00000210: 0612 da3c 9af4 413c 93bf d73c caca 6537
00000220: 1afa 433c d935 643a b092 3e3c a817 8d3c
00000230: 9e8c 7239 cb67 1c3c 6520 b337 786a 3638
00000240: 65ee 2a3d 4252 7b3b 4fc2 8f3c dde4 a53c
00000250: a7b7 5a3b c9d0 113c c4cf b63c 88e7 653c
00000260: 188e 1f3d 5e46 af3a 5503 ca3c ded0 cf3c
00000270: efe0 a43c 3bf9 7737 809c 5f3c 95be 9b3b
00000280: 4271 713b 2dc1 1639 c9aa 2d3b 58d8 1d3b
00000290: 17bc 4e3b 9e13 b83a 4f85 4c3b 7457 d335
000002a0: 9f01 ba3a 40f0 d938 13d7 b43a 51d2 053b
000002b0: 400a dd37 db1b 943a aeef 2836 26b1 a736
000002c0: cb22 a23b 8c2e ed39 0854 083b 882e 1d3b
000002d0: 686a cd39 3df5 893a b231 2d3b 994e da3a
000002e0: 915d 973b ad06 2339 8370 3f3b 2af9 443b
000002f0: a139 1c3b 3019 e535 1956 d43a 795d 133a
00000300: 6424 9f33 0c91 9131 80da 7d33 a016 6d33
00000310: 6447 8f33 54b6 1b33 b438 8e33 d88d 222e
00000320: 080b 1d33 e08d 4b31 1c76 1933 38b0 5133
00000330: b8d5 6430 d0d2 0133 d859 912e 8c02 072f
00000340: 00da ba33 70c4 5b32 d0a9 5433 485e 6c33
00000350: 1433 4132 984a f432 4867 7d33 d8bf 3233
00000360: 400a b633 f84d a331 20e6 8733 4098 8a33
00000370: 4051 6b33 c8bd 302e e8d2 2e33 64b8 8732
00000380: 58cb a13b e8c3 4939 c6f4 683b daa9 533b
00000390: f39a 8a3b 38a8 f63a 7f20 893b 09d7 0d36
000003a0: 9f3a f93a ab2e 1239 1258 f23a 3e38 333b
000003b0: 11b6 1438 8fb7 c63a af56 6236 9b98 e136
000003c0: e548 d93b 1b4f 1f3a 419b 363b 15c6 523b
000003d0: 7372 0a3a aa2c b93a a352 683b 9723 123b
000003e0: 45d9 ca3b 9277 5a39 9262 803b ac14 843b
000003f0: bc7a 513b 009e 1936 3528 0e3b fe87 453a

conv2.lin_l.bias f4 [16]
0.161405 8.351313e-05 3.912694e-05 0.14157669 0.1193702 0.06942002 9.204991e-06 0.08693714
2.1381133e-07 3.9011076e-07 0.101397 0.1180941 0.0011957708 0.00041214185 0.12669419 0.00046272427
00000000: 5a47 253e c523 af38 3b1c 2438 7bf9 103e
00000010: 5d78 f43d 152c 8e3d 236f 1a37 190c b23d
00000020: 0394 6534 6a70 d134 3ba9 cf3d 52db f13d
00000030: 69bb 9c3a be14 d839 1fbc 013e cd99 f239

conv2.lin_r.weight f4 [16, 32]
0.2039993 0.008116181 0.14691162 0.13352287 0.17477258 0.077713616 0.17291066 9.0042384e-05
0.07852486 0.005770809 0.07635552 0.11308615 0.0015230788 0.06263924 0.00013991505 0.00028626356
0.2739728 0.025148101 0.11522413 0.13296111 0.02190562 0.05839251 0.14651468 0.09213557
0.25575912 0.008820072 0.16189969 0.16655122 0.13214856 9.724474e-05 0.08961205 0.031175185
0.000103519975 4.1014273e-06 7.455152e-05 6.775677e-05 8.8690125e-05 3.943715e-05 8.774546e-05 4.5612605e-08
3.9848765e-05 2.9214357e-06 3.8748123e-05 5.738584e-05 7.711941e-07 3.1787742e-05 7.084074e-08 1.4499605e-07
0.00013901768 1.2748891e-05 5.8470658e-05 6.7471774e-05 1.1108078e-05 2.9632398e-05 7.435017e-05 4.6754838e-05
0.00012977811 4.4604462e-06 8.2158076e-05 8.451828e-05 6.705933e-05 4.9263697e-08 4.547444e-05 1.5810581e-05
4.8030495e-05 1.9028654e-06 3.4589477e-05 3.143632e-05 4.1149407e-05 1.8296882e-05 4.0711126e-05 2.1163236e-08
1.8488068e-05 1.3555084e-06 1.7977223e-05 2.6624935e-05 3.5781977e-07 1.474795e-05 3.2868094e-08 6.727432e-08
6.450305e-05 5.914676e-06 2.712761e-05 3.1304415e-05 5.1535235e-06 1.37479e-05 3.4496094e-05 2.1692278e-05
6.0215258e-05 2.0694815e-06 3.8118756e-05 3.9213995e-05 3.111326e-05 2.2857195e-08 2.10976e-05 7.3351034e-06
0.14783292 0.0058737798 0.1064656 0.09676158 0.1266554 0.056309853 0.12530616 6.5435524e-05
0.056897506 0.004173954 0.05532584 0.0819472 0.0011004793 0.0453912 0.00010125606 0.00020797779
0.19854262 0.018223071 0.083497144 0.09635442 0.015868478 0.042315718 0.10617791 0.06676024
0.18534295 0.006385424 0.11732733 0.120698065 0.09576547 7.067931e-05 0.06493138 0.022591585
0.11605636 0.00460618 0.08356634 0.075946406 0.09942331 0.04420078 0.098363414 5.1387247e-05
0.044662073 0.0032722785 0.04342758 0.06431955 0.000862735 0.035625797 7.9571124e-05 0.00016346044
0.15586668 0.014296854 0.06553534 0.07562701 0.012449084 0.03321045 0.08333981 0.05240362
0.14550787 0.005005636 0.09209691 0.09474578 0.075163804 5.5491353e-05 0.050968323 0.017726788
0.09211782 0.0036690324 0.06634023 0.0602949 0.07892044 0.035092674 0.078079686 4.068294e-05
0.035459004 0.0026087135 0.034479395 0.051066794 0.0006880558 0.028285699 6.314876e-05 0.00012924512
0.12371349 0.011360646 0.05203223 0.06004124 0.009896083 0.026368085 0.066160984 0.041605458
0.115489565 0.0039871433 0.07310777 0.07520814 0.05967435 4.3942662e-05 0.040465828 0.014081897
1.2942661e-05 5.130413e-07 9.321675e-06 8.4723115e-06 1.1088999e-05 4.9319096e-06 1.0970905e-05 5.7055076e-09
4.983378e-06 3.6540874e-07 4.84576e-06 7.175861e-06 9.646723e-08 3.9754805e-06 8.862337e-09 1.8137692e-08
1.7379682e-05 1.594681e-06 7.311473e-06 8.436678e-06 1.3894476e-06 3.7059829e-06 9.296503e-06 5.8468063e-06
1.6224785e-05 5.5793123e-07 1.0272491e-05 1.0567521e-05 8.385123e-06 6.1624483e-09 5.686717e-06 1.9775923e-06
0.11480776 0.0045712646 0.08268039 0.07514563 0.09835973 0.04373662 0.09731188 5.069434e-05
0.044193204 0.0032504594 0.04297228 0.06364438 0.00085769227 0.03525286 7.87357e-05 0.0001610473
0.15418632 0.01415691 0.064847596 0.0748295 0.012331973 0.032862894 0.082457 0.0518534
0.14393651 0.0049673594 0.09111519 0.09373301 0.0743722 5.4751756e-05 0.050433155 0.017548071
00000000: 31e5 503e bbf9 043c 0070 163e 38ba 083e
00000010: 95f7 323e 5128 9f3d 7e0f 313e 23d5 bc38
00000020: a4d1 a03d 0e19 bd3b 4860 9c3d b699 e73d
00000030: 0ba2 c73a 0049 803d 29b6 1239 a515 9639
00000040: 2a46 8c3e 6403 ce3c a1fa eb3d f526 083e
00000050: 6a73 b33c fc2c 6f3d f207 163e 93b1 bc3d
00000060: dcf2 823e 1082 103c 08c9 253e 678c 2a3e
00000070: f451 073e dfef cb38 8686 b73d 1a63 ff3c
00000080: dd18 d938 fe9e 8936 8b58 9c38 a418 8e38
00000090: 26ff b938 5169 2538 fc03 b838 97e7 4333
000000a0: 4923 2738 e20d 4436 7b85 2238 94b1 7038
000000b0: 0e04 4f35 d453 0538 1c21 9833 36b0 1b34
000000c0: 46c5 1139 12e4 5537 643e 7538 a27f 8d38
000000d0: d55c 3a37 1793 f837 72ec 9b38 a01a 4438
000000e0: 0c15 0839 f1aa 9536 484c ac38 683f b138
000000f0: 34a2 8c38 0296 5333 cfbb 3e38 f7a0 8437
00000100: 5a74 4938 f565 ff35 2b14 1138 7eda 0338
00000110: d797 2c38 417c 9937 3dc1 2a38 73ca b532
00000120: d316 9b37 eaee b535 cbcd 9637 9d58 df37
00000130: 601a c034 f76d 7737 da2a 0d33 7378 9033
00000140: d045 8738 ae76 c636 1990 e337 dc4c 0338
00000150: 6eec ac36 c8a6 6637 e6af 1038 d0f7 b537
00000160: a48f 7c38 6ce1 0a36 b4e1 1f38 b579 2438
00000170: 9c7f 0238 8157 c432 c0fa b037 0f20 f636
00000180: 8361 173e d678 c03b a30a da3d ef2a c63d
00000190: f4b1 013e 29a5 663d 4250 003e 6e3a 8938
000001a0: 5c0d 693d aac5 883b 599d 623d efd3 a73d
000001b0: f53d 903a 1fec 393d 6f59 d438 9d14 5a39
000001c0: c24e 4b3e 8d48 953c 8d00 ab3d 7755 c53d
000001d0: 9cfe 813c 3f53 2d3d ce73 d93d 98b9 883d
000001e0: 8bca 3d3e d23c d13b 5049 f03d 8c30 f73d
000001f0: b020 c43d aa39 9438 befa 843d fd11 b93c
00000200: f5ae ed3d 70ef 963b d424 ab3d ca89 9b3d
00000210: 739e cb3d e10b 353d c272 c93d a388 5738
00000220: 94ef 363d b973 563b 1ee1 313d f8b9 833d
00000230: 2a29 623a 5bec 113d 6cdf a638 9466 2b39
00000240: 849b 1f3e 5a3d 6a3c 6437 863d 55e2 9a3d
00000250: 3ef7 4b3c ae07 083d 10ae aa3d 2ea5 563d
00000260: 0400 153e 5106 a43b 4e9d bc3d 130a c23d
00000270: 7bef 993d 63bf 6838 29c4 503d c537 913c
00000280: 45a8 bc3d 2674 703b 63dd 873d c9f7 763d
00000290: 0aa1 a13d 56bd 0f3d 3ee8 9f3d f9a2 2a38
000002a0: 763d 113d f3f6 2a3b 443a 0d3d 6a2b 513d
000002b0: a55e 343a 69b7 e73c bb6e 8438 f985 0739
000002c0: 805d fd3d 0122 3a3c bf1f 553d ceed 753d
000002d0: 2e23 223c e201 d83c 697f 873d 7c6a 2a3d
000002e0: cb85 ec3d 95a6 823b 87b9 953d ba06 9a3d
000002f0: 176d 743d 134f 3838 7fbf 253d c2b7 663c
00000300: 4e24 5937 eeb7 0935 4a64 1c37 4d24 0e37
00000310: e30a 3a37 c87c a536 ae0f 3837 2d0a c431
00000320: e436 a736 652d c434 c398 a236 2dc8 f036
00000330: 6c29 cf33 1e65 8536 f840 1832 35cd 9b32
00000340: 95ca 9137 d208 d635 1355 f536 428b 0d37
00000350: 0e7d ba35 4db4 7836 2df8 1b37 af2f c436
00000360: 761a 8837 bec4 1535 0358 2c37 284b 3137
00000370: d4ad 0c37 78bd d331 87d0 be36 c7b6 0436
00000380: 5520 eb3d 8cca 953b 5654 a93d f4e5 993d
00000390: d370 c93d 2c25 333d 734b c73d a2a0 5438
000003a0: ef03 353d a905 553b b403 303d fc57 823d
000003b0: c1d6 603a 4e65 103d e81e a538 cede 2839
000003c0: 05e3 1d3e 62f2 673c d1ce 843d 3540 993d
000003d0: 0b0c 4a3c 3e9b 063d 37df a83d 3b64 543d
000003e0: 1864 133e 3bc5 a23b 9a9a ba3d 18f7 bf3d
000003f0: 7450 983d 40a5 6538 ff92 4e3d f9c0 8f3c

fc2.weight f4 [3, 16]
-0.08688901 -4.6325982e-05 -2.0608255e-05 0.006555529 0.028386721 -0.04902477 -9.542893e-06 -0.05991877
-1.833843e-07 -3.4379593e-07 -0.00458463 -0.068737514 -8.020534e-05 -6.8388756e-05 -0.09291921 -0.00027255018
-0.5196574 -0.00026327843 -0.00012264127 -0.39456776 -0.3157705 -0.23211691 -3.1540516e-05 -0.28960037
-7.213231e-07 -1.3044709e-06 -0.28945306 -0.3840292 -0.0034288617 -0.0012116707 -0.4261906 -0.0015030348
-0.46204 -0.00023346314 -0.00010856359 -0.3433991 -0.27247217 -0.20742019 -2.8470358e-05 -0.25866172
-6.5416657e-07 -1.1842868e-06 -0.25287384 -0.34190893 -0.0029994454 -0.0010634961 -0.381145 -0.0013379884
00000000: def2 b1bd 254e 42b8 e4df acb7 c3cf d63b
00000010: 458b e83c 32ce 48bd 6a1a 20b7 626d 75bd
00000020: 4be8 44b4 f492 b8b4 aa3a 96bb 41c6 8cbd
00000030: ea33 a8b8 ef6b 8fb8 6d4c bebd 11e5 8eb9
00000040: 4408 05bf a208 8ab9 4499 00b9 c904 cabe
00000050: acac a1be 0eb0 6dbe 5f4a 04b8 8046 94be
00000060: f2a0 41b5 4715 afb5 3133 94be 7a9f c4be
00000070: c1b6 60bb ecd0 9eba a835 dabe 7b01 c5ba
00000080: 8290 ecbe c9cd 74b9 a2ac e3b8 02d2 afbe
00000090: 7981 8bbe f565 54be a1d3 eeb7 4f6f 84be
000000a0: fc99 2fb5 c9f3 9eb5 ae78 81be b00e afbe
000000b0: 5892 44bb 0265 8bba 7025 c3be 715f afba

fc2.bias f4 [3]
0.26455218 -0.3349417 -0.021988753
00000000: 6273 873e 7a7d abbe c221 b4bc
