blocksnet/blocks/classification/artifacts/model.pt (torch, 35389 bytes, 16 tensors)

backbone.0.weight f4 [64, 9]
00000000: e068 9d3d 2e65 86bd dacb cb3e b0b3 25be
00000010: 1261 c439 a084 633e fe5a 89bd 7f49 263e
00000020: 8910 2fbe 869c 283d 7ccf 813e 8bd4 7e3e
00000030: b3ee a4be 24dc 46be a609 86be 08d9 8dbd
00000040: fc8d 863c f145 3b3e 74ab a23c 2052 f13a
00000050: 3386 46bf 912b 853e e0fd a4bd 6957 36be
00000060: 095e 78bd 6df0 8b3e cef5 093e 114f 1dbe
00000070: c8bd 9abe e215 09be 462c febd 97b8 873d
00000080: a594 80bb 2982 813d 6bdd d5be a758 ae3d
00000090: 66ef 7dbc 58e1 1cbc 4ba3 04bf 1fa2 bbbc
000000a0: 09b2 803d bf9d f23d 0355 e23d 12eb 58bf
000000b0: 0dfc 0dbd 273a 34be 8e17 2b3e 1977 863d
000000c0: b49e 6e3d 736f 4abb 0d65 30bc e466 1ebe
000000d0: 515b 9a3c 73d5 33bd a4f1 8c3d bd14 2d3e
000000e0: 9819 293e 50bb 72be a0f8 4a3e dbd1 11be
000000f0: edfa f93d 853b a4bb 115a 1ebe 1d18 243e
00000100: 0849 873d 3f28 05be e268 683e de2b 5bbe
00000110: 5d4d 49be 0087 d43d 3a92 0f3e 138d 46be
00000120: cfba b5ba f3dc fb3a 2b6c adbe f89c c8be
00000130: bc7d 653c 3b9a 903e a316 e83c 5cdc f8be
00000140: f371 5f3d 9894 d7bc 2537 1fbc eb3a b23e
00000150: d696 8dbe 767a 9c3d 6697 353d f89c b8bd
00000160: 4af5 113f bb95 0ebc 2f70 c3bd e1cc b1be
00000170: e1ed adbb 6ae0 bcbe ca03 5bbd 18d6 7e3e
00000180: 02dc 2b3d 22a2 e03c bca8 123e 5c15 ab3c
00000190: 28c6 73be 7bd3 953e d0e4 2ebe c73c e4bd
000001a0: 5a05 6cbe d300 293e 97f8 2e3e 0f85 f7bd
000001b0: 37d2 623c 6f4f 00bc 0d15 48bf 8301 cb3d
000001c0: 336b 47be 6223 13be 1468 a3be fcab 9c3d
000001d0: 2fd6 523e 8f02 58bd a7b7 903c 583e 00bf
000001e0: 0a4d 77be f76f 2f3e 8b2a 29be 871a 47be
000001f0: 06dd ecbb 3c6b a33e cfa0 07bb 7e46 2cb8
00000200: 2cdd 85bf 6873 1c3a bac6 febc fa68 49bd
00000210: 3d0d 10bd 1e63 cbbd 4d59 053e e314 dcbd
00000220: 3180 3a3d cfd9 8e3e 079c d7bd 62d9 8abe
00000230: 7851 0c3e 11a9 37be 9c5c 00be 0904 983e
00000240: f74c b63e 4f75 b53d deac aabc 365f aebd
00000250: 9abd 393e 2fdc 21be b121 e1bd ca26 023d
00000260: 3317 31be d6a1 523e 3851 e73d d0dd 75bd
00000270: de29 733e b4cb a0be 569d 783e 39e5 cc3d
00000280: a59d 4a3e 0aad 02bd 7a00 26bc 472c 883b
00000290: fbfd 0ebe e4f4 26bb 89a3 6d3c 0973 1fbe
000002a0: 26b9 a8be 3a00 e93e bb01 363e 1a62 1739
000002b0: e2bb 3d3c 43d0 69bc d472 b93d 1d2a 2d3e
000002c0: 1940 8abe 0652 493e 4356 dcbd fa5b f63d
000002d0: 19b2 673e f692 5abe b163 f23d 8820 203e
000002e0: a6f4 96be 0641 acbd 0746 25bd bd4d 8a3d
000002f0: 06a4 2b3e 698c 923a 696a 2e3a 4a45 a1bf
00000300: 5681 7abe 75ca b73b d09f 943c 6b45 8b3d
00000310: 7c9b 7cbc 2c95 7b3e e2b9 1bbe afd6 de3d
00000320: 3307 d0bd 7214 7cbe 7506 a03e 9654 52be
00000330: bdc3 acbe 4928 a2bc 9978 953e 9c1a 963d
00000340: a49e 11bb 5272 59bc 4179 85be 4c05 bf3e
00000350: 209a ab3d 7151 0d3e 4c18 7c3e 2920 fcbc
00000360: 8892 b0bd 4d29 9ebe 9d71 97ba 04b7 2d3d
00000370: 9523 9a3d 035b b1be 74d1 69bd b3f0 8fbc
00000380: cbe6 143e 0055 e53d c59f 23be 9d66 babe
00000390: 9d8d 7d3d 2918 99be e4f2 7c3d 9193 403e
000003a0: d49b 86bc bf7c 8ebd 54cd 923e 07b3 5f3e
000003b0: 3f83 e73d 6168 15be 7796 553d c5b8 993d
000003c0: 311d 92be 59a3 2eba b556 e4bc 9ab2 a8bb
000003d0: 5a4e deba 5771 7bbf 5cad 31be 893b 1b3e
000003e0: 427f 1f3e 7b6b 063d 2add a43e 35a4 ebbc
000003f0: 5367 863e 2c5d b8bd 4402 0bbd 05be 95be
0.07686019 -0.06562267 0.39803964 -0.16181827 0.00037456356 0.22218561 -0.067068085 0.16238974
-0.17096151 0.041164897 0.2535361 0.24885766 -0.32213363 -0.19419914 -0.26179236 -0.06926161
0.016425125 0.182884 0.019857146 0.0018411316 -0.7754852 0.260098 -0.08056235 -0.17806782
-0.060636554 0.27331868 0.13472673 -0.15362193 -0.30222917 -0.13387254 -0.12410788 0.066270046
-0.00392397 0.06323654 -0.4177049 0.08513003 -0.015498972 -0.0095752105 -0.51811665 -0.022904454
0.062839575 0.11846494 0.11051371 -0.8473369 -0.034664202 -0.17600308 0.16708204 0.06565685
0.05825682 -0.0030889183 -0.01076628 -0.15468937 0.018842371 -0.043904733 0.06882027 0.16902442
0.1651367 -0.23704267 0.19821405 -0.1424021 0.122060634 -0.005011978 -0.15464045 0.16024823
0.066057265 -0.13003634 0.2269626 -0.21403453 -0.19658418 0.10377312 0.14020625 -0.19389753
-0.0013864877 0.0019215628 -0.33871588 -0.39182258 0.014007028 0.28242669 0.028331107 -0.4860562
0.05455203 -0.026315972 -0.009717737 0.34810576 -0.2765414 0.07640545 0.044333838 -0.090143144
0.57014906 -0.008702691 -0.09542882 -0.34726623 -0.0053078984 -0.36889964 -0.05347041 0.24886358
0.041957863 0.027421061 0.1432218 0.020884208 -0.2380606 0.2926291 -0.17079473 -0.11144405
-0.23048916 0.1650422 0.17087017 -0.12085926 0.013844064 -0.007831438 -0.7815712 0.09912398
-0.19474487 -0.14368966 -0.31915343 0.07649991 0.20589517 -0.052736815 0.017665697 -0.5009513
-0.24150482 0.17132555 -0.16520135 -0.19443713 -0.0072284965 0.3191775 -0.0020695215 -4.1073647e-05
-1.0458121 0.00059681246 -0.03110062 -0.04917238 -0.035168875 -0.099310145 0.13022347 -0.10746171
0.04553241 0.2790055 -0.10527807 -0.27118975 0.13702953 -0.17935587 -0.12535328 0.2969058
0.35605595 0.088602655 -0.020834383 -0.08514254 0.18138734 -0.1580665 -0.10992754 0.031775273
-0.17294006 0.20569548 0.11294788 -0.06002599 0.2374644 -0.31405413 0.24278769 0.10004658
0.19786699 -0.031903304 -0.01013195 0.004155669 -0.13964073 -0.0025475556 0.014504322 -0.15571226
-0.32953757 0.45507985 0.17774098 0.00014437028 0.011580439 -0.014270845 0.09055105 0.16910596
-0.27002028 0.19660196 -0.107586406 0.12029262 0.22626533 -0.21345124 0.11835421 0.1563741
-0.29483527 -0.0841084 -0.040349986 0.06753109 0.16761789 0.0011180762 0.00066534296 -1.259927
-0.244634 0.0056088516 0.01814261 0.0680035 -0.01541793 0.24568623 -0.15207627 0.108807914
-0.10157623 -0.24617174 0.31254926 -0.2054008 -0.33743086 -0.0197946 0.2919357 0.07329294
-0.0022219801 -0.013271885 -0.26069072 0.3730873 0.083790064 0.13800599 0.24618644 -0.030777054
-0.086216986 -0.30890885 -0.0011554245 0.042410865 0.07526318 -0.3463975 -0.057084516 -0.017570829
0.14541166 0.11197853 -0.15978916 -0.36406413 0.06190263 -0.29901245 0.061755076 0.18806292
-0.016431727 -0.06957387 0.28672278 0.21845637 0.1130433 -0.14590599 0.052145448 0.07505945
-0.28537896 -0.0006661914 -0.027873376 -0.005148244 -0.0016960606 -0.9821982 -0.17351288 0.1515943
0.15575889 0.032817345 0.32199985 -0.028764823 0.26250705 -0.09002146 -0.033937708 -0.29246536

backbone.0.bias f4 [64]
00000000: 896d ce3d a811 d3be 9d7d f0bc 000d e4be
00000010: f2b8 a53e 293f fdbe 2643 85be 6db1 863d
00000020: 02a2 72bd 8eb7 fbbb f655 63be b8c4 92bd
00000030: dc64 6bbc 3aa3 ccbd 16db cebd d812 93bd
00000040: 0bf3 b3be b016 293d a43b 0bbe 2c0a 993e
00000050: 4ba0 abbd 0bea f3bd c571 18be 7f0b 223e
00000060: 8dbf 14be bf40 d8bd c64c 8cbe 6faa e5bc
00000070: 9ef8 8fbe b03a c7be b19d a03d de03 b83d
00000080: 6442 703d c0fa 3b3c 178c 77bc 8611 6fbd
00000090: 88ed 82bd 308a 02bf 8ec3 153e 20f1 8fbe
000000a0: db73 843c 20ea 80be 4d75 1b3e cebf a33e
000000b0: 90ce efbd 9111 56bd b91f 2cbf 2599 0fbe
000000c0: ed18 74bd 668f 833d 5c5a 03be 39aa 563d
000000d0: 71e9 22be 2374 c7be 7a83 213e a6e4 adbd
000000e0: 0a95 7bbe 108f eabd d6d5 b6bd e795 cb3d
000000f0: 296c 2fbe 3c61 67be 43ee 1abd 65f6 5fbe
0.10079486 -0.41224408 -0.029356772 -0.44541168 0.32367665 -0.4946225 -0.26027793 0.0657681
-0.059236534 -0.0076817935 -0.2220076 -0.071664274 -0.0143673085 -0.099920705 -0.10100381 -0.071813285
-0.35146365 0.041281402 -0.1359697 0.29890573 -0.08380183 -0.119098745 -0.1488715 0.15824698
-0.14526196 -0.10559224 -0.27402323 -0.02803537 -0.28119367 -0.38911963 0.07842577 0.089851126
0.058657065 0.011473358 -0.015109084 -0.05836632 -0.06392962 -0.5099211 0.1462538 -0.2811365
0.016168525 -0.25178623 0.15181465 0.31982273 -0.117093205 -0.052262846 -0.67235905 -0.14023264
-0.059594084 0.064238355 -0.12827438 0.05240843 -0.15909363 -0.38955793 0.1577281 -0.08490877
-0.24568573 -0.11453068 -0.08927505 0.09940701 -0.17131104 -0.22595686 -0.03782488 -0.21871336

backbone.2.weight f4 [64]
00000000: 39e0 3a3f c8de 4f3f 4711 1f3f 8c13 533f
00000010: eece 1c3f cf0c 6d3f ee93 433f b667 be3e
00000020: b86a 423f 32ef 613f b366 373f d79c 133f
00000030: 3497 073f b0d0 e33e 4ce4 0e3f 5e20 343f
00000040: a70f 4e3f 5078 113f 9d20 323f 2eff 3f3f
00000050: 3fc0 1f3f bc60 333f b5fa 373f a749 233f
00000060: a0ab 343f 1167 233f 93ba 403f 9e88 513f
00000070: cb63 6f3f 5985 583f 840e ed3e e64b e03e
00000080: 1eae e63e 04ef 393f 80f3 4c3f 78e8 353f
00000090: b349 4b3f 86c8 943f 47d5 2e3f 0cb9 353f
000000a0: 00b8 3e3f 4968 453f 376d 333f 2c1a 313f
000000b0: 40f3 633f d3c2 3a3f b5c4 9a3f 8da7 673f
000000c0: bb48 163f eed2 f03e dc95 303f e5d3 073f
000000d0: 450a 153f dc96 1c3f 0416 173f 7e5c 253f
000000e0: 5ede 2f3f 2a25 1b3f b583 803f ea4a 173f
000000f0: 5990 123f fd64 6c3f ed71 413f 1c7a 2a3f
0.72998387 0.8119931 0.6213574 0.824517 0.6125325 0.9259767 0.763976 0.371885
0.7594409 0.8825561 0.7164108 0.57661194 0.5296509 0.44495153 0.55817103 0.7036189
0.80492634 0.5682421 0.69581014 0.7499875 0.6240272 0.7006948 0.71866924 0.6378426
0.7057438 0.6382914 0.7528469 0.81849086 0.93511647 0.8457847 0.46300137 0.43807906
0.45054716 0.72630334 0.8005905 0.71057844 0.7940933 1.1623695 0.68294185 0.70985484
0.7449951 0.7711225 0.70088524 0.6918056 0.89043045 0.7295353 1.209128 0.9049004
0.5870473 0.47035927 0.6897867 0.530577 0.58218795 0.61167693 0.5901797 0.64594257
0.6869868 0.6060358 1.0040194 0.59098685 0.5725151 0.92341596 0.7556446 0.66592574

backbone.2.bias f4 [64]
00000000: 5aed d23d 4d7b 253e ac1e 263b d448 f73d
00000010: a24f 8a3e e1b1 d93d 86f0 e73d a0fb fbbc
00000020: 0dce 813d ac19 d93c 1fe5 883e fe9f a33d
00000030: b38a 2fbe 2bb9 d5bd 337a 5cbe 158c 083e
00000040: f016 683e 3e15 373e 033f 0c3d 1769 6b3e
00000050: 1685 583e 41ce 9fbe bdf4 5c3e d4e6 223e
00000060: fb43 8d3e 182c 313e 1628 943e 41fa 553c
00000070: b0a9 4d3e ae1d 533e 7eed 853b 6641 093e
00000080: 2220 06be 2eeb bb3d 13bf c23e f840 753e
00000090: 173b c33d b084 a03d ab44 353e 2a50 873d
000000a0: eaeb 323e 4946 c93d 7903 283e a17e 07be
000000b0: 6e10 f43c 26d5 263e 9dff b03d 1d9a 1f3e
000000c0: 59c2 b23d aea2 3abe d029 e23d c7e1 1f3e
000000d0: ff46 103e 8b75 df3d 3faf 3a3e 3899 4bbe
000000e0: 7a27 593e 51ce f53d 8578 cf3d 400a 333e
000000f0: 29d3 e9bb f44d 943e 8383 3e3e 6a51 473e
0.102991775 0.16160317 0.0025347872 0.12074438 0.2701388 0.10629631 0.11325173 -0.030759633
0.06338129 0.0265015 0.26737306 0.079895005 -0.17142753 -0.104357086 -0.2153099 0.13334687
0.22665 0.17879197 0.03423978 0.22989307 0.21144518 -0.31212047 0.21577735 0.15908366
0.27590927 0.17301977 0.28936833 0.013060153 0.20084262 0.2061679 0.004087149 0.13403854
-0.13098195 0.09175716 0.38036403 0.23950565 0.09532755 0.07837808 0.17701976 0.06607087
0.17472807 0.09827859 0.16407575 -0.13231899 0.02979299 0.16292247 0.08642504 0.15586133
0.08728475 -0.1822612 0.11043131 0.15613471 0.14089583 0.109110914 0.18230914 -0.19882667
0.21206465 0.12002242 0.10130409 0.17484379 -0.007135768 0.28965724 0.18604855 0.19464651

backbone.2.running_mean f4 [64]
00000000: 8972 fe3d 0f6b 853c 0741 723d fd5d 0c3c
00000010: 65c8 b73e 3282 6e3c 3733 173c bdac 123e
00000020: ec3e 0a3c 28f9 1e3d 8615 423d 1301 cc3d
00000030: bb54 353e 0756 363d 2f52 1e3d bad6 523d
00000040: abe3 b43c a1ed f13d 77d5 153d eca7 9b3e
00000050: 9dff bf3d 9795 033d cda0 633d 073c 2a3e
00000060: 9e58 8c3d f6f4 553d 8aa9 f23c c614 813d
00000070: 276c a03c e79c 3f3d c3cc 813e fba5 0e3e
00000080: eb9f e43d 749b a13d 83f5 663d 0458 e13d
00000090: 45df 523d f042 433c 5465 473e ddeb 483b
000000a0: b7bf d83d e497 c83c 6ba5 403e 45a8 aa3e
000000b0: 439e e13c 4870 bc3c 310b ca3c 3bf1 283d
000000c0: a107 013d 8faa 4f3e 5e24 913b 5082 223e
000000d0: bfb9 d63d 1bf0 fa3c 90f2 4a3e ced8 b43c
000000e0: 643a 683d 38bb 773d 5020 b33c 976a 273e
000000f0: 944f ef3c 0617 273d 535b a73d 13f9 083d
0.124241896 0.016286401 0.059144046 0.00856733 0.35895076 0.014557408 0.009228519 0.14323707
0.008437853 0.038811833 0.047383808 0.099611424 0.17708103 0.044515636 0.038652595 0.05147431
0.022081217 0.11812902 0.03658053 0.30401552 0.09374926 0.032125082 0.055573273 0.16624461
0.0685284 0.052235566 0.029621858 0.0630279 0.019582821 0.046780493 0.25351533 0.13930504
0.111633144 0.078909785 0.056386482 0.11003116 0.051482458 0.011917815 0.19472247 0.0030658164
0.10583442 0.02448649 0.18813102 0.33331504 0.027541285 0.023002759 0.02466354 0.04124568
0.031501416 0.20279907 0.004429384 0.15870023 0.10484647 0.03063207 0.19819093 0.022076037
0.05669631 0.06048128 0.021865994 0.16349255 0.02921275 0.04079344 0.081717156 0.03344066

backbone.2.running_var f4 [64]
00000000: 7902 ce3d ebdf 9a3b 56b9 b83d 6f70 d23a
00000010: e7a7 213c 83f3 c53b f5bb f33b 90db 163d
00000020: 2b9c 9a39 d9a7 cf3e 343a 4a3c 8050 863d
00000030: 58cd c13c 885a 843b 8ca5 6f3a b5a6 973d
00000040: 29b4 923b efc0 db3d 9b25 743e 3be9 a33d
00000050: e439 2a3d 688e 163a f65c e43c 3700 113e
00000060: e844 873c ce07 393c fe06 a73b e456 f53d
00000070: 8d7d d13b 9456 fb3c a935 a63d 335f 093d
00000080: 7332 173c 8013 ed3e de30 253c 68e2 b33d
00000090: a820 393d c944 193d 8636 b23e 6eca 9c38
000000a0: 1c59 253e a124 f93c 0511 7d3e cefd 4c3d
000000b0: 9fa6 1e3f 9585 fd3b 6be1 1a3e 1075 5f3d
000000c0: 58dd c73d 0a64 103d b24f bd39 4178 203e
000000d0: 623d 3e3d 7b74 ac3c 6edc 793d dd63 ec39
000000e0: 503d 803c 8c2c 283e 90c6 4e3d f619 093e
000000f0: 597b b23b 33f3 653c a375 083e 16b1 ba3b
0.10059065 0.0047264 0.09019725 0.0016055236 0.009866691 0.0060409917 0.0074381777 0.036830485
0.00029489523 0.40557745 0.012342978 0.06558323 0.023657486 0.0040391125 0.0009141795 0.07404844
0.004477043 0.107301585 0.2384247 0.080034696 0.041559115 0.0005743266 0.027876358 0.14160238
0.01651235 0.011293365 0.005097269 0.11979464 0.0063931406 0.030680932 0.081157036 0.033538055
0.009228337 0.4630394 0.010082452 0.08783418 0.04519716 0.037419114 0.34807223 7.476365e-05
0.16147274 0.030412974 0.24713524 0.050046735 0.61972994 0.0077368715 0.15125053 0.054555
0.09759015 0.035251655 0.00036108267 0.15670873 0.046445258 0.021051636 0.061001234 0.00045087832
0.015654236 0.16423243 0.050482333 0.1338881 0.005446833 0.014035034 0.13326125 0.00569738

backbone.4.weight f4 [64, 64]
00000000: 53ac 97bd df07 8c3c 8483 8bbd 300d 9b3c
00000010: 5db5 393d d1bc 87bd a611 c83c 13e2 e23d
00000020: 2371 ccbd 9d10 96be 039f a3b9 63a3 d8bd
00000030: a106 80bc 21e4 65bd 2e1f 433d e22f 86bd
00000040: 8135 7ebc bf2b f13b 3496 94be bb62 12ba
00000050: 7fb2 233d 56d0 a43d 6aad 93bd 7c0f ac3b
00000060: 01a1 d4bd 9e06 253e 32c4 56bd 0e88 ecbd
00000070: 7662 e6bc ac76 7b3d 1acd 26bd c2e6 57bd
00000080: 9cfc 103d 6246 c3bd 83e8 4d3d f283 86bd
00000090: 37ad 773c c0fd aebe 50cc 7fbd ef37 fb3b
000000a0: 9125 4dbc e670 773d 0aa2 ae3c 10b0 59bd
000000b0: 5a25 69be 9a06 8ebd c39c ecbe 22cf 423c
000000c0: 0575 abbb fd1d 9eba d901 d8bc 2d22 383c
000000d0: f8a3 9bbd 4c9e 8c3d 124a 023d e4f6 acbd
000000e0: ee5e b9bc fe34 383d 1528 46bc 3e87 79bc
000000f0: 9694 8fbd b16c 45bc 4a30 13bd a86e 5dbb
00000100: 21f5 7abc 0d58 e1bd 8e1c ebbd 96fe 473d
00000110: 1532 693d 5950 833d d1bc 18be aac7 973c
00000120: 174c cf3c 20d8 67bc 8c8d 59bd c1f6 bdbd
00000130: 4ba6 32bd b03a d63c daa3 de3b 24da 88bd
00000140: 1332 733c 6e9c 77bd 0254 37bd 8254 713d
00000150: 97b8 09bd aee1 edbc efba 8f3d 2f3d dd3b
00000160: 341e 31be 1cac 1f3d 1c94 81bc 5727 24be
00000170: be40 883d 46f8 14bd 0bda 3dbd 20ad 80bd
00000180: a350 9abc 9f6a 4cbe 572f f03b 9695 37bc
00000190: b534 c3bd 007f 9bbe 19ff 30be 815b 7dbc
000001a0: a6f1 4f3d 79ed 0fbd d69a 89bd 1203 3abc
000001b0: 4415 8d3d 0ccc bebd 94d6 a2be 198c 24bd
000001c0: 666d eabd 50d5 7fbd 240c 92bc 5f6b 0abd
000001d0: 3adb e4bd 8e66 093c 3509 5ebd bb6d d7bc
000001e0: 2bee 4ebe 9288 1abd f665 46bc 9cb7 88be
000001f0: 8119 e73c 031a 1abd c2d8 a2bd b3cb 5bbc
00000200: 0684 10bc d2f4 54be 95f6 24be 020e ce3c
00000210: 392c 42be 957a 6cbc ff9b d93c 2ed2 b73c
00000220: abd3 cf3c 7144 65be 3bfc 443d 2c39 a0bc
00000230: 88cd b3bb 58c9 cebd 2a6c b5bd 8f00 c3bc
00000240: df6a 043e 3ab9 14bc 8666 31bd 1cd3 bd3c
00000250: 3020 033c f86e 86bb e0be 583c 3eff eb3b
00000260: 6605 3f3d d144 b33d 4a83 b4be 70fa 19bd
00000270: d6f8 213b fbaf 89bd 79be ac3c 0ae2 913d
00000280: 5afc 4d3d 09f4 2abe 5a1c c53b d151 cc3c
00000290: 698a 10bd a69c ac3d 1eae 083d c654 f63b
000002a0: f5db aa3b 7c9c 8a3c ce74 49bc 3aa3 2fbd
000002b0: dc01 9f3d 206e 6bbd c2f4 143e f129 4d3c
000002c0: 47fc 8cbd 2a2c 773d f916 b43d 119c 0cbd
000002d0: 06a9 dfbb 559e 003d 4345 823c 4348 2abd
000002e0: a252 b3be 5be0 c33c 1a4f 823d b6d6 ee3b
000002f0: 1ea1 1f3d fa93 d63c d547 913d 7c5a fcbd
00000300: 67d5 e73c 7cfe 5dbb 0824 2c3d 6f01 a5bd
00000310: 5eb7 b3bd 7acd dc3c 3809 6abe 3301 db3c
00000320: cb3d 5fbe 2670 50bd db7a 55be 99b4 db3c
00000330: 2abf 3abc 7497 95bd 660a 483a dffb c2bb
00000340: 8fc4 1fbc 9dec 633c 350a e53c 394a c8bd
00000350: 031a 1c3d 39b2 99bc d4a8 1dbd db19 dabd
00000360: abe0 dcbb f250 63bd 4b7d 9e3b 46da 44bd
00000370: d5b1 7abe d852 32be 1b0b 993c a0b8 5fbc
00000380: 58f2 1b3d cdd1 833d 9fd9 c3be c5e6 173c
00000390: e3e0 e93d fa9c 51bd 357d 573d f3f5 80be
000003a0: fd13 153c eb0b 043e f983 543d fbee 7bbd
000003b0: 7a61 833d 593f f8bd 9847 7a3d d142 99be
000003c0: d74b 453d 93c8 763c e043 513d 21ed 893c
000003d0: d7a5 b8b9 8d12 1dbe 85be a8bd 159b f73a
000003e0: f84f 60bc db21 21bc 6f61 08be 3306 783d
000003f0: ad87 27bd b772 b5be 0aec d3bd 9999 d43c
-0.07405915 0.017093597 -0.06812194 0.018927187 0.045338977 -0.06627811 0.024422478 0.110782765
-0.099825166 -0.2930955 -0.00031208256 -0.105780385 -0.01562816 -0.056125764 0.047637157 -0.06552102
-0.015515686 0.0073599513 -0.29020846 -0.000558417 0.03996515 0.080475494 -0.072108105 0.0052508693
-0.103822716 0.16115806 -0.0524332 -0.11549388 -0.028123122 0.06139247 -0.040722944 -0.052710302
0.035397157 -0.09534909 0.05027057 -0.06568135 0.015116981 -0.3417797 -0.062450707 0.00766658
-0.012521164 0.060410403 0.0213175 -0.053146422 -0.22768155 -0.06934853 -0.4621335 0.011890205
-0.0052324557 -0.001206338 -0.026368069 0.011238617 -0.07599634 0.0686613 0.03180892 -0.08445528
-0.022628274 0.044972412 -0.012094517 -0.015229998 -0.070107624 -0.01204984 -0.035934724 -0.003378788
-0.015317232 -0.110031225 -0.11480056 0.048826776 0.056932528 0.064118095 -0.14915778 0.018527824
0.025304837 -0.014150649 -0.053113505 -0.0927558 -0.04361562 0.026151031 0.006794435 -0.06682232
0.014843482 -0.060451917 -0.04475785 0.058918484 -0.033623304 -0.029038277 0.07018077 0.0067516784
-0.17296678 0.038982496 -0.015817694 -0.16030632 0.066529736 -0.036369585 -0.04635052 -0.06283021
-0.018837279 -0.19962548 0.007329862 -0.011205098 -0.095315374 -0.3037033 -0.17284812 -0.015463711
0.050767563 -0.03513858 -0.06718986 -0.011353271 0.06888822 -0.093162626 -0.31804335 -0.04017267
-0.11446647 -0.06245929 -0.017828055 -0.033793803 -0.11174627 0.008386267 -0.054208 -0.02629744
-0.20208041 -0.0377279 -0.01210927 -0.26702583 0.028210403 -0.037622463 -0.079514995 -0.013415265
-0.008820539 -0.20796517 -0.16109689 0.025153164 -0.18962182 -0.014433523 0.026563643 0.022439089
0.025369486 -0.2238939 0.04809211 -0.019558512 -0.0054871477 -0.10096997 -0.08858521 -0.023803977
0.12931393 -0.009077365 -0.043310665 0.023171954 0.00800328 -0.004102584 0.013229102 0.007202058
0.046636008 0.0875336 -0.35256416 -0.03759235 0.0024714968 -0.06723019 0.021086918 0.07123192
0.05028949 -0.16694655 0.0060153427 0.024941357 -0.03528825 0.08428316 0.033369176 0.00751743
0.005214209 0.01692032 -0.012295915 -0.042880274 0.077640265 -0.05747807 0.14546493 0.012522207
-0.068840556 0.060344853 0.08793444 -0.034328524 -0.006825569 0.031400997 0.015902167 -0.04157282
-0.3502398 0.023910692 0.06362744 0.007288779 0.038972013 0.026193608 0.07093779 -0.12321946
0.0283 -0.0033873608 0.04202655 -0.08056914 -0.08775209 0.026953448 -0.22855079 0.02673397
-0.21800916 -0.050888203 -0.20847647 0.026819514 -0.011398116 -0.07304278 0.0007630944 -0.0059504355
-0.009751453 0.0139113935 0.027958969 -0.09779782 0.038110744 -0.018761741 -0.038491085 -0.10649463
-0.0067406497 -0.055497117 0.0048367134 -0.048059724 -0.244819 -0.17414415 0.018682053 -0.013654858
0.038072914 0.06436501 -0.3825197 0.009271328 0.11419847 -0.051175095 0.05260964 -0.25187644
0.009099004 0.12895171 0.05188367 -0.061507206 0.064150766 -0.121214576 0.061103433 -0.2993379
0.04816803 0.015062469 0.05109012 0.016836705 -0.00035218775 -0.15339108 -0.08239464 0.0018890823
-0.013690941 -0.009834732 -0.13318418 0.060552787 -0.040900875 -0.35439083 -0.10347755 0.025952147

backbone.4.bias f4 [64]
00000000: 33ea 0e3e acd3 273c 2f0e 0dbe 83a8 fbbc
00000010: 83fa edbd b53d a4be cd0d f6bd 67f4 3ebd
00000020: f715 f7bc c71d 6c3d 71f7 8fbe b791 523d
00000030: 84c6 6cbe d052 ba3d ac50 203e 32a5 15bc
00000040: d419 af3d be05 37bd ad35 9abd 2189 5a3e
00000050: a5ad 99be 7d43 3fbe b5b9 ccbd 0670 9ebe
00000060: 7fc4 59be d201 823e accb 29be 3a3f 993c
00000070: e211 15be b58f adbd a73c 813b 7cb9 04bd
00000080: 010a a9be e9cc c3bd 5d6f 843e fec7 57be
00000090: 5798 b2bc 9c55 0fbf ea1d 19be 750b 61bd
000000a0: 5cfb acbd c18f c4be aeaa 6cbe e8b1 69bd
000000b0: 8847 f1bd 6e89 edbe daa4 a93e 1a37 383e
000000c0: 2387 e8bd 0f8e 853d 1d28 c73c 3a19 93be
000000d0: 3103 38be ac35 65bd 5c6b 58be 21ae 30be
000000e0: ea7c 21be f9a4 41be 3490 ca3d 2148 bebd
000000f0: e4c5 f63d c755 78be 061a 49be 51c3 393e
0.13956527 0.010243338 -0.13774942 -0.030720001 -0.11620047 -0.3207833 -0.12014351 -0.0466198
-0.03016184 0.057645585 -0.2811847 0.051408496 -0.23122603 0.090978265 0.15655774 -0.009133624
0.08549848 -0.04468321 -0.07529769 0.21341373 -0.30015293 -0.18678088 -0.09996358 -0.30944842
-0.21266364 0.25392014 -0.16581601 0.018706907 -0.14557603 -0.084746756 0.003943998 -0.032403454
-0.33015445 -0.09560568 0.25866213 -0.21072385 -0.021801157 -0.55990005 -0.14952818 -0.054942567
-0.084463805 -0.38390926 -0.23111984 -0.05705443 -0.11781222 -0.46393913 0.33133584 0.1798977
-0.113539 0.06521236 0.02431112 -0.28730184 -0.17969967 -0.05595939 -0.21134704 -0.17253925
-0.15770307 -0.18910588 0.09890786 -0.09291101 0.120494634 -0.24251471 -0.19638833 0.18140914

backbone.6.weight f4 [64]
00000000: 9cf5 523f 43de 713f 2853 5f3f 5c47 8c3f
00000010: f522 7b3f 45c0 733f b314 6b3f 3286 823f
00000020: 8e57 803f 0bd3 583f 46bb 853f 53d2 6a3f
00000030: 7df4 7f3f 5d00 703f 92ef 773f 0985 893f
00000040: 3168 5b3f 7ee8 6a3f 6837 733f 9a54 7b3f
00000050: 90a0 793f 4ab9 923f f60b 693f 1907 6e3f
00000060: 4847 763f cd2b 533f 95b5 753f 1920 793f
00000070: 55eb 693f 3cf7 5d3f 9d6a 6b3f 3349 7e3f
00000080: 2ced 623f 8929 753f e269 673f 0304 6b3f
00000090: 79c2 853f 32af 7e3f 64f5 803f a205 683f
000000a0: 8729 5f3f 1155 693f 0f0d 973f 6865 7b3f
000000b0: 7bbc 823f bcb3 683f b404 893f 247c 743f
000000c0: 8964 863f 6e37 653f c64b 603f 0dcd 773f
000000d0: 2391 5d3f f69f 8c3f da87 863f 3d1c 843f
000000e0: ebef 6b3f 4311 8a3f 4fd6 523f bc4b 7b3f
000000f0: 0a17 603f 80fa 7e3f 5699 823f c927 603f
0.8240602 0.9447977 0.8723626 1.0959277 0.98100215 0.95215255 0.9182846 1.0197203
1.002672 0.84697026 1.0447776 0.9172718 0.99982435 0.93750554 0.9684993 1.0743724
0.8570586 0.91761005 0.9500642 0.98175967 0.97510624 1.1462796 0.91033876 0.9297958
0.96202517 0.8248871 0.959802 0.973146 0.91374713 0.86705375 0.91959554 0.99330443
0.88643146 0.957665 0.9039594 0.91802996 1.0449973 0.99486077 1.0074887 0.90633595
0.8717274 0.91145426 1.180086 0.9820161 1.021377 0.9089925 1.070456 0.95501924
1.0499431 0.89537704 0.8761562 0.9679726 0.86549586 1.0986316 1.0510209 1.0321118
0.9216296 1.0786518 0.8235826 0.98162436 0.87535155 0.9960098 1.0203044 0.8756071

backbone.6.bias f4 [64]
00000000: ebb3 923c 533e 0b3e 5cb8 b4be c9a5 7b3d
00000010: 2cb7 7c3e b854 a83d 008c 443e eb32 de3c
00000020: 7819 51be 8bc6 3d3e f880 953c f6f8 5bbd
00000030: ac30 a53d 308d 03be 37f2 633d 8f2a 983d
00000040: a84c 863e a43f ba3e 4d7b a63d 6a35 e23c
00000050: b8a8 6b3d b28f 943e dc3b 08be 71c8 583e
00000060: 4e71 d53b 206c 793e 4f41 2b3e 1ddb 62be
00000070: ccbd 743e ce27 2d3e 8920 803e f6ca 4d3c
00000080: df24 583d 28da 0e3e f6ea 3c3e 463b bf3d
00000090: 5a23 f1bd 4bc7 af3d 5733 383e 58cf a83e
000000a0: c0a4 3d3e 9250 5a3d 5d2c 033e 8182 78bd
000000b0: 6755 d73d 5327 993d 80c7 903d 4454 123e
000000c0: 92ad e83d 98fb 703e fba6 413e dabb 113e
000000d0: 72bd a83d 2a73 43bd a006 673d 7125 f6bc
000000e0: afce cfbc 6585 8d3d a2ee af3e c7b7 2d3d
000000f0: ebdd cb3e 139d 34bd 92ba 803d 64f1 5bbd
0.017908057 0.13597994 -0.35296905 0.061437402 0.2467925 0.08219284 0.19194031 0.027123889
-0.20419872 0.1853277 0.018249974 -0.053704225 0.08065924 -0.12846828 0.055650916 0.074299924
0.2623036 0.3637668 0.081289865 0.02761336 0.05753395 0.2901588 -0.13304085 0.21170212
0.006513751 0.24357653 0.16724132 -0.22153898 0.23900527 0.16909716 0.25024822 0.012560597
0.052769538 0.13950408 0.18449005 0.093374774 -0.11774321 0.08582934 0.17988335 0.3297069
0.18519878 0.053299494 0.12809892 -0.060671333 0.10514336 0.074782036 0.070693016 0.14289957
0.11361231 0.23533475 0.18911354 0.14231816 0.08239259 -0.04771725 0.056402802 -0.03004715
-0.02536711 0.069102086 0.3436175 0.04241159 0.39817747 -0.04409511 0.062855855 -0.053697005

backbone.6.running_mean f4 [64]
00000000: 07c2 4f3e 3933 9f3d 97e3 b43d 7163 6b3d
00000010: 51f8 5b3d 23b9 423d e99d 0b3d 9780 9d3d
00000020: 4f65 0d3e 99f8 313e 4ef4 f73c 11e4 d53d
00000030: 0619 cb3d 7904 fc3d 3839 f13d bf6d 423e
00000040: 5293 f53d 0f54 003e 3660 9a3d 0f9a 123e
00000050: 2ddd ec3d bcbd 643d 2752 1c3e 98bb 873d
00000060: ee13 b53d 7ce5 4b3e f188 813d 4f1e 433e
00000070: 9505 243d 0b20 173e 491a c43d 04f5 f13d
00000080: b242 bf3d 98e8 923d 8201 643e 5687 403c
00000090: 06a2 503d e523 7d3d 6651 823d a614 973d
000000a0: 24e2 a73d 9d09 893c 612d 2f3d ea33 973c
000000b0: ec1e 0c3e 0647 1d3d 6f6b 733e 783f 293e
000000c0: 05ab f93c 812f 183e ad15 1e3e 6319 fc3c
000000d0: 23da cc3c 20ba 1d3e 46d6 8a3d 8d69 1a3e
000000e0: 8c77 343e b809 b73c 69e1 2b3e 761d d93c
000000f0: cb27 513e 9b9a a63d f408 6f3d 4e07 4b3e
0.2028886 0.07773442 0.08832472 0.05746788 0.05370361 0.04753984 0.03408614 0.07690542
0.13808177 0.17379989 0.03026786 0.10443891 0.09916882 0.123055406 0.11778492 0.18987177
0.1199099 0.12532066 0.07537882 0.14316581 0.115656234 0.055845007 0.15265714 0.066275775
0.08841692 0.1991176 0.063249476 0.1905453 0.040044386 0.14758317 0.09575326 0.11814311
0.09338893 0.0717327 0.222662 0.011751017 0.050935768 0.06180181 0.06363182 0.07376985
0.0819743 0.016728217 0.042767886 0.018457372 0.13683671 0.03839781 0.23771451 0.16528118
0.030477056 0.14861871 0.15437956 0.030773824 0.02500636 0.15403032 0.06779151 0.15079327
0.17623729 0.022343501 0.16785206 0.026503306 0.20425336 0.081349574 0.058358148 0.19827005

backbone.6.running_var f4 [64]
00000000: d414 833d 69d3 a63c b6b1 103e d99b 913c
00000010: a5e7 c93c 3bcd b93c 1ba1 233c 6a85 b93d
00000020: f75c 173e 36bb 533d 9094 433c 83fb db3c
00000030: 07d8 9a3d b5b1 2d3d 8291 cd3c af99 ad3d
00000040: 1be9 b83c 76fe 1e3d 5905 c83c e5bf 163d
00000050: d993 c13d 371b e23c fd50 8c3d cdc7 233d
00000060: 18d3 863d cdac 8a3d e08c fb3c 4182 c93e
00000070: 6df6 9a3c 6b8a 9b3d b267 163d 6563 b43d
00000080: 5712 e73d 6d33 b63c 8c38 4f3d 9cdd a53b
00000090: 1b5e e03c e6e0 893e bead b63c c562 793c
000000a0: 1705 b63c cfef 083d 8a26 eb3d d8cd 1d3b
000000b0: 1ea9 c63e 5b36 623d 59cf 163d c57b c53d
000000c0: 4e30 bf3b 942c 363d 9f59 7d3d bed0 533c
000000d0: 9a14 f23b 64e7 3d3e 4305 1e3d 72fc 053e
000000e0: a87e 633e e9cd 843c 591b 193d 96fc ac3b
000000f0: b32e 963d f27c 803d 0436 e33c aa0a 6f3d
0.06400457 0.02036448 0.14130291 0.01777451 0.02464659 0.02268087 0.009987141 0.0905865
0.14781557 0.05169221 0.0119372755 0.026853329 0.07560735 0.042405803 0.025093798 0.084765784
0.02257209 0.03881689 0.024416612 0.0368041 0.09452028 0.027600868 0.06851385 0.039985467
0.06583232 0.067712404 0.030706823 0.39357188 0.018916333 0.075947605 0.036719985 0.088080205
0.11282795 0.022241319 0.050591037 0.0050618183 0.027388623 0.26929396 0.022299644 0.015221302
0.022219224 0.033431824 0.1148196 0.0024078991 0.388009 0.05522762 0.036818836 0.09642748
0.005834616 0.044476107 0.061853047 0.012928186 0.00738771 0.185453 0.038579237 0.13084581
0.22216284 0.016211467 0.037379596 0.005279134 0.07333126 0.062738314 0.027735718 0.05835978

backbone.8.weight f4 [32, 64]
00000000: 4626 2ebd 36e9 52bd e829 40be 3578 0cbd
00000010: 7a6f 133e 898e 4cbd 0733 88bd 51d4 a6bd
00000020: d309 5dbe 4477 a7bd 2031 973d 0df8 023e
00000030: c0e8 16be 78ce 3abb 78ef f13d cea6 b73c
00000040: f3a3 cbbd b210 cdbd 0e2b 113e 1519 053e
00000050: 4860 9abb a25b 47be e5d4 26be 3474 4cbd
00000060: b6f1 07be de39 dfbc 52fa a3be 545a 1cbe
00000070: c565 0c3e 2419 093b e46e 1fbd ecd6 7ebe
00000080: 2260 b2bd 83a6 02be 0e16 893c 3b17 04be
00000090: 8ba9 06be fc4e 75be c663 0a3e 69df 66be
000000a0: b7f0 893d c475 16be 973e c93d cb23 9c3d
000000b0: deee 13bd 08d6 00be c82e e2bb 477a 3d3c
000000c0: 8254 edbc 6249 a13d b2bf 9c3b 74e0 cb3d
000000d0: 45fd 303e b90b c4bc 92c7 18be bd42 ab3d
000000e0: a9bc dcbd b36d a93d 13da 863d 6c38 0f3d
000000f0: 80bc 60bd e9c3 3c3e 0343 84be cbfb adbd
00000100: 6e1a 03be ed01 14bd f4fc 57be 4aff 0a3e
00000110: a6f4 8ebd ebf9 d3bd a925 6b3d 1031 493e
00000120: 8007 943d 3d07 ddbc 647a 92bc 0ece 683d
00000130: 923a 11be a24a 87be eb42 0c3e ebaf 79be
00000140: 9f31 aebc 5cce 19be 9dbc 16bc 8491 293e
00000150: b7cf 2cbe d149 0d3e 3e89 c4be 0176 93bc
00000160: 4973 53be c619 6b3e 4e02 8dbc 163c 1f3d
00000170: dcae 54be c641 21be 0ac9 8ebd aeac d4bc
00000180: 7fa0 0dbd d9bb 53be 3a7c 563e a740 5dbd
00000190: 6666 3dbe 890d 453d 1233 b0bd ff4b 533d
000001a0: 5214 2fbd 07e5 cc3c 129d 853e 003f 0e3e
000001b0: 2b02 53be 047e e7bc 5baf 843e c614 203e
000001c0: f8bd 9ebd a092 7fbd bc2b adbd 7cbd 953d
000001d0: e771 4dbc b910 4abe 7c07 113e 993a a5be
000001e0: ed5e 8ebe 7d38 f3bd a699 a63d 34b1 873d
000001f0: 8271 b43d f0b3 4e3c b7aa 023e cbbe ab3d
00000200: 337f a33d 364b bfbd 494e 103e 2436 60be
00000210: 568d 4ebd 5a85 9d3d 23b5 8abd 37c3 b03d
00000220: f90a 093e 8679 373e 35ea c3bc 44a3 363c
00000230: 58f7 3c3e 2ccb f93d c61c 80be 2743 3cbd
00000240: cc99 efbc 9c33 e53d e232 713e 4299 43be
00000250: 29dc ab3d 8d1c d83d 36c4 30bc 96f8 3f3d
00000260: 80a0 683e adf3 34bd 2268 813d 2f26 8b3c
00000270: 632f 063d 8867 3f3e 0ddc 783d 0117 8bbc
00000280: 8be2 8f3d e66c b43d c8b0 61bd eb1f 98bd
00000290: 8888 8ebe 051c 383e 101d 753d c934 813d
000002a0: b450 633d 1253 04be 1b94 91bc 0f24 c9bd
000002b0: fcef 9dbe 1022 bfbe 6aaa a3be 3d14 86be
000002c0: 68ff df3d 66fe 2cbd 300e f33d d70c 853d
000002d0: a2f8 a9be c551 21bd 8cc5 cd3c 9674 60bc
000002e0: 875f f1bc c0a1 523b 16dc a23d daf3 7a3c
000002f0: 7ee9 6dbc e69e 75be cb47 6b3d c175 d43d
00000300: 4171 1fbd 3a72 81bc ff33 65bd 84be 37be
00000310: 672b 323d c102 8ebd a5c6 623e b067 f0bd
00000320: 9457 47be 3742 273e 623a 833d 3f86 39bc
00000330: 3f72 013e c840 a33e 7d22 f63d 8bf3 6bbd
00000340: b732 b1bd 24ff 543c 8c1c 0e3d cf51 94be
00000350: a71a f63d df5a c6bd 8900 273e 2a91 243c
00000360: 0d72 eabd 809a d5be e9e5 b13d be15 58be
00000370: 5360 d63d 0b0f 7e3d 336d 153e fc6b c2bd
00000380: 1496 083d c47b 9b3e e7f0 87be 5a58 913c
00000390: a165 9e3d 0628 51bd 9c4e 8e3d 5bfd 15be
000003a0: f021 793b f52a 823d 4d3e 2c3d 1842 18be
000003b0: f153 f73d 146d de3c 20db b73d c44e aabe
000003c0: 3ba5 1fbe 7344 703d 5499 cfbc c047 3d3d
000003d0: 866a 1ebd bb8b e5bc 4aaa 8fbb 0e49 87bc
000003e0: 1d86 983d 700a 923d d904 27be 6fd9 4dbd
000003f0: 9c6e 80be 43fb 0ebe 7e9e 01be 83b3 74bd
-0.04251697 -0.05149194 -0.18765986 -0.034294326 0.14397994 -0.04994062 -0.06650358 -0.08145965
-0.21585779 -0.08177045 0.07382417 0.12789936 -0.14737225 -0.0028504413 0.11813253 0.022418406
-0.0994338 -0.1001295 0.1417658 0.1299785 -0.0047111847 -0.19468549 -0.1629215 -0.049915507
-0.13275799 -0.027249273 -0.32026917 -0.15268832 0.13710697 0.0020919526 -0.038924113 -0.24886674
-0.08709742 -0.12758832 0.01673415 -0.12899487 -0.13150613 -0.23955911 0.13514623 -0.22546162
0.06735366 -0.14693362 0.09826391 0.076240145 -0.036116473 -0.12581646 -0.0069025494 0.011564798
-0.02897096 0.07875325 0.004783594 0.099549204 0.17284115 -0.023931371 -0.1491988 0.08362339
-0.107781716 0.082728766 0.06584563 0.034965917 -0.054867268 0.18434109 -0.25832376 -0.08495291
-0.12803051 -0.03613465 -0.21092588 0.13573948 -0.06980257 -0.103504024 0.057408962 0.19647622
0.07227993 -0.02698099 -0.017880626 0.056837134 -0.14182499 -0.26424128 0.13697402 -0.24383514
-0.021263896 -0.15020126 -0.009200242 0.16559416 -0.16876112 0.1379769 -0.38385957 -0.018000605
-0.20649447 0.2295905 -0.017213013 0.03887566 -0.20769829 -0.15747747 -0.06971939 -0.025961246
-0.03457689 -0.20677127 0.20945826 -0.054016735 -0.18496093 0.04810861 -0.08603491 0.051586147
-0.04274399 0.025011552 0.26096398 0.1389122 -0.20606296 -0.028258331 0.25915036 0.15632924
-0.077510774 -0.062395692 -0.08455607 0.07311532 -0.0125393635 -0.19732942 0.14163011 -0.3227127
-0.27806798 -0.11876009 0.08134775 0.06625596 0.088107124 0.012616143 0.12760435 0.08386
0.07983246 -0.09340517 0.14092363 -0.21895653 -0.050427757 0.076914504 -0.0677283 0.08630984
0.13383092 0.17917451 -0.02391539 0.011147324 0.18453729 0.12196955 -0.25021952 -0.04596248
-0.02924814 0.11191484 0.23554567 -0.19101432 0.083916016 0.10552321 -0.010788968 0.04686793
0.22717476 -0.0441777 0.0631869 0.01698598 0.032760035 0.18691838 0.06075673 -0.016978743
0.070256315 0.08809833 -0.055100232 -0.07427963 -0.2783854 0.17979439 0.05984217 0.06308896
0.055496886 -0.12922314 -0.017770818 -0.09821331 -0.30847156 -0.37330675 -0.31965953 -0.26187316
0.10937387 -0.0422348 0.118679404 0.0649659 -0.33197504 -0.039384622 0.025118612 -0.013699671
-0.029464496 0.0032139868 0.07952134 0.015316928 -0.014521001 -0.23986396 0.057441514 0.10374022
-0.038926367 -0.015801538 -0.05595779 -0.1794377 0.043498423 -0.06934119 0.2214609 -0.11738527
-0.19467002 0.16333853 0.0640762 -0.011323511 0.12641238 0.31885362 0.12018297 -0.057605308
-0.08652251 0.013000283 0.034695193 -0.28968665 0.12016802 -0.09685301 0.16308798 0.010044375
-0.11447535 -0.41719437 0.0868643 -0.21102044 0.10467591 0.062026065 0.14592437 -0.09493253
0.03334625 0.30367863 -0.2655098 0.017742325 0.07734228 -0.05106356 0.06948587 -0.14647429
0.0038014613 0.0635585 0.042051602 -0.14868963 0.120765574 0.027151622 0.08977342 -0.33263218
-0.15590374 0.05865903 -0.025341667 0.046211004 -0.038675807 -0.02802073 -0.0043843137 -0.016514327
0.07447455 0.07130897 -0.16310443 -0.05025619 -0.25084388 -0.13963036 -0.12658116 -0.05974151

backbone.8.bias f4 [32]
00000000: 18e2 ac3e a285 413e 35af 59be e919 323d
00000010: f86a 16be 3b96 a23e a4f8 ccbd d323 d13d
00000020: 5b18 023e af58 813d 4dd6 0f3e b69b 5c3e
00000030: 6d69 2f3e fa29 cc3d 927a 8c3e 39f7 0bbe
00000040: 1044 6c3e 8bdf c73e adac ac3d 2149 3fbe
00000050: 4032 3f3e 0c12 a43d d97b 8a3c ea57 fc3d
00000060: 21d8 d6bd e32e 2d3d fd90 9e3d 22ee ce3e
00000070: 6358 54bd fb2d 513e a406 f8bd e5c1 c83d
0.33766246 0.18898633 -0.21258242 0.04348174 -0.14689243 0.31755242 -0.10008362 0.10211911
0.12704603 0.06315743 0.14046593 0.21543774 0.1713006 0.09968944 0.27437264 -0.13668527
0.23072839 0.39037737 0.08431373 -0.1868024 0.18671513 0.08011255 0.016904758 0.12321456
-0.10490442 0.042281043 0.07742498 0.40416056 -0.051842105 0.20427696 -0.121106416 0.098026074

head.weight f4 [3, 32]
00000000: 5d38 873e e25c 09bd 100c c0be d7a9 8cbe
00000010: f36d dc3e 0bc1 eb3e 96ac 99be 2096 b2bd
00000020: 3367 e73e 2d33 a03e 8c87 933e 11da 593e
00000030: 2ec2 86bd 1132 adbd 0ba7 6d3e bba6 2bbf
00000040: ec69 8d3e 034e 573e 5cc4 23bf c23c b93e
00000050: bac6 103c 2dd6 9fbe ab81 773e 658b e9be
00000060: 540d 103f 0cc7 20bf 2b1f af3e 9f9a 033e
00000070: 3e43 0abe 7b8e 833e a1ea 00bf 28b6 033d
00000080: ad06 8abd 6165 913e 9423 f23e 71f8 7d3e
00000090: e33e 33be 553b f7bd 567a a43e a64a c43e
000000a0: 661d d0bd 37dc 9bbe 7aee bd3b 7515 223e
000000b0: 4055 cd3e b906 2f3e 44da 2f3d c341 04bd
000000c0: ad5b 77be 0141 4e3d 296b 2abe cfdc c1be
000000d0: d527 933e 4527 c73e e064 e7be 7552 b43e
000000e0: d4c9 f0be 55a1 1d3e 7e5e bcbc 5176 363e
000000f0: d35e e03e 67a4 3f3d c660 ce3e a656 983e
00000100: 4de5 adbe 263c b7be 1116 c8bd f478 afbe
00000110: 6538 92be 8584 a8be 7974 d53d 7f2e f9be
00000120: eb5a 15be 838d f8be 22c0 f3be 09b7 54be
00000130: bb4f 6fbe 8a98 fbbe 9434 09bf c590 ae3e
00000140: 9c6c c0be 46a8 0cbf 3024 b23e 2b92 e33d
00000150: 85c9 ddbe f889 40be eb72 5b3e 3a40 89bd
00000160: 782d 4a3d 8b78 8b3e ca9a 52be 2384 12bf
00000170: 0263 c5bb 63c7 97be 87e4 f3bd 4d33 e3be
0.2641019 -0.033535846 -0.37509203 -0.27473328 0.43052635 0.46045718 -0.30014485 -0.0872004
0.45195922 0.31289044 0.28814352 0.21274592 -0.065800056 -0.08456815 0.23208253 -0.67051286
0.27619874 0.21025853 -0.63971496 0.36179167 0.008836443 -0.3121809 0.24170558 -0.45614162
0.5627034 -0.6280372 0.34203467 0.12851952 -0.13502213 0.2569464 -0.50358015 0.03215614
-0.067395546 0.28397658 0.4729277 0.24801804 -0.17504458 -0.120718636 0.32124585 0.38338202
-0.10161857 -0.30441448 0.005796251 0.15828498 0.40104103 0.17092408 0.042932764 -0.032289278
-0.24156065 0.05035496 -0.16642441 -0.37863776 0.28741327 0.38897148 -0.4519415 0.3521916
-0.47028983 0.15393575 -0.022994276 0.17818572 0.43822345 0.046787646 0.40308207 0.29753608
-0.33964005 -0.35788077 -0.09769834 -0.34271967 -0.2855865 -0.32913604 0.10422606 -0.48668286
-0.14585464 -0.48545465 -0.47607523 -0.20772947 -0.23370259 -0.49139816 -0.5359585 0.34094825
-0.37582862 -0.54944265 0.34793234 0.11111864 -0.4331781 -0.18802631 0.21430556 -0.06701703
0.04935977 0.27240404 -0.2056686 -0.57232875 -0.0060237655 -0.29644307 -0.119088225 -0.44375077

head.bias f4 [3]
00000000: ad7a b6bd 016f 33bd 09ad 9abe
-0.08910117 -0.043807033 -0.3021014
