blocksnet/machine_learning/gnn_model/model/gnn_model.pth (torch, 44180 bytes, 10 tensors)

conv1.att_src f4 [1, 1, 64]
0.028975746 0.04592392 -0.1682995 0.2954234 -0.069570474 -0.02217725 -0.038762778 0.021462277
0.18970245 -0.20219462 0.0718466 -0.18581186 -0.21466503 0.14795338 -0.26494688 -0.2316025
-0.03161996 -0.22589904 -0.09782232 -0.13853045 -0.32710916 0.018575441 -0.0095137535 -0.18377429
-0.0022687486 0.21914706 -0.16484039 -0.024917487 -0.24695794 -0.23037073 -0.094999894 0.28854793
-0.0991581 -0.28556165 -0.080433056 -0.064352304 0.1290301 -0.110399455 0.20973997 -0.07212158
-0.20572554 0.10900719 0.03944463 -0.10860442 -0.28235623 0.26620236 -0.014553641 0.1805933
0.16317989 0.081517145 -0.15793207 -0.24714722 0.27331996 -0.13392964 -0.2277057 0.26924366
-0.042563684 0.15838823 0.25617224 0.06864861 -0.07553517 0.02719646 -0.23927107 0.09025655
00000000: 8b5e ed3c b81a 3c3d b456 2cbe bc41 973e
00000010: f77a 8ebd 10ad b5bc b8c5 1ebd a8d1 af3c
00000020: 5c41 423e 1b0c 4fbe 4f24 933d 7745 3ebe
00000030: 26d1 5bbe 1781 173e 1ea7 87be 3529 6dbe
00000040: ee83 01bd 1452 67be 1257 c8bd edda 0dbe
00000050: da7a a7be 862b 983c 93df 1bbc 542f 3cbe
00000060: 49af 14bb 1668 603e ebcb 28be c21f ccbc
00000070: 8be2 7cbe 4ee6 6bbe 4e8f c2bd 8ebc 933e
00000080: 6713 cbbd 2335 92be 16ba a4bd 24cb 83bd
00000090: 7720 043e 1c19 e2bd 13c6 563e 7bb4 93bd
000000a0: b7a9 52be 293f df3d b190 213d ff6b debd
000000b0: ff90 90be ad4b 883e 6572 6ebc 73ed 383e
000000c0: a118 273e 76f2 a63d f2b8 21be 2914 7dbe
000000d0: 98f0 8b3e da24 09be af2b 69be 4eda 893e
000000e0: 4257 2ebd 8630 223e 0229 833e a497 8c3d
000000f0: 2fb2 9abd 1ccb de3c 7a03 75be 6dd8 b83d

conv1.att_dst f4 [1, 1, 64]
0.34413478 -0.2767564 -0.094637945 0.37279686 -0.2143449 0.049686193 -0.024530817 0.4866444
0.026975064 0.14328212 -0.23989843 -0.6268199 -0.3258814 -0.31809837 0.04176707 -0.21956865
-0.026867263 0.23317003 -0.5655375 -0.09867281 0.08307214 0.48697314 0.17593504 0.09627386
0.14108314 0.29534277 0.20706432 -0.4011729 -0.21283516 -0.16287705 -0.3099847 0.5336377
0.16877614 -0.5691539 -0.3552823 0.4590361 -0.058357764 0.24776332 -0.07328382 -0.025390731
-0.43850598 -0.3289814 -0.5252665 0.31380928 -0.36967355 -0.10229217 -0.20392558 0.34443417
0.3055447 -0.20153794 -0.2118494 -0.06650187 -0.18324871 0.07503231 -0.24240267 -0.2743529
0.18618023 -0.071594566 0.29786375 -0.09776264 -0.4549779 0.3022588 -0.045613624 0.21480699
00000000: 6f32 b03e 04b3 8dbe 8ad1 c1bd 3bdf be3e
00000010: 3b7d 5bbe c083 4b3d daf4 c8bc 7429 f93e
00000020: cffa dc3c 8cb8 123e efa7 75be 4577 20bf
00000030: edd9 a6be cadd a2be f213 2b3d 9bd6 60be
00000040: bc18 dcbc 20c4 6e3e 11c7 10bf f814 cabd
00000050: ba21 aa3d 8b54 f93e 5128 343e 3b2b c53d
00000060: 1978 103e 2b37 973e ab08 543e 8966 cdbe
00000070: 76f1 59be 3ec9 26be 51b6 9ebe 7b9c 083f
00000080: a7d3 2c3e 12b4 11bf 90e7 b5be c806 eb3e
00000090: 8d08 6fbd abb5 7d3e d415 96bd 3900 d0bc
000000a0: db83 e0be 4070 a8be de77 06bf 9cab a03e
000000b0: da45 bdbe 8f7e d1bd ded1 50be ad59 b03e
000000c0: 5b70 9c3e f65f 4ebe 0def 58be 2232 88bd
000000d0: 8da5 3bbe 8aaa 993d 6838 78be fc77 8cbe
000000e0: 08a6 3e3e 2ca0 92bd 9981 983e c737 c8bd
000000f0: ddf2 e8be aac1 9a3e 5ad5 3abd 5df6 5b3e

conv1.bias f4 [64]
0.15861101 0.008119807 -0.027248675 -0.0011082535 -0.04070282 -0.061735105 -0.012282361 0.0018888112
-0.057144247 0.07605206 -0.023705091 -0.17924699 0.19771 0.057535563 -0.002688589 0.00783543
-0.025270497 -0.013682332 0.38547045 -0.03649977 0.071238846 -0.04041816 -0.0317022 -0.032674797
-0.072680816 0.046069115 -0.01155814 -0.0005010144 0.09068927 0.004280283 -0.10342495 -0.03383736
-0.010637432 -0.14468037 -0.033383146 -0.05345814 -0.028483698 -0.035669614 0.21971096 -0.04704693
0.0033791633 -0.08782302 0.06173017 -0.0042159595 0.24208422 -0.12029805 -0.0776076 0.027369713
-0.006392831 -0.03557951 0.028288132 -0.007518701 0.04552995 -0.0059282244 0.018686425 -0.026399814
0.004334357 0.035225265 0.023197861 -0.041836735 -0.25941935 -0.009349817 0.1009458 -0.10948861
00000000: ed6a 223e f008 053c 9d38 dfbc d142 91ba
00000010: 00b8 26bd f3dd 7cbd f53b 49bc fd91 f73a
00000020: 1610 6abd 2fc1 9b3d 2e31 c2bc 868c 37be
00000030: 7e74 4a3e 69aa 6b3d 0a33 30bb 2d60 003c
00000040: 1304 cfbc dc2b 60bc 625c c53e c880 15bd
00000050: ace5 913d 838d 25bd 2bda 01bd 02d6 05bd
00000060: aed9 94bd f8b2 3c3d 5a5e 3dbc 8256 03ba
00000070: 4cbb b93d 9e41 8c3b 76d0 d3bd 0b99 0abd
00000080: a048 2ebc 1727 14be c4bc 08bd ecf6 5abd
00000090: a556 e9bc 4d1a 12bd e9fb 603e 48b4 40bd
000000a0: f474 5d3b 8edc b3bd c6d8 7c3d 0826 8abb
000000b0: ede4 773e d35e f6bd bcf0 9ebd 7336 e03c
000000c0: f47a d1bb d2bb 11bd 83bc e73c 6f5f f6bb
000000d0: 9d7d 3a3d 8d41 c2bb 4614 993c 6c44 d8bc
000000e0: 3907 8e3b 5e48 103d 7109 be3c ff5c 2bbd
000000f0: 9dd2 84be fa2f 19bc acbc ce3d 903b e0bd

conv1.lin.weight f4 [64, 44]
-0.20556173 0.14413919 -0.18464985 0.06393282 -0.1388977 -0.180404 -0.055074453 0.2618796
0.2618409 -0.27108338 0.13288535 -0.1383817 -0.23978622 -0.34502935 0.052910298 -0.23881476
-0.2237727 -0.02222247 0.09941464 -0.028036 -0.17029808 -0.057477683 -0.15207313 0.10549869
0.15247083 0.05131872 0.051938873 -0.19425434 -0.008583238 -0.22348116 0.19944416 -0.14344801
0.066392146 0.13651554 0.20302698 -0.047120888 0.03182685 0.06828737 -0.09910853 0.041953675
0.11301187 0.13538922 -0.12351015 -0.035106372 -0.20870633 0.17396703 0.08035718 -0.14682116
-0.13350625 0.03974224 0.067414425 0.19204094 0.21721362 0.10931956 0.17020893 -0.008748527
0.022966001 0.26313666 0.011383826 0.2646686 -0.10788746 -0.049952194 0.074223585 -0.04264851
-0.038428 -0.10014125 -0.19707681 -0.0868784 -0.04983115 0.2292152 0.2611247 -0.0031138968
-0.1371756 0.1820743 -0.1128478 -0.02971004 -0.05221376 -0.12070641 0.105058596 -0.028164903
0.06845455 -0.088268384 -0.21361879 0.08839024 0.044788968 -0.03138821 -0.047891624 0.19684364
0.029844362 -0.074765846 -0.2539317 0.119790286 -0.18666239 0.3232838 -0.013244635 -0.073057264
-0.18322726 0.2463669 0.17168726 -0.011124748 -0.07233619 0.2388401 0.03970528 0.06579473
-0.058376938 -0.074920595 0.047976714 -0.0344886 0.27973443 -0.13360599 0.06996419 0.031425193
-0.005904544 0.05126274 -0.1719551 -0.009930673 0.27204576 -0.06626402 0.08168279 0.12767477
0.16776547 -0.04654128 -0.13101399 0.071703956 -0.22637099 -0.11852206 0.2133684 -0.15363306
0.04660233 -0.19578995 0.0030104683 -0.07490025 -0.15968597 -0.037577786 -0.09332088 -0.21752977
0.06257882 -0.16802531 0.042454332 0.09429915 -0.123831004 -0.1944622 0.009688744 0.17687367
0.1947196 -0.26757202 -0.220317 0.080424376 0.21205705 -0.071949586 0.07540222 0.1390282
0.2242433 -0.20578538 -0.19509575 -0.10567034 0.16287881 0.043274783 -0.23442605 -0.25815284
-0.072150685 -0.17483439 0.026497826 0.20357978 0.3199053 0.12116931 0.041926056 -0.350354
0.09239136 -0.009026123 -0.12571134 -0.14462377 0.17890458 -0.08006199 0.41607955 0.025479846
-0.058094375 0.050517004 0.21800943 -0.010148736 -0.1375085 0.17526305 0.14419706 -0.05315761
-0.0323158 0.011524916 -0.06594156 0.017948933 -0.095276035 -0.0034442402 -0.06984674 -0.17186643
0.004713446 -0.018903868 0.23205432 0.05235362 -0.109207734 -0.12472705 0.12964047 0.03555407
0.23512132 -0.08916306 -0.49125996 0.1736748 0.10876482 0.12443488 0.07924224 -0.3979516
0.14222741 -0.07763321 -0.062301625 0.0008171403 0.05656787 0.023414936 -0.21821527 -0.1109041
-0.018656265 -0.08123041 -0.031691488 0.022665532 0.048536696 -0.17803475 -0.054725062 0.015609001
-0.09469029 -0.16044348 -0.0731885 -0.21864729 -0.015498335 0.32525232 0.110783815 -0.17722474
-0.18768398 0.033989467 0.040457632 -0.10807038 0.09336375 0.0062733362 0.03686201 0.23100354
-0.062567376 -0.10975954 -0.033010513 -0.24342778 -0.23474838 -0.20048365 -0.14499019 0.16026413
0.19731195 -0.13717611 -0.023215953 -0.21279503 0.008569983 -0.21671823 0.11136921 0.0055853846
00000000: c67e 52be 3999 133e da14 3dbe 36ef 823d
00000010: 333b 0ebe d4bb 38be c095 61bd 1515 863e
00000020: 0310 863e 71cb 8abe 1913 083e efb3 0dbe
00000030: 858a 75be b0a7 b0be 78b8 583d db8b 74be
00000040: ac24 65be e60b b6bc e799 cb3d c1ab e5bc
00000050: 9f62 2ebe b86d 6bbd 0fb9 1bbe b20f d83d
00000060: 5021 1c3e 9433 523d dbbd 543d 9cea 46be
00000070: b6a0 0cbc 3fd8 64be 173b 4c3e 09e4 12be
00000080: 9bf8 873d bbca 0b3e 4ee6 4f3e d501 41bd
00000090: df5c 023d 40da 8b3d 6af9 cabd 9ed7 2b3d
000000a0: c472 e73d 79a3 0a3e e4f2 fcbd b3cb 0fbd
000000b0: 1db7 55be 6a24 323e 4e92 a43d 4958 16be
000000c0: ddb5 08be c2c8 223d 9310 8a3d 61a6 443e
000000d0: 3f6d 5e3e efe2 df3d 404b 2e3e fb55 0fbc
000000e0: 3223 bc3c d9b9 863e 3a83 3a3c a582 873e
000000f0: 1af4 dcbd ac9a 4cbd 8902 983d 34b0 2ebd
00000100: ae66 1dbd db16 cdbd 81ce 49be 4ded b1bd
00000110: bf1b 4cbd 64b7 6a3e 23b2 853e 8512 4cbb
00000120: c377 0cbe af71 3a3e bf1c e7bd 7862 f3bc
00000130: 18de 55bd ec34 f7bd f628 d73d 15ba e6bc
00000140: e631 8c3d 0ec6 b4bd e2be 5abe f105 b53d
00000150: a374 373d ec90 00bd 022a 44bd 6191 493e
00000160: 2a7c f43c d61e 99bd 5603 82be 9c54 f53d
00000170: 6d24 3fbe 7485 a53e 0700 59bc 0c9f 95bd
00000180: ed9f 3bbe 9b47 7c3e c9ce 2f3e 9344 36bc
00000190: ff24 94bd 8092 743e 01a2 223d 63bf 863d
000001a0: a81c 6fbd f86f 99bd 3b83 443d eb43 0dbd
000001b0: 5a39 8f3e 02d0 08be 6349 8f3d b4b7 003d
000001c0: e87a c1bb e1f8 513d ff14 30be 43b4 22bc
000001d0: 9549 8b3e 6eb5 87bd 4e49 a73d 2dbd 023e
000001e0: b6ca 2b3e 12a2 3ebd 8828 06be 86d9 923d
000001f0: cccd 67be b2bb f2bd 3f7d 5a3e fc51 1dbe
00000200: 16e2 3e3d 297d 48be 474b 453b 4d65 99bd
00000210: b884 23be 2aeb 19bd 041f bfbd 20c0 5ebe
00000220: 5329 803d d40e 2cbe 98e4 2d3d ea1f c13d
00000230: 1c9b fdbd 1921 47be 8abd 1e3c 5f1e 353e
00000240: 9364 473e 33ff 88be c89a 61be 89b5 a43d
00000250: 7c25 593e 4e5a 93bd 7b6c 9a3d 695d 0e3e
00000260: 09a0 653e 67b9 52be 2ec7 47be b169 d8bd
00000270: b4c9 263e e640 313d 620d 70be 9c2c 84be
00000280: bdc3 93bd c907 33be f811 d93c 3877 503e
00000290: a1ca a33e 9d27 f83d a8ba 2b3d 9961 b3be
000002a0: ae37 bd3d 4ee2 13bc 79ba 00be 4118 14be
000002b0: c332 373e 8af7 a3bd 6108 d53e 1cbb d03c
000002c0: 5ef4 6dbd ebea 4e3d dd3d 5f3e e246 26bc
000002d0: 07cf 0cbe 2878 333e 65a8 133e cbbb 59bd
000002e0: 935d 04bd 00d3 3c3c 5e0c 87bd a409 933c
000002f0: 1520 c3bd c3b8 61bb cf0b 8fbd c1fd 2fbe
00000300: 4073 9a3b 49dc 9abc a69f 6d3e c070 563d
00000310: 4ea8 dfbd e570 ffbd 79c0 043e 25a1 113d
00000320: a5c3 703e 1f9b b6bd 6d86 fbbe cfd7 313e
00000330: 17c0 de3d b7d7 fe3d c149 a23d 50c0 cbbe
00000340: 10a4 113e 29fe 9ebd fd2f 7fbd 5b35 563a
00000350: b6b3 673d aed0 bf3c d373 5fbe b021 e3bd
00000360: 06d5 98bc 215c a6bd efce 01bd 11ad b93c
00000370: 6ace 463d be4e 36be 6327 60bd e5bc 7f3c
00000380: fcec c1bd 4c4b 24be dae3 95bd 13e5 5fbe
00000390: baec 7dbc 7987 a63e a0e2 e23d 677a 35be
000003a0: 3b30 40be 8a38 0b3d e7b6 253d 0154 ddbd
000003b0: 7e35 bf3d 8f90 cd3b 9efc 163d 318c 6c3e
000003c0: 5323 80bd 9cc9 e0bd 0836 07bd 2245 79be
000003d0: e161 70be 964b 4dbe 4f78 14be 481c 243e
000003e0: 250c 4a3e e577 0cbe 622f bebc f1e6 59be
000003f0: 1d69 0c3c 62eb 5dbe 8a15 e43d 9a05 b73b

conv2.att_src f4 [1, 1, 64]
-0.23044166 0.28966838 -0.20577338 -0.2953717 0.034572195 0.12419763 -0.22049609 -0.113807455
-0.1981004 -0.16018167 0.24324101 0.057648744 0.29151875 0.22349793 -0.11802812 0.009774327
-0.26334774 -0.07673277 0.3069975 -0.20965907 0.2828294 0.095183305 -0.3689309 0.19103631
0.07957822 -0.4077794 -0.002146644 0.07392488 0.3181135 0.0009951901 0.06805076 -0.035959534
0.083292805 -0.22262605 -0.15696862 0.3213676 -0.20825583 -0.2933586 -0.36889634 -0.24457957
0.23291661 -0.15628076 0.01646041 -0.15712692 -0.30642807 -0.023089334 0.28712934 0.15041217
-0.2965804 -0.14347574 0.062203515 0.1407476 0.06992068 0.04941939 -0.25770634 0.25057542
0.11799576 -0.08933316 -0.32010934 0.2585366 -0.38156116 0.16583784 0.105941 0.14688857
00000000: e6f8 6bbe 6a4f 943e 42b6 52be f63a 97be
00000010: 939b 0d3d 545b fe3d bac9 61be e213 e9bd
00000020: d5da 4abe aa06 24be 2c14 793e 1721 6c3d
00000030: f241 953e a4dc 643e bab8 f1bd 8024 203c
00000040: 84d5 86be 1226 9dbd c72e 9d3e deb0 56be
00000050: 04cf 903e 77ef c23d 83e4 bcbe 069f 433e
00000060: e8f9 a23d 76c8 d0be b6ae 0cbb ed65 973d
00000070: c6df a23e 0a71 823a 325e 8b3d 4e4a 13bd
00000080: 6b95 aa3d 15f8 63be 62bc 20be 4b8a a43e
00000090: 0441 55be 1933 96be fbdf bcbe 1173 7abe
000000a0: b181 6e3e 1008 20be fbd7 863c e1e5 20be
000000b0: 24e4 9cbe d825 bdbc 9e02 933e a605 1a3e
000000c0: 63d9 97be 4eeb 12be 1dc9 7e3d 2420 103e
000000d0: 9332 8f3d fc6b 4a3d 16f2 83be 6c4b 803e
000000e0: c3a7 f13d 4ef4 b6bd 5fe5 a3be e95e 843e
000000f0: fc5b c3be 65d1 293e 98f7 d83d f569 163e

conv2.att_dst f4 [1, 1, 64]
0.10063412 -0.055423524 0.028618947 -0.04232411 0.23173933 0.093312435 -0.08411905 -0.08780916
0.09954506 -0.16681574 -0.27701968 -0.1277888 0.1267486 -0.3316624 -0.29379928 -0.10358838
0.13070533 0.10269289 0.31490353 -0.2676828 -0.30625102 0.03317203 -0.24507497 -0.15075427
0.0066800388 -0.20492645 0.2770766 0.33348325 0.30735973 0.31464073 0.16589026 0.11823365
0.026433745 -0.03904839 -0.14154673 0.2647302 0.2957198 0.34209782 -0.17259943 -0.22026846
0.04635249 -0.08784028 -0.10040997 0.0046852757 -0.14729908 -0.21189532 0.1817452 -0.2195543
-0.22733364 -0.097395934 0.11247768 0.23269022 0.119029306 0.10749418 -0.06273823 -0.050990514
0.013547609 -0.17657045 0.108288676 0.23707068 -0.15882024 0.11460571 -0.08553355 0.10247401
00000000: 4319 ce3d c703 63bd 4872 ea3c 0c5c 2dbd
00000010: 134d 6d3e 971a bf3d 9c46 acbd 4ad5 b3bd
00000020: 48de cb3d bfd1 2abe 86d5 8dbe 11db 02be
00000030: 63ca 013e a7cf a9be dc6c 96be 2526 d4bd
00000040: 9ed7 053e a650 d23d 093b a13e b80d 89be
00000050: efcc 9cbe 65df 073d eff4 7abe 545f 1abe
00000060: 3ae4 da3b 3dd8 51be fcdc 8d3e 51be aa3e
00000070: 415e 9d3e 9718 a13e 23df 293e 7c24 f23d
00000080: 958b d83c 34f1 1fbd a0f1 10be b78a 873e
00000090: 9668 973e 7227 af3e e8bd 30be 0e8e 61be
000000a0: 1cdc 3d3d 9be5 b3bd bea3 cdbd f186 993b
000000b0: 92d5 16be 16fb 58be 6a1b 3a3e d8d2 60be
000000c0: 26ca 68be 8577 c7bd b35a e63d 5846 6e3e
000000d0: a3c5 f33d e925 dc3d e77c 80bd 6edb 50bd
000000e0: caf6 5d3c e2ce 34be 74c6 dd3d a8c2 723e
000000f0: c6a1 22be 66b6 ea3d 372c afbd e5dd d13d

conv2.bias f4 [64]
-0.08633492 0.012158516 -0.0075972867 0.0070527997 -0.04141963 0.02740668 0.11592629 -0.049587246
0.046621516 0.033594873 0.07528352 -0.06514454 0.07139928 0.13541044 -0.041556504 0.024379142
0.05692493 -0.047839332 0.0005243597 -0.061277263 0.02560836 -0.0124151185 -0.05062561 -0.04402106
0.050523553 0.07409809 0.06488889 -0.08035092 0.045346 -0.07570023 0.04406911 -0.03704483
0.015829345 0.0011927315 0.16009304 -0.058733232 -0.049919005 -0.05147312 0.10883147 0.024553644
0.06789911 0.073672645 0.05720589 0.15886404 -0.06073892 0.09200247 0.028433438 -0.11353208
-0.0241034 -0.042574782 0.08862343 0.073058106 0.15197255 -0.025350476 0.06880726 0.051612537
-0.10257275 0.028903436 0.08896856 0.052211918 0.10331713 0.07893644 0.01826881 -0.16606748
00000000: 5dd0 b0bd 8334 473c a9f2 f8bb 2c1b e73b
00000010: a1a7 29bd f983 e03c c36a ed3d ff1b 4bbd
00000020: 34f6 3e3d c79a 093d 3f2e 9a3d 806a 85bd
00000030: c939 923d 09a9 0a3e 2737 2abd c4b6 c73c
00000040: 1e2a 693d 2df3 43bd 2f75 093a defd 7abd
00000050: a0c8 d13c c868 4bbc cd5c 4fbd 6d4f 34bd
00000060: c9f1 4e3d bdc0 973d 77e4 843d 068f a4bd
00000070: babc 393d b908 9bbd d081 343d 52bc 17bd
00000080: 8bac 813c 6e55 9c3a 6eef 233e 4292 70bd
00000090: df77 4cbd 7ad5 52bd 09e3 de3d b924 c93c
000000a0: b00e 8b3d afe1 963d b950 6a3d 41ad 223e
000000b0: 60c9 78bd ca6b bc3d 3eed e83c 8283 e8bd
000000c0: 7e74 c5bc e562 2ebd 3380 b53d 7d9f 953d
000000d0: b19e 1b3e cdab cfbc d2ea 8c3d ab67 533d
000000e0: a911 d2bd e6c6 ec3c 2635 b63d 2adc 553d
000000f0: ee97 d33d 6ea9 a13d 79a8 953c 980d 2abe

conv2.lin.weight f4 [64, 64]
0.06759626 0.007797479 0.086134516 0.08673248 0.123796865 -0.06548299 0.11866547 -0.13797142
-0.108829424 -0.11610386 0.017753236 0.18857498 0.06671088 -0.11019506 0.0591799 -0.09295296
-0.10399657 -0.15019216 0.28439245 -0.17746718 0.10138604 -0.14884442 -0.1448671 -0.33784127
0.08190654 0.058757637 0.23376636 0.0792565 0.33692455 0.3773844 0.37463087 -0.25219512
0.03728593 0.06923547 0.12815985 -0.15998024 -0.14733282 0.11246447 0.19485559 -0.08539878
-0.09462924 0.0063051935 -0.050762795 -0.12646198 0.11077572 0.07436384 -0.01641254 -0.29499018
0.07997228 0.2644632 0.15634853 -0.020749785 -0.012777259 -0.15666284 -0.15050346 0.11748408
0.118643604 -0.075717196 0.016676107 -0.038921293 0.027606325 -0.12427248 0.20304692 0.11800335
-0.20116061 -0.08160534 -0.17014904 0.19012809 0.048927985 -0.1769618 -0.19231534 -0.14215833
-0.21405414 -0.109269716 0.13589643 -0.013501412 0.054951 0.024576066 0.08532682 -0.25716582
0.15982762 0.120930254 -0.17951266 0.15885533 0.076257944 0.12477601 -0.1364419 -0.23982365
0.17161013 -0.10391017 -0.14842977 -0.20486091 -0.17374839 -0.16397808 -0.17530416 -0.18754616
0.037947007 -0.006533945 0.02938787 -0.042987313 0.08438984 0.16190292 -0.07054868 -0.19984111
-0.20081148 -0.17436732 -0.21830103 0.15861832 -0.20047897 0.054759134 0.05802699 0.110490605
-0.13922228 0.13615108 -0.31502512 0.124954686 -0.1630187 -0.068681516 0.1394185 -0.039366163
0.14856614 0.03022541 0.015787782 0.17631954 -0.050137382 0.19330955 0.0012301609 -0.083545305
-0.079756185 0.12581535 0.38268855 -0.08410067 0.07041633 0.101281635 0.072271004 -0.14857683
0.1883706 -0.07169717 -0.04498943 -0.0010382776 0.09708561 0.14456736 0.16492309 0.15249808
0.15651555 -0.15365891 0.209494 0.17396043 0.0331113 0.03472779 -0.13115457 -0.19647819
-0.18099612 -0.099187516 -0.15819025 0.057573956 -0.049345385 0.038266387 0.12549849 0.11982562
0.089312896 0.189776 -0.11653079 0.079943895 0.1830531 0.0806936 -0.2748647 0.102642946
-0.12155432 -0.20171025 0.09290818 0.086689755 0.32743374 -0.12542504 0.0049511893 0.12368908
0.06462805 0.088730715 0.17037389 0.100065485 0.05206779 -0.009790599 0.028561708 -0.18470319
0.14747593 0.13667089 0.04408016 0.11141666 0.3939824 0.083980285 0.04572642 0.1668438
-0.0019119522 -0.23467876 0.04558705 0.05435885 0.07453322 0.097779475 0.17389351 0.17637235
0.22540157 0.067216694 -0.0450792 0.1641916 0.48451668 0.079604395 -0.13767727 0.19872262
-0.09379584 0.12781852 0.18509017 0.10067012 -0.09064903 -0.08598194 -0.0064522973 -0.042460352
-0.036644448 -0.037693843 0.18456735 -0.03682646 -0.109510414 -0.087013066 -0.02653414 0.20198925
-0.171676 0.0063085873 -0.15921745 0.3441842 -0.08073972 -0.11283792 0.19136314 -0.0029389786
0.21927643 -0.2065867 -0.033700705 -0.19563001 0.16343132 0.13287672 -0.09511219 -0.16858342
0.062892616 -0.09279738 -0.024787521 -0.070635684 -0.11438153 -0.058382872 0.19789656 0.0052297297
0.0852256 0.04022837 0.13863826 -0.19944087 0.13888213 0.060326315 0.21940537 0.17533407
00000000: e86f 8a3d ff81 ff3b 4b67 b03d cca0 b13d
00000010: 3689 fd3d f21b 86bd e206 f33d 6148 0dbe
00000020: f6e1 debd dcc7 edbd 3c6f 913c cd19 413e
00000030: b79f 883d f3ad e1bd 9f66 723d 1f5e bebd
00000040: 27fc d4bd f9cb 19be e39b 913e f5b9 35be
00000050: 7ca3 cf3d ac6a 18be 0b58 14be 88f9 acbe
00000060: 9ebe a73d d9ab 703d 7360 6f3e 3b51 a23d
00000070: 6081 ac3e 8738 c13e 9ecf bf3e b81f 81be
00000080: 22b9 183d 53cb 8d3d 563c 033e dcd1 23be
00000090: 6ade 16be c653 e63d 3988 473e 8ee5 aebd
000000a0: facc c1bd cc9b ce3b a6ec 4fbd 407f 01be
000000b0: 61de e23d 124c 983d 9773 86bc f408 97be
000000c0: 82c8 a33d b867 873e d419 203e 74fb a9bc
000000d0: b557 51bc 396c 20be 941d 1abe 7e9b f03d
000000e0: 6bfb f23d 9e11 9bbd 559c 883c ef6b 1fbd
000000f0: a926 e23c 9282 febd 88eb 4f3e beab f13d
00000100: 0cfd 4dbe b320 a7bd 8d3b 2ebe f0b0 423e
00000110: b668 483d 7935 35be 50ee 44be f491 11be
00000120: 0231 5bbe cdc8 dfbd 6f28 0b3e 0735 5dbc
00000130: 4d14 613d bf53 c93c d4bf ae3d 3dab 83be
00000140: daa9 233e 48aa f73d 2bd2 37be f9aa 223e
00000150: 202d 9c3d 918a ff3d 6db7 0bbe 5594 75be
00000160: 91ba 2f3e dbce d4bd f9fd 17be 0fc7 51be
00000170: 19eb 31be dfe9 27be ef82 33be 1a0c 40be
00000180: 526e 1b3d b41a d6bb d5be f03c 7713 30bd
00000190: 95d4 ac3d e1c9 253e d47b 90bd 26a3 4cbe
000001a0: 86a1 4dbe 598d 32be 4e8a 5fbe d76c 223e
000001b0: 5c4a 4dbe 1d4b 603d b6ad 6d3d e648 e23d
000001c0: 4990 0ebe 306b 0b3e f94a a1be 3ee8 ff3d
000001d0: 60ee 26be e5a8 8cbd b9c3 0e3e 6a3e 21bd
000001e0: b921 183e 479b f73c 6155 813c 1c8d 343e
000001f0: db5c 4dbd f0f2 453e 5a3d a13a cd19 abbd
00000200: 3657 a3bd bdd5 003e c1ef c33e f93c acbd
00000210: 7036 903d bf6c cf3d d202 943d 8624 18be
00000220: 39e4 403e f7d5 92bd d646 38bd d116 88ba
00000230: d2d4 c63d 7709 143e 99e1 283e 7528 1c3e
00000240: 9d45 203e c358 1dbe 9885 563e af22 323e
00000250: b79f 073d ba3e 0e3d 624d 06be 9431 49be
00000260: 0c57 39be d322 cbbd a0fc 21be abd2 6b3d
00000270: 631e 4abd 37bd 1c3d ad82 003e 2267 f53d
00000280: aee9 b63d a454 423e b2a7 eebd a0b9 a33d
00000290: 4672 3b3e b042 a53d 11bb 8cbe 7736 d23d
000002a0: 79f1 f8bd 228d 4ebe a546 be3d 668a b13d
000002b0: 65a5 a73e 6c6f 00be 963d a23b b350 fd3d
000002c0: b65b 843d 73b8 b53d 7e76 2e3e 22ef cc3d
000002d0: 0945 553d c068 20bc 3efa e93c d522 3dbe
000002e0: ee03 173e 74f3 0b3e 668d 343d 6b2e e43d
000002f0: 10b8 c93e dbfd ab3d a04b 3b3d 1ad9 2a3e
00000300: 789a faba a14f 70be 7db9 3a3d 63a7 5e3d
00000310: dfa4 983d 9b40 c83d 2411 323e f49a 343e
00000320: abcf 663e e8a8 893d f8a4 38bd d821 283e
00000330: 9212 f83e a107 a33d 45fb 0cbe f17d 4b3e
00000340: 0918 c0bd dce2 023e 4788 3d3e 232c ce3d
00000350: 33a6 b9bd 4d17 b0bd cb6d d3bb e8ea 2dbd
00000360: 7d18 16bd dc64 1abd 39ff 3c3e 58d7 16bd
00000370: ff46 e0bd e833 b2bd 205e d9bc 45d6 4e3e
00000380: d5cb 2fbe 44b8 ce3b e609 23be e938 b03e
00000390: de5a a5bd 9117 e7bd b3f4 433e e19b 40bb
000003a0: 008a 603e 778b 53be c009 0abd 3c53 48be
000003b0: 8a5a 273e d610 083e 2eca c2bd 22a1 2cbe
000003c0: d8cd 803d 8e0c bebd 330f cbbc 71a9 90bd
000003d0: dd40 eabd e122 6fbd 65a5 4a3e 275e ab3b
000003e0: c28a ae3d 81c6 243d 30f7 0d3e 3a3a 4cbe
000003f0: 1e37 0e3e ba18 773d cdab 603e c68a 333e

fc.weight f4 [43, 64]
0.123603836 -0.042762175 -0.06323213 -0.0014005373 -0.032481834 0.057364818 0.04413531 0.042337995
0.036617305 0.047768474 0.05335091 -0.10647419 -0.03696481 0.066868305 -0.097542934 0.08566241
0.126587 -0.0712769 0.09795647 -0.1878953 -0.08405801 0.0011655758 0.002694456 0.0050670397
0.014483995 0.09448767 0.10076009 0.008163347 0.10864828 -0.00056746934 0.05224556 0.016993904
-0.09842276 0.08851095 -0.08544201 0.028461512 -0.072473586 -0.025322601 0.12499871 0.08663682
-0.0694511 0.058343016 -0.08113803 -0.001026835 -0.1078392 0.021415928 0.060238596 -0.16813421
0.12313256 -0.056640007 0.048052017 -0.040155064 0.049159274 0.063287795 0.061821118 0.008031392
-0.048330955 -0.022920476 0.07675295 0.027914314 -0.15416734 0.14948288 0.13062486 -0.146977
0.05034505 -0.077984735 0.09926078 -0.14534298 0.10012442 -0.08832585 0.03674345 -0.092245094
-0.03056901 0.029564958 -0.014796435 0.06193252 -0.12765302 0.0917921 0.07613559 0.012580387
0.099727966 -0.12784241 0.114542626 -0.03231978 0.091383435 -0.03634267 0.049795363 -0.10628656
-0.058740277 -0.0046808 0.032759007 0.058126893 0.07901107 0.034463536 0.16991761 -0.03499259
0.0004219404 -0.079828516 0.014089366 0.045759838 -0.084662095 0.026943304 -0.062582284 0.078833036
0.043457057 -0.012678132 0.1046318 -0.10375675 0.08456151 0.05170033 -0.10053284 0.023681078
-0.09243158 -0.049780656 0.12612917 0.07544048 0.0997259 -0.040333293 0.10998058 0.124547355
-0.0797948 0.18519957 0.06022057 -0.084955856 0.017589407 -0.07162296 0.0059985653 -0.112748675
0.029996531 -0.0062714224 -0.055259857 0.034009244 0.08247724 -0.08856837 -0.09771976 -0.07779142
0.026084948 0.090792924 -0.031211441 -0.041635856 0.16796404 -0.089861795 0.0106872665 -0.03924881
-0.015422878 -0.15133253 -0.06427575 0.013718995 0.03919421 0.01870542 0.14246234 -0.022290887
0.0069045406 0.02748803 0.03862155 -0.04014433 0.1313885 -0.058287542 0.041509755 0.017949345
-0.055097945 -0.0021042202 0.07844533 0.02657663 -0.009598368 0.13345042 0.052182164 0.05836721
-0.03452918 0.02103049 0.0796804 0.016176138 0.0071949144 0.15577936 0.09292022 -0.12296183
-0.018015463 -0.09639829 -0.072427236 -0.05352757 0.121472776 -0.06392121 0.094752274 -0.10532225
0.012925117 0.1347695 -0.027770927 0.05154191 -0.041023094 0.07069635 -0.019854812 0.11173973
0.008213912 -0.06984867 0.14577374 0.06668642 0.0839069 -0.141475 0.01085645 0.041340657
0.09035036 0.03553823 0.03420863 -0.059118006 0.1262327 0.041863106 0.059496105 0.03866964
0.12639225 -0.04919056 0.11029982 -0.034330938 -0.097901285 -0.07499421 -0.009213757 0.09876359
0.046470996 -0.015885241 0.034060117 0.03260856 -0.035511795 0.06492651 -0.039810114 -0.2063862
-0.09324368 0.1355959 -0.03758737 0.13034137 0.003787725 0.05233593 -0.06425045 0.060303137
0.01495038 -0.026440013 0.12917046 -0.028217107 0.013226974 0.044801503 -0.0008323689 -0.052757066
0.09250986 -0.0022445198 0.053150244 0.008161008 0.053606667 -0.0011365341 -0.06947736 0.10185441
-0.15719414 -0.036726985 -0.057548985 0.029735334 0.022909053 0.0216771 -0.023119045 0.06433966
00000000: 0224 fd3d 6427 2fbd d97f 81bd 3c92 b7ba
00000010: ac0b 05bd 5ff7 6a3d 3ac7 343d 9b6a 2d3d
00000020: 07fc 153d e0a8 433d 7c86 5a3d 240f dabd
00000030: 6a68 17bd 40f2 883d 97c4 c7bd c66f af3d
00000040: 06a0 013e a0f9 91bd 679d c83d a067 40be
00000050: 9b26 acbd 3cc6 983a 7895 303b 6909 a63b
00000060: 474e 6d3c c082 c13d 4e5b ce3d 8fbf 053c
00000070: fd82 de3d 39c2 14ba 71ff 553d cd36 8b3c
00000080: df91 c9bd 3b45 b53d 38fc aebd 1e28 e93c
00000090: 086d 94bd 5871 cfbc 53ff ff3d a56e b13d
000000a0: 613c 8ebd 16f9 6e3d b22b a6bd dd96 86ba
000000b0: ccda dcbd 7570 af3c bfbc 763d 602b 2cbe
000000c0: ec2c fc3d 5aff 67bd 31d2 443d a379 24bd
000000d0: 3c5b 493d 089d 813d 2438 7d3d 1996 033c
000000e0: aef6 45bd b9c3 bbbc a730 9d3d 8fac e43c
000000f0: 0bde 1dbe 0a12 193e 86c2 053e 2481 16be
00000100: 9c36 4e3d 76b6 9fbd 3c49 cb3d cad4 14be
00000110: 080e cd3d 2fe4 b4bd 4d80 163d ffea bcbd
00000120: dc6b fabc 3632 f23c bf6c 72bc f4ac 7d3d
00000130: 79b7 02be 7ffd bb3d faec 9b3d f81d 4e3c
00000140: 2d3e cc3d 1fe9 02be 5395 ea3d bf61 04bd
00000150: 3d27 bb3d 0ddc 14bd 39f6 4b3d c5ac d9bd
00000160: a599 70bd 6561 99bb 4f2e 063d 7716 6e3d
00000170: 8ed0 a13d a329 0d3d e2fe 2d3e 6454 0fbd
00000180: e237 dd39 227d a3bd 16d7 663c ab6e 3b3d
00000190: 5263 adbd 34b8 dc3c 242b 80bd 3773 a13d
000001a0: 0700 323d f1b7 4fbc 3249 d63d 6b7e d4bd
000001b0: 962e ad3d bac3 533d 29e4 cdbd d2fe c13c
000001c0: c54c bdbd cde6 4bbd 0128 013e 8a80 9a3d
000001d0: 183d cc3d 8634 25bd 803d e13d af12 ff3d
000001e0: 756b a3bd f5a4 3d3e d8a9 763d 56fd adbd
000001f0: a917 903c 0faf 92bd 9d8f c43b c7e8 e6bd
00000200: 49bb f53c 8180 cdbb 2958 62bd 474d 0b3d
00000210: d4e9 a83d 5563 b5bd 4c21 c8bd 1c51 9fbd
00000220: 1ab0 d53c a4f1 b93d 23af ffbc 5c8a 2abd
00000230: c4fe 2b3e 7609 b8bd a519 2f3c 5cc3 20bd
00000240: 3db0 7cbc eaf6 1abe 01a3 83bd a3c5 603c
00000250: 1c8a 203d 1c3c 993c a6e1 113e 619b b6bc
00000260: 7c3f e23b 942e e13c a131 1e3d 626e 24bd
00000270: b58a 063e ebbe 6ebd 2206 2a3d 810a 933c
00000280: 62ae 61bd f5e6 09bb f2a7 a03d 3cb7 d93c
00000290: 7942 1dbc 3aa7 083e f7bc 553d 7512 6f3d
000002a0: 786e 0dbd 2248 ac3c 7a2f a33d d283 843c
000002b0: 51c3 eb3b a084 1f3e f54c be3d 69d3 fbbd
000002c0: 2a95 93bc 776c c5bd bb54 94bd ba3f 5bbd
000002d0: b8c6 f83d 20e9 82bd 7b0d c23d 31b3 d7bd
000002e0: dfc3 533c 0401 0a3e db7f e3bc 9c1d 533d
000002f0: d507 28bd 3fc9 903d 8fa6 a2bc cdd7 e43d
00000300: a593 063c d20c 8fbd b645 153e e492 883d
00000310: 61d7 ab3d d3de 10be 40df 313c d254 293d
00000320: 9c09 b93d 8990 113d 591e 0c3d b925 72bd
00000330: 2543 013e a678 2b3d 30b2 733d 0e64 1e3d
00000340: f86c 013e 0a7c 49bd dfe4 e13d 999e 0cbd
00000350: 7880 c8bd 9096 99bd 4cf5 16bc 9144 ca3d
00000360: 5f58 3e3d c421 82bc 9f82 0b3d 8e90 053d
00000370: d174 11bd 31f8 843d ee0f 23bd e756 53be
00000380: 8bf6 bebd a7d9 0a3e 37f5 19bd 3578 053e
00000390: 7b3b 783b 335e 563d bd95 83bd 6c00 773d
000003a0: 70f2 743c ba98 d8bc 4345 043e 9027 e7bc
000003b0: f3b5 583c c881 373d 5533 5aba cb17 58bd
000003c0: cf75 bd3d cb18 13bb 12b4 593d c0b5 053c
000003d0: aa92 5b3d c2f7 94ba 254a 8ebd 0b99 d03d
000003e0: 80f7 20be 096f 16bd 7cb8 6bbd 8497 f33c
000003f0: c4ab bb3c 2c94 b13c 2764 bdbc 83c4 833d

fc.bias f4 [43]
0.07890273 0.017050577 0.018506132 0.067421265 -0.031579804 0.063573286 0.09547469 -0.05657255
-0.03181742 0.09234128 0.023103785 0.022981625 0.009960789 -0.046483207 0.00953115 0.08948273
0.046887208 -0.05718875 0.09345587 0.04882164 0.0186616 0.01649461 -0.0586489 0.053665813
0.014107291 -0.057325277 -0.029141396 0.042484414 -0.0030867788 -0.05081062 -0.013030934 0.038870245
0.020944223 0.055181418 -0.013836259 0.07844812 0.1085734 -0.08224364 -0.027960934 0.032876484
0.07980258 0.022730695 0.010535699
00000000: c197 a13d a7ad 8b3c 2c9a 973c 2914 8a3d
00000010: d359 01bd b632 823d 3c88 c33d 9eb8 67bd
00000020: fc52 02bd 6d1d bd3d 2644 bd3c f643 bc3c
00000030: 9432 233c 2d65 3ebd 8a28 1c3c b942 b73d
00000040: cd0c 403d c03e 6abd cb65 bf3d 33f9 473d
00000050: 36e0 983c b41f 873c d439 70bd afd0 5b3d
00000060: 4422 673c e9cd 6abd f0b9 eebc 2304 2e3d
00000070: 8e4b 4abb cc1e 50bd b37f 55bc 6836 1f3d
00000080: 3893 ab3c e905 623d 7ab1 62bc 68a9 a03d
00000090: bb5b de3d 5b6f a8bd 540e e5bc 7ea9 063d
000000a0: 896f a33d b935 ba3c ed9d 2c3c
