blocksnet/preprocessing/imputing/development/artifacts/model.pt (torch, 306503 bytes, 16 tensors)

graphsage.convs.0.lin_l.weight f4 [128, 18]
-0.061673842 -0.121529095 -0.104734816 -0.18131715 0.03389339 0.15422623 0.052276395 -0.12511748
-0.014091252 -0.067111075 -0.1279696 -0.15157421 -0.0229261 0.012672686 -0.03552684 -0.05906888
-0.030625261 -0.11293664 0.016693566 -0.059048068 -0.060512178 -0.05668256 0.1525174 -0.11517527
-0.17736734 0.21607964 -0.11437576 -0.03400585 0.19617924 -0.10374536 -0.16575296 0.14560913
-0.10493279 -0.045630082 0.21607247 0.079463325 0.128968 -0.16072606 -0.15561555 0.16290852
0.044990614 -0.019238124 -0.13858458 0.15729222 0.107839994 0.14491192 -0.07420577 -0.056366954
0.26098436 -0.034903087 -0.09684442 -0.013193463 0.15518315 -0.12380111 -0.14863451 0.27461118
0.14548562 -0.11645635 -0.03876858 -0.026969925 0.0023143578 0.21621633 0.14850727 0.036533747
0.0029989039 0.046327725 -0.038159594 0.060430422 -0.066503145 -0.13752824 0.022838736 -0.047615364
-0.17141671 -0.03963962 -0.09025391 -0.1896288 0.13784961 0.11690156 0.18637878 0.09463232
-0.11869004 0.11492134 -0.0780321 -0.09247664 -0.049567293 0.16372144 0.06641151 0.1390693
0.21295686 -0.16629423 0.048562936 -0.13672756 0.02348519 -0.15982778 -0.16802594 -0.14541437
0.016920043 -0.060754236 0.08018564 -0.24659547 -0.09373238 -0.036170598 -0.028074155 0.0757045
0.08780135 0.17246334 -0.12546143 -0.044199914 -0.00784419 -0.1600976 0.10411052 0.14807913
0.10701326 0.1451584 0.018892976 -0.13263707 -0.20778908 0.23869568 -0.102973044 0.032868143
-0.017324097 0.020160269 0.1779264 -0.033591554 -0.040623713 0.06552265 -0.15066135 0.018578345
0.3081717 -0.05982346 -0.062057424 0.20868847 -0.21328779 -0.16289745 0.018735291 0.08041407
0.17487209 -0.1310844 0.18368334 0.06442666 -0.06472124 0.030368894 -0.035889983 -0.022684533
-0.17622037 -0.15809578 0.14876978 -0.15976535 0.08053995 0.17813349 0.007147117 0.15472463
-0.10638227 0.018647632 0.063973695 -0.035724226 0.076254115 0.03988944 0.025599187 0.1738124
0.15620255 -0.08694196 0.22977363 -0.06750586 0.24254292 -0.007316129 -0.064902864 0.050272863
0.17474721 0.20380567 0.15672357 0.00015189861 0.116908744 0.032615192 -0.014828456 0.06919122
-0.2460808 -0.019840665 -0.09006502 -0.074421674 0.018545834 -0.02788557 -0.1794707 0.1806453
-0.011782747 0.0021705932 0.22127275 -0.0596133 -0.116582595 -0.0010391023 0.09570783 0.10959445
0.022458585 -0.15838918 -0.20132633 0.10495041 0.03167023 0.010757934 0.09342834 0.1158492
0.10664074 0.21202885 0.11912906 -0.1662224 0.091161005 -0.09891439 0.1143651 0.0781442
0.21695808 0.092401385 0.033663917 -0.2519228 0.01441462 0.016447658 0.04724281 0.10288633
0.13618721 -0.1223401 0.04841445 0.12106637 0.09244304 -0.064055055 -0.10434824 -0.028423548
-0.0671984 -0.0013451603 -0.19555841 0.12973711 0.20695005 0.064853676 0.13554478 0.04002514
-0.1551811 -0.041317433 0.12534271 -0.109134026 0.20097524 0.13163584 -0.057595987 0.087181434
0.07888546 -0.0031427108 -0.21130885 -0.103709884 0.06477431 0.059014484 -0.12234543 0.056598812
-0.033677336 0.15170147 0.111494854 0.019855715 -0.07994606 0.17923974 -0.14739184 0.0018618526
00000000: b69d 7cbd 3fe4 f8bd 357f d6bd 34ab 39be
00000010: ccd3 0a3d 7bed 1d3e c61f 563d cc1e 00be
00000020: ffde 66bc 8871 89bd 760a 03be 4536 1bbe
00000030: 84cf bbbc 19a1 4f3c 9784 11bd 36f2 71bd
00000040: d4e1 fabc 534b e7bd f2c0 883c 63dc 71bd
00000050: 9edb 77bd f92b 68bd 852d 1c3e 03e1 ebbd
00000060: c99f 35be fb43 5d3e d73d eabd b849 0bbd
00000070: 36e3 483e 7378 d4bd 25bb 29be 8f1a 153e
00000080: 01e7 d6bd 9ce6 3abd 1a42 5d3e abbd a23d
00000090: 3010 043e 5f95 24be af59 1fbe 7ed1 263e
000000a0: 1448 383d 4599 9dbc 1ee9 0dbe 3611 213e
000000b0: 37db dc3d ca63 143e 32f9 97bd 09e1 66bd
000000c0: be9f 853e 8af6 0ebd 5e56 c6bd 6529 58bc
000000d0: 55e8 1e3e 708b fdbd a533 18be d699 8c3e
000000e0: 2ffa 143e ab80 eebd cdcb 1ebd 08f0 dcbc
000000f0: 7bac 173b d067 5d3e 4a12 183e 69a4 153d
00000100: 4289 443b 24c2 3d3d 3c4d 1cbd e485 773d
00000110: cd32 88bd 34d4 0cbe 4d18 bb3c 5408 43bd
00000120: dd87 2fbe 275d 22bd 0bd7 b8bd 0d2e 42be
00000130: 7328 0d3e 166a ef3d 14da 3e3e 97ce c13d
00000140: c413 f3bd e15b eb3d 4bcf 9fbd 6564 bdbd
00000150: 1307 4bbd 98a6 273e c202 883d 2f68 0e3e
00000160: 5d11 5a3e 0949 2abe eee9 463d 4f02 0cbe
00000170: 0364 c03c e5a9 23be fe0e 2cbe 81e7 14be
00000180: e79b 8a3c 6fd9 78bd 5e38 a43d 8683 7cbe
00000190: c3f6 bfbd 9f27 14bd c5fb e5bc f60a 9b3d
000001a0: 32d1 b33d 3b9a 303e f678 00be f80a 35bd
000001b0: eb84 00bc a0f0 23be e537 d53d 0ea2 173e
000001c0: c529 db3d 67a4 143e 71c5 9a3c 03d2 07be
000001d0: a9c6 54be a46c 743e 88e3 d2bd bfa0 063d
000001e0: 44eb 8dbc 2627 a53c 5732 363e 4c97 09bd
000001f0: 0d65 26bd bd30 863d f846 1abe 9d31 983c
00000200: aec8 9d3e 7209 75bd ed2f 7ebd 6eb2 553e
00000210: 1d68 5abe 97ce 26be c17a 993c 22b0 a43d
00000220: ab11 333e fd3a 06be 7c17 3c3e 20f2 833d
00000230: 928c 84bd 30c8 f83c 6001 13bd ead4 b9bc
00000240: 1d73 34be dce3 21be 1b57 183e 8799 23be
00000250: 21f2 a43d a068 363e 5d32 ea3b 2270 1e3e
00000260: f3de d9bd ebc2 983c a404 833d 9153 12bd
00000270: 1e2b 9c3d 1c63 233d 63b5 d13c e1fb 313e
00000280: 90f3 1f3e a00e b2bd c749 6b3e 8340 8abd
00000290: 2c5d 783e 23bc efbb cbeb 84bd ebea 4d3d
000002a0: eff0 323e 6fb2 503e 257c 203e f946 1f39
000002b0: da6d ef3d 8297 053d 0df3 72bc 20b4 8d3d
000002c0: 9bfc 7bbe e488 a2bc 0274 b8bd 646a 98bd
000002d0: 6fed 973c 4770 e4bc 2bc7 37be 15fb 383e
000002e0: 6c0c 41bc 8340 0e3b 5395 623e 132d 74bd
000002f0: dbc2 eebd 7d32 88ba 7702 c43d 0e73 e03d
00000300: 11fb b73c c630 22be 7d28 4ebe 3ef0 d63d
00000310: a5b8 013d 0c42 303c 5c57 bf3d 5842 ed3d
00000320: 7666 da3d 171e 593e f0f9 f33d 3436 2abe
00000330: 9fb2 ba3d a193 cabd 4038 ea3d 110a a03d
00000340: 422a 5e3e f03c bd3d 2de3 093d 06fc 80be
00000350: 4c2b 6c3c 3dbd 863c ad81 413d 11b6 d23d
00000360: a974 0b3e 728d fabd 3b4e 463d a5f1 f73d
00000370: c752 bd3d 4c2f 83bd 88b4 d5bd 80d8 e8bc
00000380: 519f 89bd 1750 b0ba 7740 48be ced9 043e
00000390: b7ea 533e 01d2 843d 40cc 0a3e 67f1 233d
000003a0: cbe7 1ebe 783c 29bd d759 003e a981 dfbd
000003b0: 74cc 4d3e 8ccb 063e c5e9 6bbd 2e8c b23d
000003c0: b38e a13d f0f5 4dbb 5961 58be d965 d4bd
000003d0: 65a8 843d 2cb9 713d 3e90 fabd 28d4 673d
000003e0: 3ff1 09bd a157 1b3e 6a57 e43d 74a8 a23c
000003f0: c3ba a3bd 9f8a 373e e3ed 16be 6809 f43a

graphsage.convs.0.lin_l.bias f4 [128]
-0.33645058 -0.2479849 -0.05563311 0.010652492 0.107602336 0.14293613 -0.045185722 0.30943048
-0.14167027 0.20865534 -0.11291923 -0.042289782 -0.20149979 -0.1977591 -0.10412224 0.32502362
0.02211568 0.1101435 -0.068455495 -0.1555237 0.032679778 -0.24565062 -0.2521495 0.023056293
-0.13144627 -0.14005387 -0.23454769 -0.092432365 -0.06048673 0.037882928 0.065707296 -0.052669045
0.30320582 -0.14830092 0.2326891 -0.23052353 -0.06572586 0.012368788 -0.2750912 0.23510818
0.126192 -0.1688284 -0.21609674 -0.14885125 -0.23459587 0.17195472 -0.075143024 -0.13269366
0.059883527 -0.16753164 0.07538668 -0.0029381223 0.29352817 0.09845677 0.08777923 -0.020463042
0.15545174 0.11304252 -0.040304437 -0.07941086 0.14212857 -0.04846937 -0.19062175 0.14967068
-0.14889048 0.09116657 0.1880985 -0.080550045 0.2464754 -0.26970494 0.20105599 0.1383018
0.16157453 0.11596729 0.22149606 0.055774305 -0.015216884 -0.0966707 0.10131106 0.09778209
-0.14408776 0.04288449 0.13309932 0.13683392 0.06426115 0.070294514 -0.0033249406 -0.08869105
0.04316273 0.01564255 0.19993024 -0.10905486 -0.047974434 0.23955944 -0.19475125 -0.010233061
0.036392346 0.085121386 0.11381473 -0.21268083 -0.072346866 -0.11425964 -0.16672659 0.007875498
-0.13165255 -0.16077133 -0.13005514 0.02672876 -0.09351515 -0.050217826 -0.1347723 0.055450547
0.0037431533 -0.050414428 0.06208358 0.10236066 -0.035738908 0.1621677 0.22831401 -0.059950154
0.21758837 0.32478172 0.00960587 -0.3328326 -0.04442261 -0.015735228 0.06908043 -0.12003651
00000000: 4043 acbe c1ef 7dbe 8bdf 63bd ca87 2e3c
00000010: 9d5e dc3d d95d 123e aa14 39bd ac6d 9e3e
00000020: 0312 11be bfa9 553e 3242 e7bd 0d38 2dbd
00000030: f655 4ebe 5d81 4abe 0a3e d5bd 7f69 a63e
00000040: f12b b53c ea92 e13d 6532 8cbd 9b41 1fbe
00000050: 3bdb 053d d68b 7bbe bd19 81be 8de0 bc3c
00000060: da99 06be 486a 0fbe 452d 70be 2e4d bdbd
00000070: efc0 77bd 212b 1b3d 8c91 863d 7fbb 57bd
00000080: cb3d 9b3e 32dc 17be 0d46 6e3e 5c0e 6cbe
00000090: 489b 86bd 75a6 4a3c c1d8 8cbe 33c0 703e
000000a0: 7a38 013e 5ae1 2cbe 7748 5dbe 766c 18be
000000b0: e639 70be e614 303e 96e4 99bd d9e0 07be
000000c0: 6e48 753d 6a8d 2bbe 5564 9a3d 838d 40bb
000000d0: 5349 963e b4a3 c93d 99c5 b33d 1ca2 a7bc
000000e0: be2e 1f3e d682 e73d 4416 25bd 29a2 a2bd
000000f0: 278a 113e d187 46bd 5932 43be 4543 193e
00000100: bf76 18be 8ab5 ba3d e59c 403e 6cf7 a4bd
00000110: 0c64 7c3e c416 8abe 9fe1 4d3e fd9e 0d3e
00000120: cb73 253e 4280 ed3d ddcf 623e 9973 643d
00000130: 3d50 79bc 4afb c5bd 2c7c cf3d fa41 c83d
00000140: be8b 13be a6a7 2f3d 304b 083e 311e 0c3e
00000150: 5a9b 833d 92f6 8f3d 3fe7 59bb a7a3 b5bd
00000160: 67cb 303d ce24 803c 83ba 4c3e 2858 dfbd
00000170: d780 44bd 124f 753e df6c 47be 92a8 27bc
00000180: 2410 153d 1f54 ae3d b217 e93d 01c9 59be
00000190: 982a 94bd f500 eabd 60ba 2abe 3c08 013c
000001a0: edcf 06be 3da1 24be 2d2d 05be 46f6 da3c
000001b0: df84 bfbd 35b1 4dbd c001 0abe 1d20 633d
000001c0: b14f 753b 5c7f 4ebd 5a4b 7e3d 77a2 d13d
000001d0: f662 12bd 4a0f 263e 26cb 693e 4b8e 75bd
000001e0: 7ccf 5e3e ca49 a63e f061 1d3c 0969 aabe
000001f0: 7cf4 35bd 2ae7 80bc 0a7a 8d3d b4d5 f5bd

graphsage.convs.0.lin_r.weight f4 [128, 18]
0.20346545 0.005289749 -0.12873311 -0.01090008 0.04784864 0.076688856 -0.27221385 0.08268356
-0.20272578 -0.005710602 0.22400236 0.07063 0.009410441 0.0051923017 0.042814754 0.075880475
0.12589018 0.2152005 0.095311865 -0.15529415 -0.017422156 0.00022894444 0.18426196 0.2229142
0.12914002 0.18410964 0.14894994 -0.022575656 -0.012822149 0.16600013 -0.060370725 -0.12402191
0.088747054 -0.0025331967 0.15557413 0.07321051 -0.27268213 -0.22763093 -0.05789664 -0.06029856
0.03364374 -0.17194894 -0.24857822 0.14117223 -0.1760323 0.03634583 0.009759053 0.054981884
0.03953276 0.066018865 -0.14517942 0.065619834 -0.14324036 -0.09578536 -0.03590676 -0.09490083
-0.077891536 0.01126605 0.12995519 0.2035293 0.080683306 0.26402223 0.1445055 -0.13571616
-0.24936077 -0.07628917 -0.036062125 0.13812183 -0.1546645 -0.2261737 -0.2420467 -0.20990908
0.05840457 -0.0064731347 0.11186682 -0.13774021 0.17995298 0.17208622 0.024949774 0.12495392
0.2644082 -0.044143144 0.13551827 0.15347764 0.019727355 0.10320487 -0.10838901 0.0529134
0.048416883 0.09548233 -0.06599536 0.20428751 -0.1548453 0.2441795 -0.074702434 0.013044036
0.14210075 0.15648761 -0.089399904 0.095372505 -0.11872231 0.0068206345 -0.010300888 0.04461309
-0.046789616 -0.16229972 -0.17944476 -0.1513264 0.23275 -0.03683906 -0.07874808 0.07430181
0.11474231 -0.12899794 -0.14964359 -0.14211752 -0.109894775 -0.077682614 -0.12196225 0.10092368
-0.016780203 -0.007437452 0.06263154 0.17074342 -0.11913841 0.099131465 -0.076220945 -0.32577145
-0.10948837 0.04526833 -0.23959182 0.024721317 0.1543326 -0.20388949 0.078052215 -0.11879138
-0.13467754 0.014837329 -0.098996155 0.2973238 -0.18624343 0.01588793 0.019514738 0.035466477
0.27536094 -0.08443111 0.13715732 0.079375386 -0.063212916 0.12793079 0.24479857 -0.16960081
0.056391142 0.13939692 -0.07329292 0.060111307 -0.18363316 -0.16371152 0.080830306 -0.13614117
0.14446534 -0.2202873 -0.24541713 -0.2281596 0.20441288 0.06573111 0.12620528 0.17177308
-0.21596013 0.10601643 -0.072981924 0.16681324 -0.008486145 -0.13468453 -0.124538116 0.02176898
0.057057984 0.15364704 -0.0727365 0.115182556 -0.18631293 0.04983572 0.09654678 -0.20944366
0.074056305 0.118726574 -0.07934963 0.10915945 0.10295074 0.12626216 0.20975631 0.10316704
0.22732675 0.13069825 -0.0372598 -0.34757563 -0.07768757 -0.18902045 -0.24825959 -0.29974234
-0.14000033 0.06578846 -0.10650315 -0.097045496 -0.3392722 0.17910163 -0.19408278 -0.111304104
-0.14097907 -0.07083451 -0.2849107 0.04066745 0.16425812 -0.07376738 -0.13076769 -0.075829394
-0.2108997 0.20328413 -0.119590014 0.09583055 0.17855033 -0.13278021 0.12833747 -0.0016330541
-0.17197308 -0.011383793 0.12138484 0.0074170004 -0.27306187 0.1193809 0.20199135 0.22171523
-0.06074069 0.20049967 0.14805894 -0.03415543 0.047813665 0.14255303 0.1629938 -0.08599975
-0.18221891 0.14463009 -0.36093304 0.20253158 0.12286502 -0.10322012 0.18346234 -0.101445585
-0.23382062 -0.021683816 -0.0022493212 0.19881271 -0.02831621 0.09655133 -0.11604651 -0.20491543
00000000: 3f59 503e a155 ad3b 9dd2 03be 4096 32bc
00000010: effc 433d 0c0f 9d3d 9d5f 8bbe 0056 a93d
00000020: 5997 4fbe 0020 bbbb e060 653e 76a6 903d
00000030: 402e 1a3c 2f24 aa3b 865e 2f3d 3967 9b3d
00000040: 5be9 003e 855d 5c3e de32 c33d 6e05 1fbe
00000050: e9b8 8ebc ce10 7039 2baf 3c3e 9f43 643e
00000060: 483d 043e 3d87 3c3e 5586 183e 95f0 b8bc
00000070: fe13 52bc f0fb 293e 4b47 77bd 33ff fdbd
00000080: 04c1 b53d fd03 26bb d34e 1f3e 64ef 953d
00000090: fe9c 8bbe 1518 69be 0725 6dbd 9ffb 76bd
000000a0: 05ce 093d 6213 30be 4a8b 7ebe 748f 103e
000000b0: d041 34be 5ddf 143d 6fe4 1f3c af34 613d
000000c0: 1aed 213d e634 873d eaa9 14be b163 863d
000000d0: 9aad 12be 1d2b c4bd f712 13bd 5e5b c2bd
000000e0: 9985 9fbd 3d95 383c f912 053e fc69 503e
000000f0: 4a3d a53d ec2d 873e 40f9 133e 2df9 0abe
00000100: 6e58 7fbe 7f3d 9cbd e1b5 13bd cf6f 0d3e
00000110: 5f60 1ebe 149a 67be 17db 77be 68f2 56be
00000120: a139 6f3d 971c d4bb 6e1a e53d c50b 0dbe
00000130: 9845 383e 5f37 303e 7863 cc3c d7e7 ff3d
00000140: 8360 873e 71cf 34bd 4dc5 0a3e 3e29 1d3e
00000150: 439b a13c 135d d33d 0ffb ddbd b9bb 583d
00000160: c850 463d 3d8c c33d 9328 87bd bf30 513e
00000170: c48f 1ebe 310a 7a3e 97fd 98bd a7b6 553c
00000180: dc82 113e 4a3e 203e 4c17 b7bd a952 c33d
00000190: af24 f3bd a17f df3b 0ec5 28bc 37bc 363d
000001a0: 78a6 3fbd e631 26be 5ec0 37be 4ff5 1abe
000001b0: 0456 6e3e 8ee4 16bd ac46 a1bd 8c2b 983d
000001c0: 04fe ea3d 0918 04be 2b3c 19be 4187 11be
000001d0: 8310 e1bd 1018 9fbd 58c7 f9bd 13b1 ce3d
000001e0: a376 89bc dfb5 f3bb f744 803d 5dd7 2e3e
000001f0: d7fe f3bd 7005 cb3d ba19 9cbd 84cb a6be
00000200: 703b e0bd 496b 393d 8f57 75be 5c84 ca3c
00000210: 5d09 1e3e 68c8 50be d7d9 9f3d e548 f3bd
00000220: e9e8 09be 4518 733c 7fbe cabd d33a 983e
00000230: 99b6 3ebe 6727 823c 5fdd 9f3c 4c45 113d
00000240: 1cfc 8c3e 38ea acbd f872 0c3e 908f a23d
00000250: c675 81bd 4a00 033e 7aac 7a3e d6ab 2dbe
00000260: 66fa 663d 11be 0e3e 991a 96bd 4637 763d
00000270: 550a 3cbe fea3 27be 5c8a a53d 9768 0bbe
00000280: b9ee 133e fe92 61be a14e 7bbe aca2 69be
00000290: 9c51 513e 089e 863d f53b 013e 48e5 2f3e
000002a0: a724 5dbe 241f d93d 8c77 95bd 17d1 2a3e
000002b0: 7909 0bbc beea 09be d70d ffbd dc54 b23c
000002c0: a2b5 693d a655 1d3e e0f6 94bd d5e4 eb3d
000002d0: d1c8 3ebe 8a20 4c3d 51ba c53d 6678 56be
000002e0: d5aa 973d eb26 f33d 0f82 a2bd fd8e df3d
000002f0: d6d7 d23d de4a 013e 5cca 563e 3e49 d33d
00000300: 58c8 683e c3d5 053e bb9d 18bd 6ff5 b1be
00000310: a91a 9fbd 948e 41be c337 7ebe d477 99be
00000320: 3f5c 0fbe 1abc 863d 531e dabd cabf c6bd
00000330: 16b5 adbe 6b66 373e a3bd 46be 68f3 e3bd
00000340: d15c 10be af11 91bd d1df 91be e992 263d
00000350: 4833 283e 5a13 97bd f7e7 05be 714c 9bbd
00000360: 17f6 57be b729 503e 9ceb f4bd cf42 c43d
00000370: e6d5 363e 89f7 07be e66a 033e 340c d6ba
00000380: b619 30be 1783 3abc 9d98 f83d 4f0a f33b
00000390: c4ce 8bbe f97d f43d d2d6 4e3e 5109 633e
000003a0: 3bcb 78bd c94f 4d3e c39c 173e 90e6 0bbd
000003b0: 43d8 433d 6cf9 113e d9e7 263e a320 b0bd
000003c0: 9897 3abe e919 143e 37cc b8be 7064 4f3e
000003d0: a8a0 fb3d 1265 d3bd 8ddd 3b3e b4c2 cfbd
000003e0: ac6e 6fbe 42a2 b1bc 5969 13bb 8f95 4b3e
000003f0: 65f7 e7bc b4bc c53d cba9 edbd 5ad5 51be

graphsage.convs.1.lin_l.weight f4 [128, 128]
0.026149953 0.06714139 0.046171054 -0.044529337 0.053251587 -0.047230527 0.066178195 0.068872385
-0.029296657 0.09315424 -0.07094549 -0.043573152 -0.04997784 -0.07620174 -0.026995996 0.06257724
-0.012009041 -0.051845398 0.07086042 -0.095172755 0.01685129 0.015727023 0.04990341 -0.042666562
-0.09107937 0.08735249 0.060036626 -0.044313025 0.079031795 0.024870861 -0.053944144 0.0653128
-0.08143518 -0.0318918 0.046535946 0.0818719 -0.045085136 -0.025898332 0.05535012 -0.030080639
0.04578122 0.016469674 -0.08638687 0.05299917 0.03238195 0.061701845 0.002131734 0.015489162
0.0012495235 -0.037644755 0.042448565 -0.05489633 -0.011212348 -0.06951125 -0.05796934 0.05819044
-0.04836647 -0.011254558 0.07860068 -0.04451001 0.07485728 0.074648775 -0.07551599 -0.020546068
0.054968696 -0.042181738 0.036771156 0.031318776 -0.051934116 0.02727173 -0.013127552 0.059984934
-0.051147375 -0.07172261 -0.022851447 0.039782982 -0.08518091 0.06461805 0.041229784 0.030859508
0.10602617 0.042921185 0.05293708 -0.07118873 0.041112725 -0.006625596 -0.025002632 0.04527249
-0.06521399 0.13102676 -0.07939382 0.055696446 0.04174825 -0.088388555 0.013552637 -0.011361522
-0.014029032 0.071934484 0.10867255 -0.0025306093 0.010008011 0.08204801 0.05775693 -0.03172059
-0.014054999 0.05778216 -0.009090984 -0.023907777 0.061460838 0.021429203 0.029623838 -0.053647485
0.07780898 -0.00485627 0.039594438 -0.033100914 -0.008049839 0.049001906 0.03258734 0.067969434
-0.0944757 0.047939524 0.053177636 0.083979785 0.010111311 -0.03577264 0.0706145 0.065086134
0.0061641587 -0.025698017 -0.06089364 -0.010154681 0.07240052 -0.036524717 -0.015836883 -0.032497466
-0.022837361 0.04874997 -0.055644054 -0.07367935 -0.07842807 -0.08985829 0.06330824 0.024458054
-0.0037661572 -0.0634631 -0.0007006522 0.019961357 0.051482756 -0.059598655 -0.03676781 -0.03317309
0.04286855 0.034569047 -0.022380132 -0.013226541 0.0040732883 -0.011287566 0.0019144175 0.02521752
0.005548355 -0.04075513 -0.057111014 -0.047174875 -0.04772927 0.03232387 0.064084195 0.08795499
0.045547545 -0.072998874 0.035656635 -0.006380621 -0.07568443 -0.023788229 -0.0923599 0.028177945
0.015083215 0.010393512 0.018089775 -0.032227375 0.018011166 0.075824566 0.003209787 -0.046900712
-0.0454401 -0.008310612 -0.04536763 -0.021433616 -0.0561313 0.008141953 -0.058573738 -0.044118423
0.08040612 0.009659453 0.048832547 -0.09299721 -0.0579085 0.036859725 0.09969729 0.09675165
-0.076270625 0.06858658 0.016585428 0.0004352535 0.027223099 -0.045001984 0.060205527 -0.022734132
0.03446625 0.0788739 -0.028085511 -0.010136868 0.0012286198 -0.020332068 -0.01101354 0.07486668
-0.053270463 -0.039755043 0.0055800914 -0.06158353 -0.08045052 0.04885979 -0.008223372 -0.00663036
0.061407886 -0.08484512 -0.06353608 -0.0065707606 0.0036774222 -0.019842505 0.02469685 0.011735022
-0.04422908 -0.06182941 0.017671967 -0.06974385 -0.087428614 -0.008204197 -0.09106048 -0.04940846
-0.030389074 0.046903446 -0.065384194 -0.03134997 -0.01461018 -0.018488118 0.013041668 -0.022999424
-0.036952835 0.088100284 -0.043212987 -0.042640004 0.025032608 0.0066162804 -0.1284037 0.0024369345
00000000: 6d38 d63c 6d81 893d dc1d 3d3d 6564 36bd
00000010: 561e 5a3d cc74 41bd 6f88 873d f70c 8d3d
00000020: 8bff efbc a6c7 be3d de4b 91bd c379 32bd
00000030: 90b5 4cbd a80f 9cbd b526 ddbc 7f28 803d
00000040: 92c1 44bc d75b 54bd 451f 913d efe9 c2bd
00000050: b70b 8a3c f5d5 803c 8567 4c3d 22c3 2ebd
00000060: d287 babd dde5 b23d f7e8 753d 9381 35bd
00000070: 6cdb a13d fabd cb3c 89f4 5cbd b8c2 853d
00000080: 7dc7 a6bd faa0 02bd 7a9c 3e3d 74ac a73d
00000090: 31ab 38bd bd28 d4bc cfb6 623d ac6b f6bc
000000a0: 1785 3b3d 69eb 863c 99eb b0bd a815 593d
000000b0: f0a2 043d 13bb 7c3d 90b4 0b3b 41c6 7d3c
000000c0: 0dc7 a33a 6331 1abd 8cde 2d3d f9da 60bd
000000d0: ffb3 37bc ea5b 8ebd 4271 6dbd 1959 6e3d
000000e0: eb1b 46bd 0a65 38bc 65f9 a03d 2150 36bd
000000f0: c64e 993d 75e1 983d 21a8 9abd 3a50 a8bc
00000100: db26 613d c2c6 2cbd 5a9d 163d 1e48 003d
00000110: deb8 54bd f768 df3c f214 57bc c3b2 753d
00000120: e97f 51bd 4ee3 92bd f532 bbbc 7bf3 223d
00000130: 5473 aebd 7856 843d 90e0 283d 14cd fc3c
00000140: 4024 d93d 20ce 2f3d 8dd4 583d 66cb 91bd
00000150: d165 283d 871b d9bb 52d2 ccbc a56f 393d
00000160: ea8e 85bd e12b 063e 3a99 a2bd f521 643d
00000170: 3700 2b3d 0f05 b5bd e10b 5e3c ad25 3abc
00000180: 06da 65bc 6352 933d b78f de3d 94d8 25bb
00000190: a4f8 233c c908 a83d 8892 6c3d 73ed 01bd
000001a0: f046 66bc fcac 6c3d 5af2 14bc 3eda c3bc
000001b0: 5cbe 7b3d 4c8c af3c b1ad f23c 77bd 5bbd
000001c0: 515a 9f3d 5821 9fbb c72d 223d d394 07bd
000001d0: 79e3 03bc 39b6 483d 4d7a 053d 8f33 8b3d
000001e0: 7a7c c1bd 3c5c 443d cbd0 593d 98fd ab3d
000001f0: eaa9 253c 5586 12bd 569e 903d e14b 853d
00000200: b6fc c93b a684 d2bc 9c6b 79bd d25f 26bc
00000210: b946 943d f19a 15bd 5abc 81bc 101c 05bd
00000220: 6b15 bbbc 0cae 473d 05eb 63bd 33e5 96bd
00000230: e59e a0bd a007 b8bd c0a7 813d 425c c83c
00000240: a2d1 76bb f1f8 81bd f9ab 37ba 0086 a33c
00000250: 95df 523d b81d 74bd d899 16bd 82e0 07bd
00000260: ef96 2f3d 4698 0d3d 8a56 b7bc 22b4 58bc
00000270: 3879 853b 7cef 38bc 31ed fa3a f994 ce3c
00000280: face b53b daee 26bd 3ded 69bd 713a 41bd
00000290: c47f 43bd 0966 043d 933e 833d bf21 b43d
000002a0: 1090 3a3d 6f80 95bd b10c 123d 8714 d1bb
000002b0: 7000 9bbd 88df c2bc 3027 bdbd 6fd5 e63c
000002c0: 971f 773c 8d49 2a3c 0231 943c da00 04bd
000002d0: 278c 933c e949 9b3d 4a5b 523b f61a 40bd
000002e0: 661f 3abd 3c29 08bc 68d3 39bd 8d95 afbc
000002f0: efe9 65bd d365 053c 04eb 6fbd 85b5 34bd
00000300: f7ab a43d af42 1e3c a304 483d 5275 bebd
00000310: 7731 6dbd 39fa 163d 182e cc3d bb25 c63d
00000320: c633 9cbd 1f77 8c3d 2ade 873c bc32 e439
00000330: fa02 df3c 0054 38bd 129a 763d ee3c babc
00000340: 7c2c 0d3d a488 a13d 9613 e6bc 1b15 26bc
00000350: a409 a13a 708f a6bc 2372 34bc b453 993d
00000360: 2132 5abd 2fd6 22bd 33d9 b63b 033f 7cbd
00000370: 3ec3 a4bd 3421 483d 52bb 06bc 7e43 d9bb
00000380: d686 7b3d 47c3 adbd 341f 82bd 894f d7bb
00000390: e800 713b c08c a2bc 0c51 ca3c 4044 403c
000003a0: 8d29 35bd d640 7dbd cdc4 903c ddd5 8ebd
000003b0: c60d b3bd e56a 06bc eb7d babd 8660 4abd
000003c0: 82f2 f8bc d41d 403d 26e8 85bd d368 00bd
000003d0: 895f 6fbc 6574 97bc b8ac 553c 4a69 bcbc
000003e0: db5b 17bd ec6d b43d 1a00 31bd 49a7 2ebd
000003f0: 2f11 cd3c 62cd d83b 427c 03be fab4 1f3b

graphsage.convs.1.lin_l.bias f4 [128]
-0.010499815 0.00024582053 0.024097128 -0.053731076 0.03281187 -0.044165768 0.040914685 -0.0006529868
-0.057301603 -0.006062917 -0.06000508 0.06277014 -0.01857234 0.079510175 -0.06719719 0.03551912
0.06554743 -0.019025614 0.04340925 -0.030827973 0.028426753 -0.012865892 -0.058364592 -0.006607769
-0.052764174 -0.02566389 -0.049958672 0.052934352 -0.05757336 -0.08057934 -0.052410007 0.05524968
-0.056276467 0.06537811 -0.025509745 -0.013479922 -0.079639204 -0.07413405 0.008712089 0.07894893
0.018647201 0.046581913 0.042594943 -0.059105013 0.07605873 -0.0069578234 -0.0704464 0.028485388
-0.06655352 -0.0014764387 0.018101819 0.0045982483 0.04506483 0.056670513 -0.08244502 -0.01823293
0.019781707 0.021408154 0.02441876 0.052792184 -0.006538531 0.051568743 0.04621701 0.045087233
0.04511735 -0.04621441 0.037369218 0.05622128 0.041395683 -0.023327095 -0.061996836 0.026308052
0.056582373 -0.0055000763 -0.09945167 -0.052948654 0.08683984 -0.004146509 -0.020343805 0.027119799
-0.0139210895 -0.037760388 0.048795838 0.006543115 -0.035756875 0.030575424 0.07393427 -0.064833395
-0.027902016 -0.044251986 0.07072192 0.014946435 0.07322655 0.029434359 0.02655492 -0.019300185
-0.02941554 -0.06744236 -0.074619025 -0.032162517 -0.012602135 0.065829575 0.024058834 0.0034066357
-0.034368075 0.0017810728 0.06789713 0.032062642 -0.051929746 -0.08027314 -0.01674717 0.05347224
-0.008617599 0.03334924 -0.009040322 0.051390927 -0.05017016 -0.043639578 0.04743399 -0.084789045
-0.0102175735 -0.07292092 -0.06672997 -0.03641017 -0.08391928 0.039107338 -0.023408508 0.059733056
00000000: 6b07 2cbc 79e1 8039 5767 c53c 1e15 5cbd
00000010: bd65 063d 2ae7 34bd 2896 273d 342d 2bba
00000020: 16b5 6abd 6fab c6bb e3c7 75bd a28d 803d
00000030: 0525 98bc 3bd6 a23d ae9e 89bd 7f7c 113d
00000040: bb3d 863d 9bdb 9bbc e6cd 313d f28a fcbc
00000050: 39df e83c 76cb 52bc b60f 6fbd fc85 d8bb
00000060: 3f1f 58bd 143d d2bc 77a1 4cbd b1d1 583d
00000070: 0bd2 6bbd c806 a5bd e0ab 56bd 7d4d 623d
00000080: 2782 66bd f5e4 853d d0f9 d0bc e4da 5cbc
00000090: e119 a3bd 98d3 97bd 26bd 0e3c faaf a13d
000000a0: 04c2 983c adcc 3e3d 0978 2e3d 1918 72bd
000000b0: aec4 9b3d 74fe e3bb 3446 90bd 305a e93c
000000c0: 364d 88bd 1085 c1ba 444a 943c e7ac 963b
000000d0: e695 383d 571f 683d efd8 a8bd 3a5d 95bc
000000e0: 3f0d a23c 2760 af3c da09 c83c 9e3c 583d
000000f0: 2c41 d6bb bf39 533d 0c4e 3d3d 64ad 383d
00000100: f8cc 383d 524b 3dbd 7710 193d 4948 663d
00000110: 858e 293d 7718 bfbc 65f0 7dbd fc83 d73c
00000120: ebc2 673d fc39 b4bb 51ad cbbd b0e0 58bd
00000130: 16d9 b13d 70df 87bb 0da8 a6bc 572a de3c
00000140: 4815 64bc a3aa 1abd 25de 473d a067 d63b
00000150: cd75 12bd 5079 fa3c da6a 973d 5fc7 84bd
00000160: c592 e4bc 9241 35bd a7d6 903d e4e1 743c
00000170: cdf7 953d 5320 f13c b489 d93c 6c1b 9ebc
00000180: dcf8 f0bc 381f 8abd dcd1 98bd d8bc 03bd
00000190: 2f79 4ebc a8d1 863d 0817 c53c dd41 5f3b
000001a0: 8ac5 0cbd e372 e93a a70d 8b3d 1e54 033d
000001b0: 49b4 54bd 3e66 a4bd 5c31 89bc b505 5b3d
000001c0: d430 0dbc 3699 083d dc1d 14bc 4b7f 523d
000001d0: 3a7f 4dbd 6abf 32bd 254a 423d e1a5 adbd
000001e0: 9c67 27bc 9057 95bd b9a9 88bd d522 15bd
000001f0: dfdd abbd 042f 203d 33c3 bfbc a6aa 743d

graphsage.convs.1.lin_r.weight f4 [128, 128]
-0.05364543 -0.05399457 -0.010208673 -0.05001193 0.04934015 -0.05541088 -0.044063106 0.076786846
-0.071448624 0.022208638 0.09397215 0.05670553 -0.018469684 -0.060492843 0.036775198 -0.044964407
-0.016958775 0.0040459684 -0.047054432 -0.014277008 -0.067724876 0.01725151 -0.037723884 -0.033211555
0.00063424825 -0.036992986 -0.005943241 0.0035098386 -0.03498613 -0.061082877 -0.038154654 0.005188077
-0.08999137 0.03538608 0.087693885 -0.0011440048 0.10027044 0.025247565 -0.03544356 0.045890268
-0.044222534 -0.056827243 0.102677904 0.022208007 0.014282321 0.051211618 0.08117662 0.047341518
-0.007814286 0.036262594 -0.03474102 -0.058733143 0.06094994 0.005833141 0.03361322 0.045334764
-0.08904764 0.10605933 -0.039720222 0.07560091 0.02793987 -0.032449268 -0.03805107 -0.011982526
0.037013374 -0.06549496 -0.011905283 0.017258357 0.01639267 0.07613053 -0.026187051 -0.07033985
0.05021544 0.05533933 0.0200167 -0.006397575 0.05069367 -0.0135657415 -0.04049454 0.017498618
-0.085460335 0.03805721 -0.018672748 -0.027936256 0.04327348 0.009408255 0.002818188 0.0049608434
-0.100440264 0.0016385304 0.041290764 -0.062055003 0.05764646 0.045158423 0.025902122 -0.040366814
-0.05357223 0.039165355 -0.083526015 -0.002772264 -0.0060852715 -0.028666222 0.05807557 -0.055842057
0.008682985 -0.0017049222 -0.01443926 -0.0025621725 -0.04683951 0.012002873 -0.040806223 -0.036943026
-0.04430195 -0.049735982 0.05159109 0.077920415 -0.06946829 -0.024016047 0.008325759 -0.022986058
-0.024250882 -0.07693225 0.019393813 -0.058494367 -0.11824696 -0.0009303522 -0.041172948 -0.021463465
-0.04119267 -0.021428071 0.04320065 -0.06084427 0.058847457 -0.04315755 -0.017828276 0.10396518
-0.043630525 0.048057582 0.10551543 0.0041927802 -0.0403293 -0.04643786 -0.051811006 -0.0048764045
0.084434666 -0.014310074 0.108544685 -0.048656177 0.085154064 0.021773783 -0.043656867 -0.026891593
0.06871959 0.020077996 0.08878858 0.0653955 0.0031882813 -0.035948295 -0.033524588 0.042783592
0.024513235 -0.050485738 0.0941726 -0.010400467 0.06272029 0.037954055 0.031075465 0.030633502
0.06531641 -0.040348895 0.04108511 0.06836688 0.04608266 0.034984406 0.07421336 -0.008504064
0.017957492 -0.028982762 0.092549436 0.033218727 0.051374294 0.043707326 -0.027810588 0.013692261
-0.039758038 0.04449431 -0.0153950285 -0.02066059 0.049699873 0.040040348 -0.049020767 0.04062693
0.0116636725 0.03198778 -0.02577851 -0.007978504 0.006083738 -0.020855635 -0.03028983 0.0062810327
0.05833633 0.024123844 0.02456676 0.012882183 0.046086 -0.0736659 0.046898462 0.052224703
0.033666752 -0.049114536 -0.12130839 0.037518103 -0.039004687 0.05499632 0.023356596 0.045460347
0.025473619 0.053554267 0.057420507 -0.012324128 -0.0006889924 0.08061854 -0.03704341 0.006534499
0.0029876058 -0.0134500405 0.046147138 -0.018364629 -0.019578619 0.014150975 0.044632 -0.013834462
-0.10716416 0.046269596 0.018315185 -0.0010901738 -0.022035815 0.0011380167 -0.04801888 -0.05012158
-0.042586625 -0.06919482 0.014127396 -0.007680427 -0.024747202 0.12097274 0.016514117 -0.006224504
0.088170916 -0.06283224 0.018758783 -0.015510016 0.005566137 0.018281098 -0.032168027 0.031458296
00000000: 4fbb 5bbd 6929 5dbd 4742 27bc 4fd9 4cbd
00000010: e618 4a3d 85f6 62bd 847b 34bd 6c42 9d3d
00000020: a853 92bd e4ee b53c 7874 c03d 0f44 683d
00000030: bc4d 97bc 58c7 77bd 97a1 163d 992c 38bd
00000040: 21ed 8abc 0b94 843b 26bc 40bd 1dea 69bc
00000050: 57b3 8abd 0a53 8d3c 5c84 1abd d708 08bd
00000060: ae43 263a f585 17bd 85bf c2bb 5205 663b
00000070: 9e4d 0fbd 0a32 7abd 0e48 1cbd bf00 aa3b
00000080: 654d b8bd fff0 103d da98 b33d 6ef2 95ba
00000090: 975a cd3d fbd3 ce3c 442d 11bd 6ff7 3b3d
000000a0: b022 35bd afc3 68bd cb48 d23d 91ed b53c
000000b0: 6500 6a3c 46c3 513d ee3f a63d 2ee9 413d
000000c0: 7e07 00bc 1688 143d 9a4c 0ebd 2a92 70bd
000000d0: a5a6 793d ef23 bf3b 04ae 093d f2b0 393d
000000e0: 9c5e b6bd a235 d93d acb1 22bd a6d4 9a3d
000000f0: 27e2 e43c 86e9 04bd 70db 1bbd 5b52 44bc
00000100: 569b 173d 3922 86bd 600e 43bc 6661 8d3c
00000110: ec49 863c 53ea 9b3d 3a86 d6bc 570e 90bd
00000120: b5ae 4d3d 7eab 623d 10fa a33c c0a2 d1bb
00000130: 2aa4 4f3d d842 5ebc 9add 25bd 4359 8f3c
00000140: d405 afbd e1e1 1b3d 97f7 98bc 93da e4bc
00000150: 883f 313d 1525 1a3c 59b1 383b 928e a23b
00000160: a0b3 cdbd f5c3 d63a 8120 293d 632d 7ebd
00000170: b21e 6c3d 0af8 383d b030 d43c ac57 25bd
00000180: 8e6e 5bbd da6b 203d b00f abbd dfae 35bb
00000190: f566 c7bb 6dd5 eabc a6e0 6d3d a4ba 64bd
000001a0: 1443 0e3c b277 dfba a592 6cbc 1fea 27bb
000001b0: c9da 3fbd b3a7 443c 6d24 27bd 9251 17bd
000001c0: f675 35bd f5b7 4bbd 2e51 533d bd94 9f3d
000001d0: 6445 8ebd 4dbd c4bc c468 083c 424d bcbc
000001e0: c9a9 c6bc a88e 9dbd c6df 9e3c ca97 6fbd
000001f0: 762b f2bd e1e2 73ba f7a4 28bd 26d4 afbc
00000200: a5b9 28bd ec89 afbc 2af3 303d d737 79bd
00000210: 080a 713d f9c5 30bd 9b0c 92bc b2eb d43d
00000220: ecb5 32bd 07d8 443d 7918 d83d 9763 893b
00000230: 5630 25bd a035 3ebd c737 54bd 3fca 9fbb
00000240: 15ec ac3d cd74 6abc ad4c de3d b34b 47bd
00000250: 4165 ae3d ef5e b23c 8bd1 32bd c24b dcbc
00000260: dbbc 8c3d 9c7a a43c c9d6 b53d 13ee 853d
00000270: 7cf2 503b 853e 13bd 1451 09bd d93d 2f3d
00000280: fbcf c83c 22ca 4ebd 90dd c03d b866 2abc
00000290: 7f73 803d b675 1b3d f991 fe3c 1cf3 fa3c
000002a0: 9cc4 853d e244 25bd dc48 283d ef03 8c3d
000002b0: 2cc1 3c3d cf4b 0f3d 2dfd 973d a154 0bbc
000002c0: 971b 933c 426d edbc 8f8a bd3d 5c10 083d
000002d0: da6d 523d 7406 333d 08d3 e3bc 8155 603c
000002e0: 53d9 22bd aa3f 363d 6e3b 7cbc 6640 a9bc
000002f0: 1892 4b3d 5901 243d 00ca 48bd 6c68 263d
00000300: fd18 3f3c 9e05 033d 742d d3bc 45b8 02bc
00000310: 185a c73b 70d9 aabc 6122 f8bc 1fd1 cd3b
00000320: 13f2 6e3d 5e9f c53c 3b40 c93c cb0f 533c
00000330: acc4 3c3d 26de 96bd 9a18 403d 92e9 553d
00000340: 26e6 093d 532c 49bd 8870 f8bd 95ac 193d
00000350: 61c3 1fbd d243 613d 5556 bf3c a134 3a3d
00000360: 0dae d03c b85b 5b3d c431 6b3d 24eb 49bc
00000370: 7f9d 34ba 551b a53d d5ba 17bd 5a1f d63b
00000380: b5cb 433b 8f5d 5cbc c804 3d3d 6b71 96bc
00000390: 5763 a0bc 7ed9 673c 0bd0 363d f0a9 62bc
000003a0: e278 dbbd 3085 3d3d ba09 963c 2ae4 8eba
000003b0: 7484 b4bc 8129 953a 72af 44bd 494c 4dbd
000003c0: 506f 2ebd 04b6 8dbd 9876 673c 17ac fbbb
000003d0: a5ba cabc 8ec0 f73d 9d48 873c edf6 cbbb
000003e0: f492 b43d 30ae 80bd 05ac 993c b91d 7ebc
000003f0: 2464 b63b 3ec2 953c 9fc2 03bd 6ada 003d

graphsage.norms.0.weight f4 [128]
1.0515075 0.94420195 1.1047544 1.0143526 0.91087556 0.9542302 0.9293347 1.0575424
0.94134176 1.0059112 1.0488858 1.1735901 0.97637063 1.0192084 0.993664 1.052029
1.0484934 0.9345824 0.9738388 1.0565742 0.9426055 0.9782233 0.9611095 0.937423
0.98409754 1.0462768 0.995905 0.9307532 1.019259 1.0406772 0.9808352 1.0201312
1.0380653 0.98988956 1.020594 0.9569105 1.0542796 0.9950498 0.92197645 0.8976586
1.0044653 1.0374771 1.0459744 0.93047744 0.90583646 1.0162274 1.1025695 0.99442613
0.9291843 0.9692645 0.9123933 0.9130089 0.9670974 0.98139346 0.9171619 0.9329871
0.99211025 1.1139349 0.9225587 0.9446701 0.93124294 0.9587616 0.97497994 0.9260119
1.1075094 0.8912254 0.9228307 0.9946139 0.99367785 0.96809393 0.9491251 0.9496054
0.9706929 0.9083398 0.98991436 0.96622276 0.941417 1.0221596 0.9815647 0.9836905
1.0033705 0.95770633 1.0234053 1.0317467 0.94666624 0.9025583 0.96535605 1.0371318
1.0363301 0.94595605 0.90029484 1.0036956 0.98145306 0.9825939 1.0801781 0.9902643
0.9273855 0.8957904 0.9836303 0.9884955 0.9512939 1.0131418 1.0320802 0.92960715
1.0209258 1.0018696 1.0357906 0.8944777 0.9660031 0.9248589 1.0932682 0.9841643
0.9838592 1.0045409 0.95619243 0.9106077 1.047923 0.9354837 0.9404927 1.0797629
0.99370676 1.0202782 1.0384403 1.0086188 1.0340556 0.96651894 1.0323527 0.99590963
00000000: cc97 863f 38b7 713f 9868 8d3f 4ed6 813f
00000010: 242f 693f 6e48 743f e1e8 6d3f 8d5d 873f
00000020: c6fb 703f b3c1 803f e441 863f 3338 963f
00000030: 6df3 793f 6c75 823f c460 7e3f e3a8 863f
00000040: 0835 863f cb40 6f3f 804d 793f d33d 873f
00000050: 984e 713f d86c 7a3f 460b 763f f4fa 6f3f
00000060: d1ed 7b3f 66ec 853f a1f3 7e3f d745 6e3f
00000070: 1477 823f e934 853f 0418 7b3f a993 823f
00000080: 53df 843f 6769 7d3f d3a2 823f 16f8 743f
00000090: a2f2 863f 95bb 7e3f a606 6c3f f4cc 653f
000000a0: 5292 803f 0dcc 843f 7de2 853f c533 6e3f
000000b0: e6e4 673f bd13 823f ff20 8d3f b692 7e3f
000000c0: 06df 6d3f b821 783f 9b92 693f f4ba 693f
000000d0: b293 773f 9a3c 7b3f 1fcb 6a3f 3ed8 6e3f
000000e0: f0fa 7d3f 6b95 8e3f cf2c 6c3f e6d5 713f
000000f0: f065 6e3f 6671 753f 4998 793f 1e0f 6d3f
00000100: dec2 8d3f 5927 643f a23e 6c3f 049f 7e3f
00000110: ac61 7e3f 01d5 773f ddf9 723f 5719 733f
00000120: 547f 783f f588 683f 076b 7d3f 605a 773f
00000130: b400 713f 20d6 823f d347 7b3f 24d3 7b3f
00000140: 726e 803f 3e2c 753f f2fe 823f 4710 843f
00000150: b858 723f 100e 673f 9321 773f bcc0 843f
00000160: 77a6 843f 2d2a 723f b979 663f 1979 803f
00000170: 8240 7b3f 468b 7b3f 4743 8a3f f681 7d3f
00000180: 2369 6d3f 8552 653f 32cf 7b3f 0b0e 7d3f
00000190: ff87 733f a1ae 813f 341b 843f bcfa 6d3f
000001a0: b2ad 823f 433d 803f c994 843f 7efc 643f
000001b0: fb4b 773f 8ec3 6c3f 36f0 8b3f 31f2 7b3f
000001c0: 32de 7b3f cc94 803f 07c9 743f 961d 693f
000001d0: 5722 863f dc7b 6f3f 21c4 703f ac35 8a3f
000001e0: 9163 7e3f 7a98 823f 9deb 843f 6c1a 813f
000001f0: ef5b 843f c96d 773f 2224 843f eff3 7e3f

graphsage.norms.0.bias f4 [128]
-0.03403682 -0.06258735 0.10384522 -0.045902483 -0.13443102 -0.044125553 -0.06420328 -0.07708105
-0.12824766 -0.03384409 0.043331947 0.08584808 -0.04018298 -0.009176735 -0.022392102 0.01607048
-0.04618806 -0.10123392 -0.074892566 0.045405645 -0.10308113 -0.05114975 -0.105006635 -0.067814276
-0.0028488315 -0.024053393 -0.07882711 -0.105639726 -0.00047413562 0.02189639 -0.023114514 -0.06255504
0.0006022852 -0.06161223 -0.050537344 -0.031861726 0.033356212 -0.0150911305 -0.083405755 -0.13787806
-0.06495698 0.019416105 -0.0707654 -0.05091288 -0.075077966 0.009880244 0.020884512 -0.06640175
-0.08091268 -0.041651662 -0.113951266 -0.14300354 -0.014426383 -0.072894946 -0.10544955 -0.06880982
0.025441673 0.010455617 -0.05932009 -0.10084473 -0.08056182 -0.03950605 -0.07848447 -0.098185174
0.022551998 -0.09234932 -0.108934626 -0.052174162 0.026439829 -0.070871115 -0.076649815 -0.13719617
-0.10718774 -0.108969994 -0.00274067 -0.036264874 -0.093596876 0.01430686 -0.063124165 -0.012924716
-0.051762428 -0.0017477261 -0.01733227 -0.05781296 -0.059538186 -0.09690722 -0.06516632 -0.033791427
-0.0033489927 -0.06346307 -0.08203055 -0.055640675 0.0031058593 -0.018961893 -0.056042805 -0.0419853
-0.08779928 -0.1118277 -0.04421201 -0.057070054 -0.08294846 -0.051707488 -0.023566786 -0.0675059
-0.045428194 -0.020321433 -0.048677817 -0.09875542 -0.09437143 -0.08142139 0.025114894 -0.03434678
-0.0022809992 -0.0823355 -0.024248388 -0.06338988 -0.070963524 -0.12477159 -0.07386291 -0.02664005
-0.01680283 -0.03251237 -0.027351782 0.006119823 -0.033271708 -0.063382685 0.014047872 -0.06218232
00000000: 316a 0bbd cc2d 80bd cdac d43d 3e04 3cbd
00000010: 49a8 09be ffbc 34bd 027d 83bd abdc 9dbd
00000020: 5b53 03be 1aa0 0abd d77c 313d 1ed1 af3d
00000030: e996 24bd 045a 16bc a46f b7bc 3da6 833c
00000040: b12f 3dbd bb53 cfbd 4661 99bd 45fb 393d
00000050: 331c d3bd 6682 51bd b80d d7bd 36e2 8abd
00000060: 76b3 3abb 9f0b c5bc 1c70 a1bd a459 d8bd
00000070: 6895 f8b9 0f60 b33c a65a bdbc db1c 80bd
00000080: ade2 1d3a 1b5d 7cbd 3f00 4fbd 7181 02bd
00000090: 86a0 083d ca40 77bc a3d0 aabd e82f 0dbe
000000a0: 2a08 85bd 860e 9f3c 73ed 90bd 068a 50bd
000000b0: 7ac2 99bd bfe0 213c ff15 ab3c a4fd 87bd
000000c0: 8cb5 a5bd ef9a 2abd 485f e9bd 856f 12be
000000d0: a35c 6cbc f249 95bd eff5 d7bd 2aec 8cbd
000000e0: 0e6b d03c 094e 2b3c 9ff9 72bd af87 cebd
000000f0: 98fd a4bd 19d1 21bd 77bc a0bd 4f15 c9bd
00000100: f8be b83c a421 bdbd 1e19 dfbd 93b4 55bd
00000110: 5798 d83c e024 91bd 94fa 9cbd 277d 0cbe
00000120: 3f85 dbbd a92b dfbd d09c 33bb 7a8a 14bd
00000130: b8af bfbd 5267 6a3c 3e47 81bd 30c2 53bc
00000140: d704 54bd f513 e5ba 68fc 8dbc 48cd 6cbd
00000150: 50de 73bd 4b77 c6bd eb75 85bd e168 0abd
00000160: c67a 5bbb edf8 81bd a2ff a7bd 7ae7 63bd
00000170: ac8b 4b3b f955 9bbc 248d 65bd c7f8 2bbd
00000180: 1cd0 b3bd ec05 e5bd a717 35bd 4ac2 69bd
00000190: e2e0 a9bd 3bcb 53bd 220f c1bc 8940 8abd
000001a0: ea12 3abd 2279 a6bc 6462 47bd 4840 cabd
000001b0: cf45 c1bd 42c0 a6bd c0bd cd3c 36af 0cbd
000001c0: d17c 15bb 849f a8bd 8ea4 c6bc 8ed2 81bd
000001d0: 5355 91bd 3f88 ffbd 7045 97bd 3c3c dabc
000001e0: 17a6 89bc b12b 05bd d810 e0bc cc88 c83b
000001f0: ea47 08bd c8ce 81bd 0c29 663c e3b2 7ebd

graphsage.norms.1.weight f4 [128]
0.94152474 0.8961348 0.96833026 0.941568 1.0218 1.0297582 0.96847576 0.8981614
0.8934314 0.9996668 0.9928495 1.0600699 0.9541781 0.9861794 0.9002109 1.0122235
0.888541 0.96428907 0.91400826 0.9904957 0.9562749 0.98496723 1.0051022 0.8486518
0.9217417 1.0025278 0.8143686 0.8487467 0.90819955 0.9147634 0.9097625 1.0203757
0.9350584 1.0002776 0.9074477 0.87729067 1.0736635 1.0224261 0.8365033 0.86409974
1.0538841 1.0372787 0.90320283 0.8695431 0.99419856 0.8913528 1.0164374 1.0421228
0.89489645 1.0008256 0.9319823 0.98879355 0.88303155 1.0234616 1.0293435 0.8477556
1.0265868 0.9599068 0.92279065 1.00805 0.8780825 1.0145899 0.8767671 1.0202059
0.9586906 0.7753552 0.9585156 0.9078934 0.84404033 0.9862154 1.0181857 1.0165567
0.9428811 0.9235787 1.0563781 1.0417992 1.0018517 0.9544628 0.9915599 1.0296888
0.7614578 0.8794209 0.8201989 0.9739226 1.056149 0.9494469 0.9263563 1.0006917
0.8184131 1.0119942 0.825459 0.8424297 1.0511166 0.75808316 1.0577192 0.9653819
0.9547437 0.99143803 0.9340174 1.0163589 0.94448525 0.9641862 1.0150989 0.86930364
0.9482506 0.9584393 0.82875997 1.0506419 0.914928 1.0624403 1.0431026 1.0207926
1.0328268 1.0099047 0.9156305 0.9729028 1.1159173 0.9681043 0.9124314 1.0537328
1.0596434 1.0223963 0.9391638 0.84775937 0.94796246 1.015917 0.9104664 0.9129895
00000000: c407 713f 1769 653f 7ee4 773f 9a0a 713f
00000010: 58ca 823f 1ecf 833f 07ee 773f e8ed 653f
00000020: ecb7 643f 2aea 7f3f 632b 7e3f 5fb0 873f
00000030: 0445 743f 4176 7c3f 3974 663f 8a90 813f
00000040: 6c77 633f a6db 763f 72fc 693f 2091 7d3f
00000050: 6fce 743f d026 7c3f 30a7 803f 3f41 593f
00000060: 44f7 6b3f d552 803f 767a 503f 7747 593f
00000070: c47f 683f ef2d 6a3f 32e6 683f ac9b 823f
00000080: fd5f 6f3f 1909 803f 7e4e 683f 1f96 603f
00000090: ce6d 893f dcde 823f 1525 563f a435 5d3f
000000a0: ade5 863f 8cc5 843f 4d38 673f 609a 5e3f
000000b0: cc83 7e3f b22f 643f 9f1a 823f 4864 853f
000000c0: ef17 653f 0e1b 803f 6496 6e3f 9321 7d3f
000000d0: 5b0e 623f ca00 833f 87c1 833f 8306 593f
000000e0: 3267 833f 74bc 753f 023c 6c3f c807 813f
000000f0: 04ca 603f 15de 813f cf73 603f 1b96 823f
00000100: bf6c 753f ae7d 463f 4761 753f b46b 683f
00000110: 0713 583f 9d78 7c3f e953 823f 881e 823f
00000120: a860 713f a76f 6c3f 6637 873f ad59 853f
00000130: ad3c 803f ad57 743f dfd6 7d3f d8cc 833f
00000140: e6ee 423f ba21 613f 8ef8 513f fe52 793f
00000150: e42f 873f f40e 733f b025 6d3f aa16 803f
00000160: 8583 513f 0789 813f 4851 533f 79a9 573f
00000170: fd8a 863f bd11 423f 5863 873f 4523 773f
00000180: 156a 743f e2ce 7d3f c41b 6f3f 0c18 823f
00000190: c9c9 713f e8d4 763f c3ee 813f af8a 5e3f
000001a0: 8dc0 723f 475c 753f 9d29 543f 6f7b 863f
000001b0: b938 6a3f 0bfe 873f 6384 853f 55a9 823f
000001c0: ab33 843f 8f44 813f c366 6a3f 2810 793f
000001d0: 61d6 8e3f afd5 773f 1b95 693f b7e0 863f
000001e0: 65a2 873f e2dd 823f 0a6d 703f c206 593f
000001f0: abad 723f 9109 823f 5314 693f aeb9 693f

graphsage.norms.1.bias f4 [128]
-0.028260686 -0.050265085 -0.008044549 -0.029345015 -0.008768537 0.022281278 -0.030760555 -0.05963711
-0.0449289 -0.028821634 -0.0024000418 -0.00847121 -0.037667073 -0.024048386 -0.050178748 -0.026905399
-0.029417409 -0.024714267 -0.035326518 -0.045760747 -0.035221502 -0.038594127 0.0046081725 -0.03980982
-0.038177237 -0.032141488 -0.033336665 -0.051052257 -0.04333497 -0.041831814 -0.044087887 -0.02219222
-0.038992982 -0.032974444 -0.07027835 -0.07029474 -0.004331769 -0.031121518 -0.059216645 -0.037352085
-0.008343468 -0.010340412 -0.045677472 -0.015587232 -0.046794415 -0.063454464 -0.0150403725 0.0026147887
-0.01654893 -0.028188111 -0.043823924 -0.023866152 -0.03877021 0.0056434385 0.014705807 -0.030495605
-0.031453233 -0.052915107 -0.073803484 -0.031460673 -0.04359884 -0.014614402 -0.017850438 -0.0016071888
-0.07074377 -0.043662753 -0.05029671 -0.041365404 -0.04406526 -0.018638419 0.0013923569 -0.03269009
-0.010461431 -0.034592245 -0.013565691 -0.028994696 -0.04095927 -0.05164864 -0.007248922 0.0065116626
-0.04985521 -0.0450677 -0.057054702 -0.027533088 -0.011462212 -0.028283218 -0.037706114 -0.02489282
-0.026990889 -0.02675013 -0.030089015 -0.026768448 -0.03691601 -0.025554232 -0.026273645 -0.022077663
-0.037600033 -0.01874249 -0.058867875 -0.009088945 -0.032190137 -0.056917164 -0.029228618 -0.047291316
-0.04240511 -0.023422984 -0.08831231 -0.026996646 -0.036254127 0.003684368 0.0029891634 -0.020426374
0.017550178 -0.026329895 -0.057886 -0.050659 0.001921616 -0.018752584 -0.06343867 0.0008207197
0.0055730017 0.008557897 -0.052306 -0.03449248 -0.038773157 0.0074428953 -0.042610366 -0.019334944
00000000: f482 e7bc c3e2 4dbd 49cd 03bc f564 f0bc
00000010: e9a9 0fbc 3a87 b63c 8ffd fbbc 0b46 74bd
00000020: 5e07 38bd 591b ecbc 054a 1dbb d4ca 0abc
00000030: ca48 1abd 1f01 c5bc 3b88 4dbd b668 dcbc
00000040: c7fc f0bc 9375 cabc 8ab2 10bd 9f6f 3bbd
00000050: 6c44 10bd e014 1ebd 2700 973b 9f0f 23bd
00000060: bc5f 1cbd cba6 03bd 078c 08bd 2c1c 51bd
00000070: 0280 31bd d657 2bbd 8095 34bd 75cc b5bc
00000080: 1bb7 1fbd 3610 07bd 18ee 8fbd b0f6 8fbd
00000090: 83f1 8dbb 8ef2 febc 278d 72bd 80fe 18bd
000000a0: 0bb3 08bc d56a 29bc 4d18 3bbd 9761 7fbc
000000b0: 80ab 3fbd 6af4 81bd e56b 76bc e05c 2b3b
000000c0: 9f91 87bc c1ea e6bc b780 33bd f382 c3bc
000000d0: 83cd 1ebd 98ec b83b a0f0 703c ebd1 f9bc
000000e0: 1bd5 00bd 83bd 58bd 4826 97bd e8dc 00bd
000000f0: b294 32bd 3f71 6fbc 153b 92bc 4fa8 d2ba
00000100: 1ce2 90bd b7d7 32bd ec03 4ebd c56e 29bd
00000110: c67d 34bd 99af 98bc bf7f b63a 0be6 05bd
00000120: 6c66 2bbc 99b0 0dbd a242 5ebc 4986 edbc
00000130: e8c4 27bd 868d 53bd 5d88 edbb c95f d53b
00000140: fa34 4cbd e998 38bd 31b2 69bd 128d e1bc
00000150: 00cc 3bbc 35b2 e7bc ba71 1abd 07ec cbbc
00000160: ff1b ddbc 1723 dbbc 3d7d f6bc 8149 dbbc
00000170: 3e35 17bd 1c57 d1bc d43b d7bc 37dc b4bc
00000180: 7e02 1abd da89 99bc 711f 71bd cce9 14bc
00000190: ced9 03bd f921 69bd db70 efbc 8ab4 41bd
000001a0: fbb0 2dbd 8fe1 bfbc 16dd b4bd 1228 ddbc
000001b0: 357f 14bd 7075 713b d7e5 433b 3655 a7bc
000001c0: 64c5 8f3c cbb1 d7bc df19 6dbd d07f 4fbd
000001d0: bcde fb3a 059f 99bc 22ec 81bd 9125 573a
000001e0: ba9d b63b 6c36 0c3c d13e 56bd fd47 0dbd
000001f0: 9ad0 1ebd 88e3 f33b 3588 2ebd 5164 9ebc

graphsage.lin.weight f4 [128, 256]
-0.04000018 0.042021938 0.047249388 -0.015199938 -0.018608386 0.055925764 -0.009140711 -0.060985923
-0.011831689 -0.017744843 0.014683729 -0.010323958 0.015117157 -0.022301193 0.033147685 0.03235709
0.011858517 -0.0706019 -0.028995978 0.047629982 0.060841467 -0.04645476 -0.041734695 0.013887354
0.025878672 0.11702825 -0.08748787 -0.058331802 -0.010843208 -0.005284864 0.064440034 -0.071167685
-0.007944398 0.03587256 0.039845068 0.026944604 0.028680062 0.044030823 0.032646574 -0.038215358
0.021877224 -0.011979201 0.01438716 0.025122186 -0.042676266 0.045724288 0.013372278 0.032741785
0.044159528 0.011688089 0.04612943 0.018784 -0.049319882 -0.007764992 0.018198779 0.030675994
0.0044559175 0.13603854 -0.050806485 0.01075377 0.027183803 0.03217789 -0.03392005 0.024493814
-0.007100333 -0.0021009764 0.032402545 0.06617082 -0.05089578 -0.0044740904 0.051468883 0.055542864
-0.0075836442 -0.029984694 -0.029809901 0.050569564 -0.061014753 0.0034978269 0.03220409 -0.0015952538
-0.03586427 -0.043059666 -0.0019594203 0.04304403 0.01617454 -0.045827363 -0.012840345 0.0346305
0.026961219 0.049283028 -0.041959446 0.01009044 -0.012367804 0.052319158 0.03967865 0.0712234
-0.035307102 -0.039882705 -0.03729882 0.0065406756 -0.021311864 0.053568352 0.04327925 0.003681902
-0.051717583 0.036276113 0.05863615 0.022526775 -0.032350916 -0.037339285 -0.052147605 0.028978147
-0.019967355 0.0669846 -0.038010664 0.010652771 0.03237832 -0.033695467 0.051654786 0.06209481
0.02841054 0.046140153 -0.033742815 -0.029718522 0.03197334 0.039478272 0.045761712 -0.004757862
-0.0060708136 0.023193106 -0.06832314 0.020154811 0.06565783 -0.045141216 -0.01911872 0.002108827
-0.049954977 -0.062656365 -0.08131633 -0.12755965 0.025363198 -0.043286406 0.016120216 -0.02565968
-0.031917766 0.03854508 0.046645757 0.056434143 0.033351082 0.0049756216 -0.013668717 -0.061582178
-0.005909573 0.052727435 0.02057011 0.054248113 -0.05565243 0.029589733 0.01134156 0.02765825
-0.034784034 0.105040826 0.021949828 -0.0140665285 -0.076110385 -0.012523194 0.041385133 0.020851666
-0.05138382 -0.06735194 0.002897202 0.010412795 -0.004651744 -0.0040760776 0.03840817 -0.05029276
-0.029067641 0.0718327 0.021926597 -0.010697352 0.015637916 -0.09563608 -0.004775951 0.047285482
0.04719087 0.05169399 0.031992976 0.09375147 0.013008428 -0.019009825 -0.025193179 -0.053774662
-0.04070753 -0.012399812 0.022998394 0.023437338 -0.049910538 -0.016895253 -0.054314457 0.09450479
-0.024300959 -0.002414743 -0.09335038 0.009658538 0.031659614 0.028569542 -0.05350206 -0.01980964
0.014823025 0.017487215 0.029184647 0.001163428 -0.030135686 -0.004265515 -0.00817422 -0.07643839
-0.02999603 -0.035905503 0.046692856 0.02418609 -0.03167924 0.062158175 -0.07114881 -0.034656078
0.020967655 0.014450729 0.007296329 -0.019332461 0.009743007 0.042799916 -0.012818215 0.009617663
-0.009605131 -0.07715609 0.024247928 -0.11190533 -0.036491998 -0.03528554 -0.06234057 -0.0960746
-0.10497187 0.037781745 0.024746032 0.034381114 -0.1107196 0.03207043 -0.039209537 -0.08401712
-0.10348169 -0.053836394 -0.07894109 0.05467938 0.052281033 -0.05164904 0.026077762 0.002544695
00000000: 3bd7 23bd 321f 2c3d 9388 413d 2909 79bc
00000010: 9d70 98bc 6a12 653d ecc2 15bc 60cc 79bd
00000020: b3d9 41bc a25d 91bc 0694 703c d125 29bc
00000030: f4ad 773c feb0 b6bc dec5 073d de88 043d
00000040: 3a4a 423c bb97 90bd f988 edbc a817 433d
00000050: e734 793d 5947 3ebd 00f2 2abd c987 633c
00000060: 82ff d33c 82ac ef3d d72c b3bd 54ed 6ebd
00000070: b6a7 31bc a72c adbb 23f9 833d 5dc0 91bd
00000080: 3829 02bc 1bef 123d 9534 233d eeba dc3c
00000090: 73f2 ea3c aa59 343d 6ab8 053d b587 1cbd
000000a0: dd37 b33c 6944 44bc 1fb8 6b3c 0bcd cd3c
000000b0: 4fcd 2ebd 6449 3b3d 6617 5b3c 401c 063d
000000c0: 9fe0 343d 667f 3f3c 37f2 3c3d e7e0 993c
000000d0: a503 4abd 7971 febb 9b15 953c 394c fb3c
000000e0: f202 923b b04d 0b3e 761a 50bd 9530 303c
000000f0: 91b0 de3c f7cc 033d c0ef 0abd 40a7 c83c
00000100: e9a9 e8bb 89b0 09bb 88b8 043d 9184 873d
00000110: 1878 50bd 649b 92bb 09d1 523d ea80 633d
00000120: 3880 f8bb 76a2 f5bc e533 f4bc 0822 4f3d
00000130: 9bea 79bd cc3b 653b 70e8 033d d617 d1ba
00000140: 6ae6 12bd 555f 30bd 9e69 00bb f04e 303d
00000150: 7880 843c 79b5 3bbd 4f60 52bc b6d8 0d3d
00000160: c6dd dc3c 00dd 493d abdd 2bbd 5f52 253c
00000170: 54a2 4abc 9d4c 563d 1586 223d 93dd 913d
00000180: 2e9e 10bd 0c5c 23bd a6c6 18bd 2a53 d63b
00000190: 3896 aebc 7d6a 5b3d 9545 313d 114c 713b
000001a0: d1d5 53bd 4396 143d 762c 703d 128a b83c
000001b0: 6582 04bd 14f1 18bd ba98 55bd 9463 ed3c
000001c0: 9492 a3bc 392f 893d 12b1 1bbd f688 2e3c
000001d0: 219f 043d 4204 0abd f893 533d 2157 7e3d
000001e0: 39bd e83c 75fd 3c3d e835 0abd 4274 f3bc
000001f0: 7af6 023d f8b3 213d a270 3b3d d7e7 9bbb
00000200: aded c6bb 78ff bd3c 01ed 8bbd b41b a53c
00000210: 9d77 863d ffe5 38bd dd9e 9cbc 3f34 0a3b
00000220: 979d 4cbd fb51 80bd 2d89 a6bd ff9e 02be
00000230: 7bc6 cf3c 164d 31bd 8b0e 843c 4034 d2bc
00000240: 34bc 02bd 72e1 1d3d 9f0f 3f3d 7d27 673d
00000250: 259b 083d 8a0a a33b c1f2 5fbc 983d 7cbd
00000260: 17a5 c1bb b9f8 573d a682 a83c 4533 5e3d
00000270: cdf3 63bd 2b66 f23c f3d1 393c 8e93 e23c
00000280: b479 0ebd a51f d73d 20d0 b33c 4c77 66bc
00000290: c3df 9bbd 152e 4dbc 7583 293d 1dd1 aa3c
000002a0: d777 52bd d0ef 89bd fcde 3d3b 6d9a 2a3c
000002b0: a86d 98bb 9e90 85bb e351 1d3d c8ff 4dbd
000002c0: 431f eebc 061d 933d 689f b33c f243 2fbc
000002d0: 161b 803c d9dc c3bd 957f 9cbb 6cae 413d
000002e0: 374b 413d 14bd 533d 110b 033d c500 c03d
000002f0: 4d21 553c 7eba 9bbc ed61 cebc d242 5cbd
00000300: f0bc 26bd 9528 4bbc 2167 bc3c a9ff bf3c
00000310: fe6e 4cbd ea67 8abc d678 5ebd ba8b c13d
00000320: ce12 c7bc aa40 1ebb 7c2e bfbd d83e 1e3c
00000330: 83ad 013d ac0a ea3c fa24 5bbd d347 a2bc
00000340: 46dc 723c 5941 8f3c a414 ef3c 2a7e 983a
00000350: 1ddf f6bc bcc5 8bbb 2aed 05bc bb8b 9cbd
00000360: 3cba f5bc a611 13bd 0241 3f3d e821 c63c
00000370: 17c2 01bd 9299 7e3d 78b6 91bd 88f3 0dbd
00000380: 5cc4 ab3c c0c2 6c3c 0b16 ef3b 1c5f 9ebc
00000390: 22a1 1f3c f74e 2f3d 7e03 52bc 6793 1d3c
000003a0: d75e 1dbc 0304 9ebd 97a3 c63c 9f2e e5bd
000003b0: a278 15bd 9287 10bd d358 7fbd c3c2 c4bd
000003c0: 7efb d6bd 08c1 1a3d 31b8 ca3c 36d3 0c3d
000003d0: f5c0 e2bd 495c 033d 2e9a 20bd 2b11 acbd
000003e0: 35ee d3bd 8d83 5cbd deab a1bd 7cf7 5f3d
000003f0: a324 563d f28d 53bd 08a1 d53c e6c4 263b
