blocksnet/preprocessing/imputing/development/artifacts/model.pt (torch, 178203 bytes, 12 tensors)

graphsage.convs.0.lin_l.weight f4 [128, 23]
00000000: 4379 00be 6f14 fdbd 8ff6 dc3d 77aa 203e
00000010: 4cee d8bd fe35 5b3e 4b46 fdbd c4b7 1e3e
00000020: 2f3f bc3d e5fa eebd 0be0 8d3d 834e 4bbe
00000030: 7dfc f43d 70d8 2bbe e0f1 363e c1f8 67bd
00000040: 16fb 393c 25cf 293d adf8 45bd 29ae f5bd
00000050: 43a0 a0bc f4af 6dbd 2c23 d7bd fd04 b8bd
00000060: d896 11be e4e0 893d 256d b4bd 63f4 eabc
00000070: 4a89 853d b7c3 7a3e 238e 14be 5c84 40bd
00000080: 92af e43d 267f 063d 071c 7bbc a265 65bd
00000090: aeb0 103e 8c9b 4f3d 9286 d83d f2c5 1e3e
000000a0: f93c 143e e78e aa3d cb93 18be 9c5b 0bbe
000000b0: 26ef 77bc d069 723d 106f 30be 09cc f83d
000000c0: baf5 303d b0ed f13d 93dd 013d ba5b b33d
000000d0: 6d5e 49bd 648f 213d 91c9 1cbe cb72 8abd
000000e0: a36c ec3d 000c d1bd 15c2 bdbd 8691 bf3d
000000f0: 737a 91bd 9ae1 ec3d eadd 9a3d 51a6 0a3e
00000100: 3dc6 e3bc 7da7 203d 2bcf cdbc 3a98 8dbd
00000110: 9793 3c3e 1e97 56be bd1c 23bd e608 343d
00000120: 32b1 91bd 511d d4bd e921 94bd f716 933d
00000130: ee05 22be 064d 6cbd 5bad 57be 4471 9f3d
00000140: e999 e53d f3ce 84bd 4741 d53d 0729 28be
00000150: 6d51 213e 0c42 81bd 45e6 2abe 0cac 2cbe
00000160: c8c4 cd3d 504c f5bc 9ae2 123d 0243 9f3c
00000170: 33ef 003e 3a5c 243d 4884 e8bd 5ccb e63d
00000180: b96a 5abe 2305 ef3d a4b0 6dbd fca9 11be
00000190: 8b9d 8b3d ca8e 373e 1e48 1fbd 237f 823d
000001a0: 87d8 2c3e 51cd 903d 6aed 483d 275f 643e
000001b0: 7444 513e e810 4cbc 3b4d 6f3d 0ed3 09bd
000001c0: 4cc7 11be 2103 1e3e c80c 083e 5ed9 283e
000001d0: 5951 f93d 52a6 bbbd 9ef4 233e 755e 2dbe
000001e0: d3b6 f9bd f9c8 e2bd db2a 83bd ad53 da3d
000001f0: 1f55 e2bd 316f 37bd 69fb 1fbd 555c 463e
00000200: 3dbb e83d ce0a 7cbd 31b0 64bd 906a 6cbe
00000210: 76b0 dcbd 6ab0 2a3d f42e 3fbe 786c 093e
00000220: 1978 5ebd 740a 173e 32a5 573e 5a46 2dbe
00000230: 6b38 8b3d 05e4 b4bd 61e9 cd3d f990 6d3d
00000240: 7a76 89be 8779 a9bc d083 11be 823e 343e
00000250: efe6 14be db50 e13d 3861 d3bd 9364 23be
00000260: 83f1 0cbe 4250 e4bd ccb2 043e 2785 b6bd
00000270: aecd b0bd 4f16 323e c9cf b23d ae8b bfbd
00000280: 512f 83bd df0a cbbc d446 32be 3638 47be
00000290: 4619 ab3d a019 3e3e ad26 32bd f49d 83be
000002a0: 07d9 123e 49a3 153e bfc4 60bc 8ea4 ee3d
000002b0: e8b8 15bc 70af 0bbd cfd0 843d 2cd1 65bd
000002c0: bae3 a13d 0a09 57be f98d a53d db75 13bd
000002d0: 7369 3e3d c058 2d3e e5c2 dc3d a93c 023e
000002e0: 2816 2abe e014 cb3d 8086 edbd 976a 84be
000002f0: e347 4f3e bbc7 57be d86d 973d fe97 73be
00000300: b94e 143b 5d45 8bbd 4796 433d 5286 443e
00000310: f231 59bd 08c0 e4bc 6e4b e83b 755e 8c3c
00000320: 5eb6 d13c 7591 393d 4a47 38bd d93e 123e
00000330: 9076 f8bd 2647 b73d 683d 75bc 2131 563e
00000340: 4e39 f2bd 931d 7b3d e142 253e d03b 193e
00000350: 5e95 623e 09c9 78be 4fb7 dbbc e27c 22be
00000360: bdf4 2e3e a67a aa3d 5e59 bfbd 7183 3d3d
00000370: 1a88 8dbe 7568 a03c 06ae 48be 2604 863d
00000380: 2bdc 503e c802 183e 7c41 88bc 8a04 ca3d
00000390: ddfa 8d3d 24f1 85bc 7a42 de3c 8247 2ebe
000003a0: d506 d63d a60a 52be 130a c33d 34a8 293c
000003b0: d504 1b3e bf22 93bc 04e0 c53d dd9c 1cbe
000003c0: 20db 023e c382 013e aef4 853d 463c d6bd
000003d0: 5a97 febd d8f0 eb3d c379 b93d c1cf 32be
000003e0: ded7 013e 0323 883d 9f95 a9bd a967 283e
000003f0: 4b84 55be 22b5 26be 0420 1bbe 00e2 b53d
-0.12546258 -0.12357413 0.10789215 0.15690027 -0.105923265 0.21407315 -0.12366923 0.15499789
0.09191739 -0.11668948 0.069274984 -0.19854169 0.11962221 -0.16781783 0.17865705 -0.056633715
0.011351367 0.041457314 -0.04833286 -0.11996109 -0.019607669 -0.05802913 -0.105047554 -0.089853264
-0.14217699 0.067323476 -0.0880988 -0.028680986 0.065203264 0.24488722 -0.14507346 -0.047001228
0.111663 0.032836102 -0.015326506 -0.056005128 0.14129898 0.05068545 0.10572542 0.15505198
0.14476384 0.08328038 -0.14900129 -0.13609165 -0.015132701 0.059182942 -0.17229867 0.121482916
0.043203093 0.118129134 0.03170545 0.0875773 -0.049162317 0.03944339 -0.15311266 -0.06760176
0.11544158 -0.10207367 -0.09265534 0.09353928 -0.071034335 0.115664676 0.07561858 0.13540007
-0.027804488 0.03922223 -0.0251232 -0.069138005 0.18415676 -0.20956084 -0.03982233 0.0439538
-0.071138754 -0.10357154 -0.0723303 0.071821146 -0.15822574 -0.057690643 -0.21062224 0.077852756
0.11210997 -0.06484785 0.10412841 -0.164219 0.15753718 -0.063114256 -0.16689403 -0.16862506
0.10047299 -0.029943615 0.035860635 0.019441132 0.12591247 0.040127017 -0.11353356 0.112692565
-0.21329774 0.116709016 -0.058029786 -0.14225 0.06817158 0.17925563 -0.038887136 0.06371906
0.16879474 0.07070411 0.04905454 0.22301923 0.20436269 -0.012455203 0.058423262 -0.033648543
-0.14236182 0.15430881 0.13286126 0.16489169 0.12173719 -0.091625825 0.16011283 -0.16930564
-0.12193074 -0.11073489 -0.064046584 0.10660491 -0.11051392 -0.044783775 -0.039058123 0.1937116
0.11363838 -0.06153374 -0.05583209 -0.23087525 -0.10775845 0.041672148 -0.18670255 0.13420284
-0.054313753 0.14750081 0.21059111 -0.16921368 0.0679787 -0.08832554 0.10054279 0.057999585
-0.26848203 -0.020687832 -0.14210439 0.1760197 -0.14541219 0.1100175 -0.103212774 -0.15956335
-0.13764004 -0.111481205 0.1295883 -0.089121155 -0.0863298 0.17391323 0.08731038 -0.09352814
-0.06405509 -0.024785457 -0.17409831 -0.19455037 0.0835443 0.18564463 -0.043493915 -0.25706446
0.14340602 0.1461307 -0.013718783 0.1165248 -0.009138323 -0.034102857 0.064851396 -0.056107685
0.079047635 -0.20999542 0.0808372 -0.036001068 0.046487283 0.16928387 0.10779361 0.12718453
-0.16610014 0.09916091 -0.115979195 -0.25862572 0.20242266 -0.21072285 0.07393998 -0.23788449
0.002262993 -0.06800339 0.047750738 0.19191864 -0.053026147 -0.027923599 0.00708907 0.017134884
0.025599655 0.045304734 -0.04498986 0.14281787 -0.12131989 0.08949117 -0.014968254 0.20917179
-0.11827336 0.0613075 0.16138794 0.14964223 0.22127292 -0.24295439 -0.026820807 -0.15867952
0.17085548 0.083241746 -0.09343217 0.04626793 -0.276429 0.019581059 -0.19597635 0.0654376
0.20396487 0.14844811 -0.016632788 0.09864147 0.06932614 -0.016350336 0.027131308 -0.17019466
0.10450522 -0.20511875 0.09523406 0.010355044 0.15138562 -0.017960904 0.09661868 -0.15294214
0.12778902 0.12647538 0.065408096 -0.10460715 -0.12431212 0.11520547 0.09056427 -0.17462064
0.12680003 0.06647303 -0.08280491 0.16445793 -0.20851247 -0.16280034 -0.15148932 0.08880997

graphsage.convs.0.lin_l.bias f4 [128]
00000000: 5a7d 613e f808 633c 230b e8bb ca9b 0a3e
00000010: bb59 2c3e a01d 483e 45c7 e4bd fcf8 3ebd
00000020: a046 18be 209c 2b3e 87c0 a9bd 546a 73be
00000030: 554d 8fbd b3ad 5dbe e166 adbd 4c60 99bc
00000040: cdd1 6bbd 562f 19be 2484 47bd ffd7 f9bd
00000050: d3d6 dbbc 34ed 313e 3908 1bbe 9c23 823d
00000060: 275d 933d f479 473b a9d6 fcb9 45e2 0a3e
00000070: 5a2d 0f3e 68bf 3b3e 362e 33be 3c41 6bbe
00000080: 510e a2bd f2af d93c 6244 19be f334 8b3e
00000090: e533 c6bd 9b4f 8d3e d051 28be 9d87 86bd
000000a0: dbb7 b63d c130 3fbe cb40 36be b78e 7cbd
000000b0: d6be 2dbe b6b6 cb3d dc39 903d 188f 34be
000000c0: e0b4 853c 6432 033e c785 13be 8ed9 43be
000000d0: 14ab 43bd da46 0e3d 648c 143e 1a53 fabd
000000e0: 1588 153e 5fab 243e b1f8 11be fda6 e9bc
000000f0: e689 75be 26e0 c7bd db48 073e 2874 44bd
00000100: bc33 ed3d 50f8 cabd 947a d3bd 41bb 133d
00000110: 5e74 2fbe d60a 463e ed2a 85bc 007f ecbd
00000120: 2f3f 553e 67c2 06be 9ab2 3cbe 280e 023e
00000130: 8486 f73d f06d f73d 4656 073d de2f 0bbe
00000140: 2458 6b3e a37c a2bd 3410 273e 40b8 c1bc
00000150: 2a31 8dbd 59a3 023d b4aa 1f3d 1206 5f3d
00000160: dc45 ff3d d633 8ebd 2ace 7d3b 1f94 3a3d
00000170: b2ae 96bd 813b 643e 1bd5 a3bd 43b4 28be
00000180: 16e5 08be 3e0c 43bd 63ba 5dbe 1306 09be
00000190: 0ac1 09be ae8f 52bd 7c06 023e 8bf2 f33d
000001a0: 8a2c b33d def3 363e 9d5a 893d a076 aebd
000001b0: 8325 653e 6c46 f8bc c825 6abe 4aa5 813e
000001c0: b656 383e 5b6c 573e 07a4 9a3b b2a9 823d
000001d0: f2ea 7ebe 8b30 c23c 080a e33d f5c9 15be
000001e0: 54b8 cbbd 6dda 613c 430a 193e 805f 35be
000001f0: a651 503e 56d5 44bd 5ded 02be 6eff f4bd
0.22020474 0.013857119 -0.0070814057 0.13535991 0.16831104 0.19542551 -0.1117082 -0.04662417
-0.14870691 0.16758776 -0.08288675 -0.2377103 -0.06997172 -0.21648292 -0.08466888 -0.018722676
-0.05757313 -0.14959463 -0.048710003 -0.12199401 -0.026835835 0.17375642 -0.15139855 0.06354448
0.07195502 0.003043768 -0.0004822512 0.13562877 0.13982144 0.18334734 -0.17498097 -0.22974104
-0.07912887 0.026573155 -0.14967492 0.27188835 -0.09677867 0.27599797 -0.16437459 -0.06568835
0.089217864 -0.18670942 -0.17798154 -0.06165954 -0.1696733 0.09946959 0.07042286 -0.17632711
0.0163216 0.12812191 -0.14406501 -0.1912596 -0.047770575 0.034735538 0.1450668 -0.122228816
0.14602692 0.16080998 -0.14255024 -0.028522009 -0.23978385 -0.0975955 0.13211386 -0.047962338
0.11582133 -0.09910643 -0.10326114 0.03606725 -0.17134234 0.19340071 -0.01625582 -0.11547661
0.20824884 -0.13160096 -0.18427506 0.12700713 0.12086204 0.12081516 0.03304126 -0.13592479
0.22982842 -0.07933929 0.16314775 -0.023647428 -0.06894143 0.03189406 0.038981155 0.05444915
0.124644965 -0.06943481 0.003872762 0.045551416 -0.07357539 0.22288324 -0.07999631 -0.16475014
-0.1336864 -0.047619097 -0.21653132 -0.13381223 -0.13452545 -0.051406555 0.12697786 0.11911496
0.087487295 0.17866465 0.06706736 -0.0851872 0.22377591 -0.030307017 -0.22865975 0.25321418
0.18001828 0.21037428 0.0047192606 0.06380023 -0.24894312 0.023704788 0.11085898 -0.14627822
-0.09947267 0.013784987 0.14945321 -0.17712212 0.20343646 -0.048055016 -0.1278586 -0.11962782

graphsage.convs.0.lin_r.weight f4 [128, 23]
00000000: f14d 8cbd 86d2 6c3e e47c 3c3e d220 d0bd
00000010: c430 003e b60a 553e 85d3 a5bc 3044 f93d
00000020: 4362 8e3e f118 3fbe fe1d 01be ddf8 433e
00000030: 1b07 7c3c 91bd a43d 8a87 69be cc3f 9e3d
00000040: 5b1f 773d 3188 dfbd 3772 2a3e c4f7 c5bd
00000050: abfe ed3d 487b c9bd de45 d63c e9f4 83bd
00000060: b66e 9abd c8a5 0f3e 3bbc e7ba 929a c83d
00000070: 4127 25bc 707a 213d ce00 abbc 9ef1 8a3e
00000080: f2f1 8ebe 32c5 833e 2c8d 573e c51b dc3d
00000090: 7cfe 343d 8b2d 88bd fa3d 39bc d677 ef3d
000000a0: 1e10 0b3e 7efe c9bd e0c4 13be 2e4c 18be
000000b0: 2c81 f7bc 7485 183d 3cd7 ac3d 9467 1ebd
000000c0: e787 e13d 8ba4 c73d 9dd6 2fbe 4fa1 093d
000000d0: 0df1 9c3d c3fc b2bd b072 5d3d 5ce5 783d
000000e0: 19eb bdbd bf25 76be 5db3 1cbd 7b7f 2e3c
000000f0: 324b 783d 6175 3d3e 0d1d 353e 01ec 0c3e
00000100: fd5f 93bd 3a52 fdbd d47e c7bd e7e2 c13d
00000110: f76d dc3c f272 9d3d 7eda 2cbe d3b2 d5bb
00000120: 01bc d1bc 054f fb3c 73f2 173e 2593 7fbd
00000130: fb7f d33d fd3e 673d 700b 37be a77e cfbd
00000140: a1d9 c1bd cbca d23d 3ab9 7abe 4862 143e
00000150: c8c5 1fbb 2fc5 933d f85c 64be ef5b 113e
00000160: 52b0 ac3d 1b7c 843d 0284 6c3b 71e4 1dbd
00000170: 5aa9 39be 3845 c03c 9a7b a3bd d876 29bd
00000180: af95 69be 53b5 413e 5f55 bb3d 791f b8bd
00000190: 9f7e e9bd 8c41 433c 0da2 013e 2db3 4bbe
000001a0: c9b3 cfbc 5be4 df3d 9b2c 77bd dbdb 6a3d
000001b0: 72ea 063e 0a8c e33d 0acc d03d 22f5 fb3d
000001c0: ca04 993d 20aa 473c eec5 b03b e5f3 2abe
000001d0: 6b38 b63c cbda 993c 2b28 82bd 93b2 3cbe
000001e0: 6cf5 eb3d 41b9 5a3e 35f6 633e d5b1 5e3e
000001f0: f521 bcbd 5ce6 fb3d 36da f13c 4b08 313d
00000200: 183c 47bd f11a 2ebe 7f6b c83d 6711 51bd
00000210: 5eb6 173d 4a95 a8bd 1848 56be 9eb8 533e
00000220: c7f0 33bd ee6a fcbd 8f72 24bd 0c00 d63d
00000230: 3d23 24be 5c47 403e 1c6f febc c5b4 ca3d
00000240: c08a 81be 6f57 533d 4ec9 bebc 0024 893e
00000250: 9c0a 39be 8032 4939 056f df3d 8876 293e
00000260: 7285 85bd b3d7 67bc de56 12be 758e e53d
00000270: 6ad1 c6bd 35c7 283e ee55 15be 6083 79bd
00000280: d38c e1bd e6fd 343e 0f94 2cbc a389 0a3d
00000290: ab99 03be 26ed a73d 6178 55be 861b 13be
000002a0: 82e4 3c3c 219e 403e ba38 233e 0f0d 1bbe
000002b0: 68ca f63b 63ba 5fbe 8854 523e c0a1 29be
000002c0: 4384 cd3c 346a 03bc 1537 fabd 1102 e93d
000002d0: d1cf 7ebe e7c0 84bd 77de d5bc b77b e7bd
000002e0: b846 ccbb 73fb d9bd 5686 22be adb1 b9bd
000002f0: a81a 843d d8b8 97bd f055 b0bd 8bc3 893c
00000300: 4483 b9bd ab32 b6ba 8512 18be aba5 0f3e
00000310: f75d c63d 4ed2 e63d 023f 543c bd79 28be
00000320: e632 20bd 0a71 6dbd a74b 90be 9bcc 07be
00000330: 3242 fdbd 313c 48bd c635 a6bd 36f9 3d3e
00000340: ea29 f23d 6730 03bd fc47 9bbd 4319 b73d
00000350: 5ca2 38be 7748 193d 6838 68be e642 2fbe
00000360: f8b8 d6bc 4d9b 2bbe 6323 673d eeae c9bd
00000370: cc5f 273d d741 113e 6a02 833d 3455 7e3d
00000380: efda 8a3d c930 4ebc ddd3 b23b 6d6e 2ebd
00000390: a058 24bc 247f 23bd 9540 2ebe 97ef 28be
000003a0: 0d83 58be 6d49 153d 0e9b dfbc 4956 57bd
000003b0: e341 c3bd 4598 b1bd c12b f23d 2b8c 063e
000003c0: 8876 b3bd 2aac 40bd e11e 953d cbce 723e
000003d0: bc17 3dbd ef75 1cbe 16c6 dabd f77d 463e
000003e0: 1d8e 8cbd 73d4 55be eba3 273d 31e9 07bd
000003f0: 99c2 0d3d 0498 8d3c b178 023e 89a7 dcbd
-0.06850804 0.23127183 0.18407017 -0.1016251 0.12518603 0.20804867 -0.020242462 0.12171209
0.27809343 -0.18661858 -0.12609097 0.19137903 0.015382553 0.080439694 -0.2280561 0.07727012
0.060332637 -0.10914648 0.16645132 -0.09666398 0.1162084 -0.09837967 0.026156362 -0.06443197
-0.07540648 0.14028084 -0.0017679998 0.09795107 -0.01008016 0.039423406 -0.020874407 0.27137464
-0.27918965 0.25736386 0.21049947 0.10747484 0.044188008 -0.06649312 -0.01130628 0.11692779
0.13580367 -0.09862994 -0.1443057 -0.1487281 -0.030212961 0.037236646 0.0843949 -0.038673
0.110122494 0.09748181 -0.17171712 0.0336011 0.07663164 -0.08739617 0.054064453 0.06076561
-0.09273357 -0.24037836 -0.03825699 0.010650511 0.060618587 0.18501808 0.17686863 0.13761903
-0.07196043 -0.12369199 -0.097409874 0.09467106 0.026907904 0.0768794 -0.16880223 -0.0065215616
-0.025602343 0.030677328 0.14838581 -0.062396187 0.10327145 0.056456555 -0.17875457 -0.10131579
-0.094653375 0.10292586 -0.24484721 0.14490616 -0.0024379361 0.07215344 -0.2230109 0.14195226
0.08432068 0.06468984 0.0036089425 -0.038547937 -0.18131009 0.023470506 -0.079825595 -0.041373104
-0.22811006 0.18916826 0.091471426 -0.08990378 -0.11401104 0.011917483 0.12659474 -0.19892569
-0.025354283 0.10932227 -0.060345273 0.057338577 0.13175371 0.11110695 0.10195167 0.12302615
0.074716166 0.012186557 0.005394689 -0.16694601 0.022243699 0.018781086 -0.06355318 -0.18427496
0.1152142 0.21359731 0.2226189 0.21747525 -0.09186164 0.12299797 0.029522996 0.0432208
-0.048641294 -0.17002465 0.09786128 -0.051041987 0.037039153 -0.082316 -0.20925939 0.20675895
-0.043930795 -0.12325083 -0.040148314 0.10449228 -0.16029067 0.18777221 -0.03105884 0.0989776
-0.2530117 0.051597055 -0.023289349 0.26785278 -0.18070453 0.00019187666 0.10909847 0.16549122
-0.06519593 -0.014150548 -0.1429095 0.11208812 -0.09707911 0.16482241 -0.14583561 -0.060916305
-0.11013188 0.1767498 -0.010533347 0.033822667 -0.12851588 0.08199529 -0.20846702 -0.14365968
0.01152909 0.18810321 0.15939608 -0.151417 0.007531453 -0.21848445 0.20540059 -0.16565609
0.025087481 -0.008020926 -0.12217537 0.11377347 -0.24883963 -0.06482106 -0.026107056 -0.113028936
-0.0062340163 -0.10643663 -0.15871558 -0.09067092 0.06450397 -0.07408303 -0.08610141 0.016816875
-0.0905824 -0.0013900598 -0.14850815 0.14028041 0.09685891 0.11270581 0.012954475 -0.1645269
-0.03911104 -0.05796913 -0.28182718 -0.13261645 -0.123661414 -0.048885528 -0.08115725 0.18552098
0.11824401 -0.032028582 -0.07582089 0.08940365 -0.18030685 0.037422623 -0.22677767 -0.17115363
-0.026211247 -0.16758461 0.05643023 -0.09847818 0.040862843 0.14185272 0.06396945 0.062092975
0.067800395 -0.0125848735 0.005457385 -0.04258578 -0.0100308955 -0.039916173 -0.17016824 -0.16497646
-0.21143742 0.036446977 -0.027295616 -0.052572522 -0.09534051 -0.08671621 0.11824752 0.13139407
-0.087628424 -0.04703919 0.0728128 0.23711698 -0.046165213 -0.15279363 -0.10682313 0.1938399
-0.068630435 -0.20881824 0.04092781 -0.033181373 0.03460941 0.0172844 0.12741353 -0.10774142

graphsage.convs.1.lin_l.weight f4 [128, 128]
00000000: c894 bd3c 69f2 5a3d 1ddd 0cbd 43ea 9a3c
00000010: b74d dabb d706 02bd fc05 81bd 6539 923d
00000020: 7013 e53c ed69 a1bd 3e17 d03b 6ecc 6bbd
00000030: 21d2 26bd af54 83bd 4430 adbd ebbb a6bc
00000040: 8e33 b23d b2af b9bd 6b2c a6bd 3b1e 73bc
00000050: 5ccb 60bc fa4f 50bd 2918 05bd 25a9 a8bd
00000060: 6c5c 353d 029d 8c3d c9f1 0d3d 53cb 4f3d
00000070: 814c 833d 19be 8b3d 7a56 27bd 326d 093d
00000080: bb42 223d 8ac9 3d3c 5d76 94ba 129b c4bb
00000090: eb6e 94bc 1283 a63c 0831 a43a 9124 0339
000000a0: a1a4 78bc b612 893c 1949 36bd 30cc 3cbd
000000b0: 80d8 633d 1c58 603d b343 693c 8581 22bc
000000c0: 37c9 8cbc 65ea 09bd 298c f0bc 17de 843c
000000d0: 43d0 863c f147 d03c 02bd f43b 2182 8f3d
000000e0: dbd6 64bd 3bd9 23bc 72e1 203b 5087 093d
000000f0: 1668 4cbd 440e 1ebb 93ed d13c f676 403c
00000100: 0bd0 933d 3e79 533c d449 ccbc 7c9d 103d
00000110: 9903 7dbd 1e80 643d 2786 633a df36 a63c
00000120: e8d7 8c3d 50a7 53bc 06ab bd3b 2b96 e13c
00000130: dcef 59bd bff5 463d c6da 843d 833b 61bd
00000140: 1eb9 103d 1641 9abd f009 e9ba 96da a83c
00000150: f839 77bd 70b5 9b3d 36f6 3fbd 9036 70bd
00000160: fca3 d33c 2812 61bd e735 20bd 5171 89bc
00000170: 04e2 04bd 054c 0fbb 7baf 203c 011f bc3c
00000180: 7b17 bf3d 67d7 a4bd d699 25bd 8f77 843c
00000190: 1839 a43c 9746 8c3d e5dd 243c 0470 203c
000001a0: a1cd 82bd 9a83 1a3d 5e99 2a3d a308 76bd
000001b0: e803 c03c 2099 873d 424b 05bc 4a1c 77bd
000001c0: 523e 083b 3b53 a4bd 3d73 a03d 89ec 89bd
000001d0: 8b06 953c 8783 79bd 0000 383d a3c6 91bd
000001e0: 0f06 6c3d 9d4d 473c f140 0fbc 6aa0 a739
000001f0: ceed 25bd 0e95 50bc 8922 26bd e62f 363d
00000200: ddda 67bd ee76 a8bc 5050 80bb c842 d4bc
00000210: 94ef 623b 8bc7 fcbc 34e9 c13c afd9 803c
00000220: 65fe eb3c 970e 2cbd 2cd9 29bd 68be 983d
00000230: d3d3 a13d 2d07 4e3d caa5 713d 5a02 53bd
00000240: 8563 c1bd c99b 2ebd 8fc4 473d 8ffa 38bd
00000250: 69c2 68bd b22e 453d c9ec 823d 0d78 cb3b
00000260: d4c9 c5bd 55f9 893d 0f38 f43c b2e0 0c3d
00000270: 2943 253d 52d0 6dbc 0bcb d43b 0db2 97bc
00000280: 428c 6ebc 9d0c f4bb feff 8dbd 27cc bcbd
00000290: 205d f33c 88e3 4ebd a072 933d c0c6 fd3d
000002a0: 215e d0bd 87d5 923d d27b 11bd 3647 f83b
000002b0: 140b 17bd 618e ccbb 5cc9 db3b 3921 10bd
000002c0: 9ee5 8abd 8626 c1bd 5027 1bbe f62e 823d
000002d0: 06d5 61bd 3745 dabb 8f08 65bd cdcd 5a3d
000002e0: 4d76 2a3b 507d 8dbc 9a2d 533c 3dc8 c03d
000002f0: ba21 323d c2ca b0bd db48 973d bb11 cbbd
00000300: ed17 c83d dd17 d63d 588a 503d c683 2a3d
00000310: eeea 65bc 5a9a 953c a98d acbd 3e63 c53c
00000320: 1665 4ebc 5cb1 973d 3db7 223c f281 a63d
00000330: 45cf eb3d e38b 3d3d c455 71ba bcef c93c
00000340: 6de6 32bd 7f3f 5e3d 891f a6bd 7d57 36bd
00000350: c4a4 cbbc 9f8d 3dbc 5583 713c 51ec 85bd
00000360: 2761 383d 70e9 433d 4127 17bd 2482 a6bc
00000370: b851 4a3d 5efe a4bd 1a2c 983d 7b0c 3a3c
00000380: c978 5cbc d394 8a3d 262f 95bd 6c84 0f3d
00000390: 8fee 9d3d 420e 0cbd d3df 9cbd 8a55 ec3c
000003a0: 5553 f6bc 3d58 c93c 0fc8 87bc 21e2 473c
000003b0: 6f51 3e3d 3d92 f4bc f99e 8d3d eab0 ee3b
000003c0: cc13 9ebc c645 ba3d 0c92 ccbd 3b0c 9ebd
000003d0: 92df 5ebc 6ca1 cf3d e444 1d3d 247f 72bc
000003e0: 6885 35bd eee5 a3bd 7789 bdbd 0376 8f3b
000003f0: 9372 75bd 4ddb 6e3c 566b 9ebd 8645 2bbc
0.023142233 0.053453837 -0.034390558 0.018910533 -0.0066620964 -0.031744804 -0.062999696 0.071398534
0.02796337 -0.07881532 0.006350427 -0.057568006 -0.04072774 -0.064126365 -0.084564716 -0.020353278
0.087012395 -0.09066714 -0.08113941 -0.0148387505 -0.01372036 -0.05085752 -0.032493744 -0.08235387
0.044277593 0.06865884 0.034654412 0.050731014 0.06411076 0.068233676 -0.040853955 0.033551402
0.03961442 0.011583695 -0.0011326779 -0.005999931 -0.018119296 0.020326171 0.001252682 0.00012506756
-0.015175969 0.016732555 -0.044503305 -0.046093166 0.055626392 0.054771528 0.014237332 -0.009918575
-0.01718579 -0.0336708 -0.029363709 0.016219182 0.016456729 0.02542493 0.0074688205 0.07007242
-0.055868965 -0.010000522 0.0024548438 0.03357631 -0.04990395 -0.002411739 0.02562598 0.0117471125
0.072174154 0.012907324 -0.024937548 0.03530644 -0.06177101 0.055786245 0.0008679353 0.020289836
0.06877118 -0.012918308 0.00578821 0.027537426 -0.053207263 0.048574205 0.0648704 -0.054988395
0.03533279 -0.075319454 -0.0017779451 0.020612042 -0.060358018 0.07602966 -0.046865664 -0.058645785
0.02583503 -0.054948956 -0.039113905 -0.016777666 -0.032442108 -0.002186538 0.009807463 0.022964003
0.093306504 -0.08048897 -0.040429913 0.016170291 0.020046756 0.068494014 0.010062669 0.009792332
-0.06386877 0.03772316 0.04165017 -0.06006683 0.023439363 0.06621003 -0.008135619 -0.060329713
0.00207891 -0.080236875 0.0783448 -0.067345686 0.018191596 -0.06091645 0.044921875 -0.07117965
0.057622965 0.012164501 -0.008743511 0.0003197224 -0.04050999 -0.01273085 -0.04056028 0.044479273
-0.05660521 -0.020564523 -0.003915824 -0.02591075 0.0034627663 -0.030856868 0.02367077 0.0157288
0.028807828 -0.0420061 -0.041466877 0.07458192 0.079017304 0.050299812 0.058996 -0.051515914
-0.0944281 -0.042629037 0.048771437 -0.045160826 -0.05682603 0.048140235 0.063928194 0.0062093795
-0.09657636 0.067370094 0.029811887 0.034393974 0.040347252 -0.014514999 0.006493931 -0.018517518
-0.014559807 -0.0074477927 -0.06933592 -0.092186265 0.029707491 -0.05050996 0.07199597 0.12391424
-0.10174204 0.07169633 -0.035518475 0.0075768484 -0.0368758 -0.006242559 0.0067073535 -0.035187934
-0.06782077 -0.09431176 -0.15151715 0.06356613 -0.055134796 -0.006661083 -0.055916365 0.053418923
0.0026010454 -0.017271668 0.01288929 0.094131924 0.043489195 -0.08632423 0.07386943 -0.09915491
0.097701885 0.1045377 0.050913185 0.041629575 -0.014033062 0.018262077 -0.08425457 0.024095174
-0.012597343 0.074068755 0.009931383 0.08130254 0.11514143 0.046275984 -0.00092062005 0.024650447
-0.043676782 0.054259773 -0.081114836 -0.04451703 -0.02485884 -0.01156941 0.014740785 -0.065392144
0.045014527 0.047830045 -0.03690267 -0.020325728 0.04939434 -0.08056329 0.07430287 0.011355515
-0.013456532 0.06766667 -0.072843835 0.035038397 0.07711517 -0.034193285 -0.076598786 0.028849382
-0.030069033 0.024578208 -0.016574888 0.012199909 0.04646438 -0.029854888 0.06915087 0.0072842734
-0.01929655 0.090953395 -0.09988794 -0.077171765 -0.013603108 0.10138211 0.038395777 -0.0148008205
-0.04431668 -0.0800284 -0.09254735 0.0043780818 -0.05992372 0.014578653 -0.077353165 -0.010453587

graphsage.convs.1.lin_l.bias f4 [128]
00000000: cce2 903b d36f a13d a65d 8fbd 9860 bebb
00000010: aa4a 9f3c ceaf bb3d c6a1 b7bd dd2b c5bd
00000020: b736 b03c a359 24bd c111 53bc 1263 e23b
00000030: 5681 96bd f8ab 52bd 896c 8dbc 8f64 5e3c
00000040: 3b66 1fbd 21b0 0e3d 4d66 adbc b071 74bd
00000050: 07b6 773b 343a 8cbd f488 4d3d 90af 5e3d
00000060: d5a7 adbd c5e2 373d e759 80bd 47ae 043d
00000070: 276c e0bb 7f44 ba3d fec7 f5bc 8d41 893d
00000080: 6235 93bc e5a0 ecbb 2514 79bb 92fa ac3d
00000090: 1bbb 813d 79b6 e5bc 1b3b 13bd 3ad4 883d
000000a0: 639d 9d3d f95f 44bd f994 b53c 79f6 843d
000000b0: eadf 733d 9e5b 1f3d e372 8fbd d47a 65bd
000000c0: 2283 0c3c aa9d 313d 72e1 7c3d 5b69 97bd
000000d0: d754 b2bd 8b2a 1d3d 35b6 7bbb 2eb7 3a3d
000000e0: 5353 4b3c 903a 6fbd 9b64 d9bc e765 983d
000000f0: e89d 9dbd c38a c6bc fb60 ff3b f71c 6e3d
00000100: a692 f5bc 564c e6bc c0da 09bd 18d5 acbd
00000110: bdbe 72bc 830e debc bdb0 6cbd c3d3 4c3c
00000120: a1d8 22bb 3fd2 8a3d 89d3 623c 6cf1 f9bb
00000130: b966 09bd ac31 9b3d 955d 363b 4b06 8c3d
00000140: 9ebe e0bc 1da1 953c 3d34 04bd 74f5 a0bd
00000150: fbc4 6bba 18e0 74bd 7e16 ae3d 2001 053d
00000160: 61d0 e03c 72f4 843b da02 80bd ed86 f6bb
00000170: 6992 47bd 8ff9 913c 96d7 803d fc9f b03d
00000180: 83f5 a9bd fe88 963d 4f85 b53d c44c 5b3d
00000190: 1a17 96bd 3dc3 9abc ad3e bc3c 4f01 853d
000001a0: 0d9b 5a3c 087f 833d a9db 5f3d 70ed c53d
000001b0: 7abc a43c 6a94 94bd ca6f bbbd e449 9b3d
000001c0: 24e8 9d3d ad72 c9bc 075a 66bd 8fd0 1dbd
000001d0: 4c57 d8bc 5db3 d7bc f680 8dbc 65eb 49bd
000001e0: 9d68 bbbd 8f5c 0c3c 0fdf b43c afb1 8ebd
000001f0: 38f1 8d3d 6200 a33c 0407 23bc f6ac 9d3d
0.0044215675 0.07882657 -0.07000284 -0.0058098547 0.019444782 0.091643915 -0.08966403 -0.09627507
0.021510465 -0.040124547 -0.012882651 0.0069087828 -0.073488876 -0.051433533 -0.017263668 0.01357378
-0.038915854 0.03483594 -0.021166945 -0.059678733 0.0037797706 -0.06847039 0.050179437 0.05436665
-0.08479277 0.044894 -0.062671475 0.032392766 -0.0068488303 0.09095096 -0.03000259 0.06701956
-0.01796979 -0.0072213286 -0.0038006392 0.0844623 0.06334516 -0.028041111 -0.03594504 0.06681104
0.07696035 -0.04794309 0.022165762 0.064923234 0.059539713 0.038905732 -0.07004335 -0.05602534
0.008576186 0.04336325 0.06173844 -0.07393142 -0.08707588 0.03837065 -0.0038408164 0.04558485
0.012410003 -0.05840546 -0.02653723 0.07441311 -0.07696134 -0.024236089 0.0077935434 0.05813309
-0.029977154 -0.028112572 -0.033655882 -0.08439082 -0.014815983 -0.02710653 -0.05778574 0.01250166
-0.002484836 0.067783825 0.013844379 -0.0076276567 -0.03354523 0.075778335 0.0027826775 0.06837138
-0.027434643 0.018265301 -0.03227638 -0.078593165 -0.0008993891 -0.059784025 0.08500384 0.032471776
0.027443113 0.0040574605 -0.06250544 -0.0075234086 -0.048723612 0.017819194 0.0629112 0.086242646
-0.08298781 0.07350348 0.08863317 0.053540006 -0.07328625 -0.018891925 0.022979105 0.0649439
0.013342631 0.06420714 0.054652844 0.09664428 0.020109404 -0.0725487 -0.091521814 0.07582453
0.07710293 -0.024590814 -0.0562382 -0.038528975 -0.026408814 -0.026330644 -0.017273407 -0.049296755
-0.09150813 0.00856699 0.022079019 -0.06967484 0.069307745 0.019897643 -0.009950403 0.07699005

graphsage.convs.1.lin_r.weight f4 [128, 128]
00000000: a641 3a3d cee2 253d dc46 99bd 8ce6 1a3d
00000010: 3f82 443d 3f42 cf3d 4ffd 9eba 8309 e0bd
00000020: 098f c53c cba1 763c a62b b1bc 7e1d 8f3c
00000030: b1e2 a5bc bd89 a63d cd8a 903d 1fd5 b4bd
00000040: bee5 dfb9 40fa 9ebd afbd 993c 86ff b4bd
00000050: 5894 7abd c505 8bbd 5021 52bc 69ea e8bc
00000060: 9287 d93c 7c22 33bc 1f4e a23d 2ee7 593d
00000070: 13ad 30bd 2103 153d d1b6 9d3d b373 d4bb
00000080: 3796 24bd a726 67bc 1f0f dd3c 35c2 a33b
00000090: 525b 3cbd 54fa bb3d ee70 86bd 62c9 4c3d
000000a0: 3834 9abc e8b8 23bc f60d 413c 62fd 24bc
000000b0: a19b d53d b124 56bd fc5f aa3d cbff 573d
000000c0: e449 e4bc 7ae9 c13d 42aa cc3c 4e28 b23d
000000d0: f03c 6b3c 8273 0bbe 5676 4e3c 9772 d23d
000000e0: a8ac 5d3d 7ed6 163d 12e6 aebd 4d6f aebc
000000f0: 085d a13d f675 453c 55cb 40bd 4b91 b2bd
00000100: 1edc a53d 1804 3cbd c0f3 993d db4d 833d
00000110: f78b 55bd 4c10 3e3c 2f8d 903d 7b39 8c3d
00000120: 9e8b 2fbd 6711 253d be65 cd3c eab3 863c
00000130: 84cd f73c 6933 37bb 31cd 9a3d 92fb 883c
00000140: 1fcc 343d a087 823d 356b c6bc a4f5 e6bc
00000150: b702 763c a266 15bd e4bc 37bc 96c6 39bd
00000160: 05e4 e8bc 59c6 533d 4fa0 97bd a91a 85bd
00000170: 3ad2 2d3c 7000 26bd c41a ac3d 3599 9d3c
00000180: f11d 763c 9daa 26bd f184 24bd d930 513c
00000190: d8f1 c7bb ec30 f5bb 2161 c73c 99db 6fbd
000001a0: 9dc6 b8bc 6a64 973d 8798 773d 6ea2 f23c
000001b0: 4bbb 8f3c 5276 fc3c 9f1e fe3c 5228 9c3c
000001c0: 8672 19bd 5fb6 c83d 913b e83c 5006 60bc
000001d0: f92d 49bd 1965 85bd 5f29 6ebd 44cc acbc
000001e0: ff52 f63c f4ec e0bc 5819 90bd 058c 98bd
000001f0: 7c29 a03d d3b4 093c af1f 213d 99b2 eb3b
00000200: a9b5 683d 22de 0dbc 844e c4bc 75fe c53d
00000210: 5c36 9ebd bd16 87bd ca3a cf3b ac70 8f3d
00000220: e8e2 c23c b971 01bd 25ad 2f3c 9777 6a3d
00000230: 11e2 54bd 55f5 10bd c76d 01bd e4b3 d33d
00000240: a40d 68bc bb4a 6a3c 7999 63bd 0340 72bd
00000250: f027 22bd b24f c43d 9ae4 1b3d 8945 a53d
00000260: 3e57 1cbd 2025 b9bc 5ca2 5ebd 10bd d4bd
00000270: 4f9d 43bd 82c8 07bd eab2 843d a53b 44bd
00000280: 578e c53c 4f76 cabc 9480 ec3d c5de 223d
00000290: 4862 28bd 787c 8a3d 5277 d7bd 0c79 98bc
000002a0: 7b0e 0ebe ad88 cc3c a220 1abe 226e 293d
000002b0: 14e9 1e3c 2610 343c 424a 92bc daac 083d
000002c0: 12bd a7bd 6b97 50bd 1958 e9bc 6936 2e3d
000002d0: b06a 18bd b683 61bc 349f e93d 9fd2 d23b
000002e0: 98ce 81bd 9d2b d63d f39a 463d c51d 963c
000002f0: fd7f ad3d f07d 21be 0b06 773d c67a 523d
00000300: 5866 083e e585 14bd 0e1f cf3c 674d 493d
00000310: c443 893c 5f37 26bc 89ab a6bd 57f7 91bd
00000320: e8ce 58bd f295 df3d b2ea 18be 3398 a2bd
00000330: a0f0 083e f5c9 dd3d bfb4 50bd e0af 8e3c
00000340: 41d4 bd3d 6f78 df3d 5c2b c9bc f7cc e93c
00000350: 4ae2 383d 3444 dd3d 34c4 513d 9905 0abc
00000360: e0d3 82bd 064c d3bc 9f11 e13c 7b86 123c
00000370: 0d28 d6bc ad7f 9cbc da3f adbc 6c1a ba3b
00000380: cc58 a1bc 3314 c13c 2e85 c7bd 2c03 ec3c
00000390: e5b2 0e3e ece0 003e 932a 20bd 1ec6 543d
000003a0: e2dc ad3d f199 e4bd e449 7e3b 24ff c33b
000003b0: dbc9 b0bd b9fc c23d 1384 13be 4e3c 32bc
000003c0: 5ff2 af3d d205 d7bb 664c ad3d a7fe b03d
000003d0: 4625 19be f78a 233d fed9 0c3d f997 dcba
000003e0: bcb0 a53c 2f60 653d e228 b0b6 321a 7f3d
000003f0: fbb6 a8bc 1892 ce3b a45f 8e3d 4024 06bd
0.045472763 0.0404995 -0.074842185 0.037817523 0.047975775 0.10120057 -0.0012129935 -0.10939314
0.024116056 0.015053223 -0.021627259 0.017470118 -0.020249696 0.0813174 0.07057724 -0.08829712
-0.00042705046 -0.07762575 0.018767206 -0.088378 -0.061176628 -0.0678821 -0.012825325 -0.028432088
0.026553903 -0.010933515 0.07925057 0.053198986 -0.043133806 0.036379937 0.07700885 -0.006483519
-0.04018232 -0.0141083365 0.02698475 0.0049975165 -0.045985527 0.09178606 -0.065645084 0.04999674
-0.018823728 -0.009992816 0.011783114 -0.010070177 0.104300745 -0.052281085 0.08319089 0.052734178
-0.027867265 0.0946836 0.024983529 0.08699094 0.01435779 -0.13618281 0.012601456 0.102757625
0.054119736 0.03682565 -0.08539976 -0.021293307 0.078790724 0.01205205 -0.047068913 -0.08719119
0.08098625 -0.04590234 0.07517195 0.06411334 -0.052135434 0.011600565 0.07058179 0.06846901
-0.04285776 0.0402998 0.025072929 0.016443212 0.030249365 -0.0027954227 0.075586684 0.01672152
0.044139978 0.06373525 -0.024221042 -0.028193302 0.015015296 -0.03647483 -0.011214469 -0.045355402
-0.02842904 0.05170283 -0.07403623 -0.06499226 0.010609204 -0.04052776 0.08403543 0.019238094
0.015021787 -0.040690053 -0.040165845 0.012767994 -0.006101828 -0.0074826386 0.024338307 -0.058559034
-0.022555644 0.07392199 0.060448196 0.029618468 0.017545363 0.030818138 0.03102046 0.019062195
-0.037462734 0.098004095 0.028348716 -0.01367338 -0.04911611 -0.065134235 -0.058144923 -0.021093495
0.030068872 -0.027456738 -0.07036084 -0.074485816 0.078204125 0.008404928 0.039336856 0.0071929214
0.05681387 -0.008658918 -0.02396322 0.096676745 -0.07725212 -0.06596134 0.006324147 0.07003912
0.023789838 -0.031602595 0.010722433 0.057242956 -0.051973406 -0.035390217 -0.031598832 0.10337046
-0.014163408 0.014300044 -0.055566285 -0.059143078 -0.03958887 0.09585513 0.03805981 0.080699034
-0.038169138 -0.02260071 -0.054354057 -0.10387623 -0.047757443 -0.033150204 0.06479438 -0.047908444
0.024115724 -0.024714617 0.11547962 0.03976323 -0.041109353 0.06762022 -0.105208054 -0.018612407
-0.13872711 0.024967516 -0.15051511 0.041364796 0.009699125 0.010990178 -0.017857675 0.03336797
-0.08190359 -0.050925653 -0.028484391 0.04253236 -0.03721112 -0.0137643125 0.11407319 0.0064337994
-0.06338233 0.10457537 0.048487615 0.018324742 0.084716775 -0.15770698 0.060308497 0.051386617
0.13320291 -0.036260504 0.025283363 0.049146082 0.016755946 -0.010145037 -0.081381865 -0.071272545
-0.052931696 0.10917272 -0.14933279 -0.07939186 0.13373041 0.10829536 -0.050953623 0.017417848
0.09269 0.10911643 -0.024556808 0.028540118 0.04513768 0.10804024 0.051212505 -0.008424186
-0.06388068 -0.025793087 0.027474223 0.008943195 -0.026142145 -0.01910385 -0.02114861 0.0056794193
-0.019695662 0.023569202 -0.09742199 0.028810106 0.1393543 0.12585801 -0.039103102 0.05194675
0.08489396 -0.111621745 0.0038801366 0.005981343 -0.08632251 0.09520859 -0.14405851 -0.010878636
0.085911505 -0.006561973 0.084618375 0.08642321 -0.14955625 0.03992745 0.03438758 -0.0016829959
0.020225875 0.05599993 -5.249968e-06 0.06228084 -0.020595064 0.006304037 0.06951836 -0.032749414

graphsage.norms.0.weight f4 [128]
00000000: e258 803f 28fb 793f 3298 873f 6e0b 803f
00000010: b757 843f ec6f 833f e2d0 823f dcaa 853f
00000020: 55d1 843f 8ab3 843f fcf3 863f 0a04 893f
00000030: 04db 833f 4ea7 833f 8b10 863f 08a3 833f
00000040: 8925 823f cfe9 823f b99d 803f 2ab2 843f
00000050: 137d 833f 88c2 803f 8470 833f 4fec 813f
00000060: 2d09 833f 2626 853f c1de 813f 56b3 873f
00000070: dbe6 833f 69e3 803f 38b1 813f 1f08 873f
00000080: c081 833f cea7 853f a3fb 873f 080e 873f
00000090: 4a0a 893f f450 883f d6d9 8a3f 13b5 803f
000000a0: 22b5 883f 38ae 883f 49af 8f3f 68d6 8a3f
000000b0: 3dbd 853f dec6 863f 7a71 8b3f 5da2 813f
000000c0: 4701 823f dc1b 803f f95e 893f be06 893f
000000d0: e75b 863f f53b 883f 98bf 853f 7f47 833f
000000e0: 3eca 853f fed4 863f c8e5 833f 90a4 883f
000000f0: a0f3 823f 8ff5 8b3f b7fd 813f bbac 843f
00000100: 2e83 843f 0967 8a3f 8d84 873f ac33 7f3f
00000110: a8c9 823f cea6 833f 7982 873f 0a62 863f
00000120: 60c9 863f e313 863f 47c4 8b3f 299e 823f
00000130: 5860 843f 2027 833f 8107 853f 76b9 883f
00000140: 13da 823f c483 823f 4c3e 8a3f 4ea7 893f
00000150: 28e8 853f 1b55 833f 58ce 883f 3efd 813f
00000160: d708 823f 2cfa 7e3f dcd6 893f fbe0 873f
00000170: 6cfa 7f3f 249e 863f 6ad7 833f e138 8d3f
00000180: 7825 883f df5f 843f 6369 863f 0892 883f
00000190: e483 893f 9b59 863f baf4 803f 2d4a 853f
000001a0: 8f8b 823f 7154 843f 2372 823f 3c55 873f
000001b0: 9dda 833f 8038 873f e5b3 8a3f 030e 7e3f
000001c0: 4e69 803f 8a64 863f 9403 853f 31ec 803f
000001d0: 9223 8d3f 7423 863f c8ea 8c3f 2db2 883f
000001e0: 79a2 803f fa7b 863f 308e 823f d42e 833f
000001f0: ea2a 803f e02e 843f 8695 823f 44d0 893f
1.0027125 0.9764886 1.0593321 1.0003488 1.0339268 1.0268531 1.0219996 1.0442767
1.0376383 1.0367291 1.0543208 1.0704358 1.0301213 1.0285432 1.0473799 1.0284128
1.0167705 1.0227603 1.0048133 1.0366871 1.0272545 1.0059366 1.0268712 1.0150241
1.0237175 1.0402267 1.0146104 1.0601604 1.0304826 1.00694 1.0132208 1.0549353
1.0273972 1.0441835 1.0623668 1.0551157 1.0706265 1.0649705 1.0847728 1.005526
1.0680277 1.0678167 1.1225368 1.0846682 1.0448376 1.052944 1.0894005 1.0127674
1.015664 1.0008502 1.0732108 1.0705183 1.0496796 1.0643297 1.0449095 1.0256194
1.0452344 1.053375 1.0304499 1.067522 1.0230598 1.0934314 1.0155553 1.0365213
1.0352533 1.0812694 1.0587326 0.9968822 1.0217791 1.028528 1.0586692 1.0498669
1.0530205 1.0474819 1.0919274 1.0204517 1.0341902 1.0246315 1.0392915 1.0681598
1.0222801 1.0196462 1.0800261 1.0754182 1.0461473 1.0260347 1.0687971 1.0155408
1.0158948 0.9960048 1.0768695 1.0615534 0.9999149 1.0517011 1.0300114 1.1032983
1.0636435 1.0341758 1.0500911 1.0669565 1.0743375 1.0496095 1.0074685 1.0413262
1.019884 1.033827 1.0191082 1.0572886 1.030109 1.0564117 1.083615 0.9924013
1.0032136 1.0499432 1.0391717 1.007208 1.102648 1.047957 1.100915 1.0679375
1.0049583 1.0506585 1.0199642 1.0248666 1.0013096 1.0326805 1.0201881 1.0766683

graphsage.norms.0.bias f4 [128]
00000000: d2a2 b13b 2451 7dbc 84fd 143d 3bf3 23bb
00000010: af3b b73b 71e3 86bc 8efb c1ba cf94 6e3d
00000020: a5de bf3b 6ba9 0a3d 76ee ee3c a516 cd3c
00000030: 0c31 21bd e5ad 66bc efff 8fbc 3617 653c
00000040: b503 c1bc ffad 07bb 9ee3 533c 0b93 cc3c
00000050: c45e a03c 249b aabb 1e6f d3b8 533e ed3c
00000060: b315 25bd e1c6 803d 3d3d 8bbd be26 58bc
00000070: 38f7 49bd 78e1 453b 7ce3 24bd f9d0 5c3c
00000080: e97d feba f88f d23c 9ac1 b5ba e0d0 323d
00000090: c09d 513d 802f cb3c 7107 75bb 98e2 773c
000000a0: d174 323c 4692 093d 76f6 5b3c 42ea 1d3d
000000b0: 5804 b2bc 265d 813b e8c2 d2bb 1a31 03bd
000000c0: cde8 04bd 6f5b 883c 2962 313b 5e24 0abd
000000d0: b297 923d 7f54 2b3d 513b e13c 8e15 923c
000000e0: 993d 403c 46b9 ea3c d4df 9c3c 223c 413d
000000f0: a68b 18bb a9e2 c9bb 7697 93bc 10b5 13bb
00000100: 8f8d c0bb 1018 c8bc 8bdd 06bd f650 b63c
00000110: c474 793c 7759 183c cc5f d4bc e4ce d0bc
00000120: 6298 093c bb50 87bc 0d15 863c a0a1 4b3b
00000130: fa5f 383d 4ef6 12bc 4a96 87bd bdd0 6b3b
00000140: 7861 d63c 30db efbb 190a 193c 8e86 1fbc
00000150: 54f1 553d 1d3a 5d3d d673 4b3d 2411 fd3c
00000160: ee48 dc3c 554d 4bbd f07f 373d 9a75 21bc
00000170: d609 2ebd b076 293d 52ff f43c 13fb a83c
00000180: 4a8b 4a3d d7eb 593d 42c6 153c 66bd d23c
00000190: b232 543d 5dc2 0bbd 718e aebb d774 233d
000001a0: a456 033d c277 383d e449 e53b eaa4 a93c
000001b0: 48ef 0dbd b650 e9bc 0272 8a3c 0002 c43c
000001c0: bc59 f33b a471 0e3c 3a57 133d e44d 3a3b
000001d0: bceb 173d 54f3 343d b597 1fbc 0dcb 3bbc
000001e0: dba7 e9bb 4d45 e03c cd13 bb3c e484 b43c
000001f0: 9b01 0cbc f717 9bbc efd2 0a3d ffd0 583d
0.005421021 -0.01546124 0.036374584 -0.0025016803 0.0055918316 -0.016465874 -0.0014799701 0.058247384
0.0058553987 0.033852976 0.029166441 0.025035212 -0.039353415 -0.014079546 -0.017578093 0.013982585
-0.023561338 -0.0020703075 0.012932686 0.02497246 0.019576438 -0.0052064825 -0.00010081961 0.028960383
-0.040303897 0.06287933 -0.0679879 -0.013192831 -0.04930803 0.0030194204 -0.04025601 0.013477557
-0.0019416186 0.025703415 -0.0013866902 0.04365623 0.051175833 0.024802923 -0.0037388469 0.015129708
0.010892109 0.033586763 0.01342546 0.038553484 -0.021730587 0.0039478717 -0.006431926 -0.03202925
-0.03244858 0.016645161 0.0027066565 -0.03372609 0.0715784 0.04182863 0.027494105 0.017832544
0.011733436 0.028652798 0.019149698 0.047176488 -0.0023276596 -0.006161053 -0.018016558 -0.0022538342
-0.00587625 -0.024425536 -0.032926124 0.022255402 0.015225593 0.009298674 -0.025924586 -0.025489278
0.008398147 -0.016517987 0.01636746 0.0031071678 0.045013405 -0.008969856 -0.06620462 0.0035982572
0.026169524 -0.0073198304 0.009340786 -0.00973667 0.0522321 0.0540105 0.049671017 0.030891962
0.026890244 -0.049634296 0.044799745 -0.009854699 -0.04248985 0.041372955 0.029906902 0.020627534
0.049449243 0.05320343 0.009141507 0.025725078 0.05180616 -0.034120906 -0.005327039 0.03990635
0.03206505 0.045036085 0.006997334 0.02070852 -0.034652025 -0.028480869 0.016900066 0.023926735
0.0074264687 0.008694086 0.035971858 0.0028427774 0.03709005 0.04417737 -0.00974076 -0.011461985
-0.0071306056 0.027376795 0.02283659 0.022036023 -0.008545305 -0.018932326 0.03389257 0.05293369

output_layer.0.weight f4 [32, 128]
00000000: fd5e 8e3c 6944 ccbd 54a8 e4bd 4300 a43d
00000010: 216c 143c eac2 2dbc 91c4 7ebd d8a8 8ebd
00000020: 9902 933d 640f 3c3d 4432 8d3d 9a22 92bd
00000030: fa2e 4bbd 5865 d23b c5c0 473d 9761 3d3d
00000040: 3ea0 b93c b69a 8abb 698e 9d3d a502 8abd
00000050: f98b ce3b 3dd4 67bd ace3 c63d 5aaa 29bd
00000060: 812a df3d a2c5 d93c 4fcd 4ebd bc9f 18bd
00000070: 3576 333d c8f1 4b3d a609 403d 7c41 c4bc
00000080: bcc1 c8bd 53d4 cc3c d011 30bd 5e9f 33bd
00000090: 1d37 7b3c 877f 993d 9aee 623a 28e5 c23c
000000a0: 3032 063e fc0b f3bd ede8 cebd 17d6 083e
000000b0: d5ca 0e3e b219 9e3d c840 e5bd f98e 5bbd
000000c0: f400 7cbd 564d b03d 1117 b1bd d183 3a3c
000000d0: 68cb fabd e8ab d2bd 9683 ef3b b230 e2bd
000000e0: adda 433d a501 a43d 9f1a acbd 1fbc e0bb
000000f0: 874c c13d d713 1ebd 0f55 8a3d 9f23 04bc
00000100: 8912 f63d 5b89 b13d 7e03 673d 086c 5cbd
00000110: a240 083e 5f57 f13d d82f f5bd c350 21bd
00000120: bef3 18be 48cc 09be 0d12 123d 03fc cabd
00000130: 4eaa dbbd 56f5 903c bdd1 b03d a5f0 63bd
00000140: 453d 643d 68ea febb 32ef febc 8914 aabd
00000150: c361 8b3b a90a d43c 6014 4eba 45d0 38bd
00000160: 9853 e5bc a7f4 04bd 2031 c43d bea7 38bd
00000170: 4257 c6bc dfe5 29bd 7de0 a83d 38e2 ba3d
00000180: 87d7 8abd 2d35 b73d 8ef7 2139 af59 94bc
00000190: f8f7 90bd 5b08 12bd ec86 d8bd f076 6936
000001a0: b04a b9bd 4b51 803d 3c16 bfbc c545 97bd
000001b0: 52a5 243d 4b43 85bd 7a04 983d 12ab e53d
000001c0: ba6b 123d 325a 9fbc 2439 e73d f837 423d
000001d0: acb6 533d b3c5 1ebd 6a3d d3bb e85e e43c
000001e0: 7bf5 9f39 af9a 13be 1f5c e4bd e2d0 ebbd
000001f0: cfdf 3cbd db79 c3bc b65f 033e 78f3 7d3c
00000200: 78a9 24bd 3b28 9cbd d515 dfbc 688d f7bb
00000210: 5b04 da3c 9888 febc f029 2c3d c754 cdbc
00000220: d893 153d 32cf bcbb 9d7b 253d 44bd 4fbd
00000230: 6c3b f6bc 8422 f73b cfe2 843d ef59 43bd
00000240: 1b5f 9a3c 871f 8a3d 4823 22bd d097 ff3c
00000250: b265 ee3b d073 28bd d9e2 42bd a34d 9bbb
00000260: 71cf a0bd ddad 80bd f8b1 83bd 1822 c2bc
00000270: d563 823d ea84 28bd e859 5bbd cdfc 82bc
00000280: 6abe 923d 4a05 80bd f394 2cbd 78b0 4bbc
00000290: 0f36 963c 2397 ebbc 40c8 bf3d 5ca4 033d
000002a0: a36f f83c a317 3dbd 5516 d3bb 2ca9 50bd
000002b0: e69f 883d f405 b9bc aeb4 663d 8fc8 07bd
000002c0: 8e60 31bd dc65 ed3a c934 763d 60f2 01bd
000002d0: 793b f73b 4c51 8d3d 120d 2fbc f336 5abd
000002e0: 7255 a9bc ab2c 7a3d 6a14 42bd ca28 76bd
000002f0: 0f01 91bd 6edf 8fbd 26ce ad3c cb0d 293d
00000300: beee 8abb 03c8 36bd b993 dd3c 056c 36bc
00000310: 8824 e1bc ee98 58bc c398 923d e284 a1bd
00000320: 46c2 8a3d 867f 293d ca4d 5bbc b250 71bc
00000330: 309e 013d 664d b83d 8549 923d f130 fdbc
00000340: e9be cfbd 0888 87bd 75b4 cbbc 5ece 1ebb
00000350: bdc6 4b3b 0daf 743d 73e5 77bd 0c1c 5abd
00000360: 4132 4d3d bed3 d6bc 33e7 853c c26b 6fbd
00000370: 40aa 9ebc 0028 ae3c ddb1 47ba 27c3 9cbc
00000380: 868c 30bd b5f4 13bc 1c62 a83c df28 a03c
00000390: 170b 943d c661 f83c bfe9 e53c 2960 ccbd
000003a0: 94a2 02bd 4f2d 443d 582c 3c3d a26a d53d
000003b0: cc6a 8a3d 5b72 d8bb 162f 3dbc 5d42 adbd
000003c0: 53e5 82bb b0b0 c5bc 3b45 eeba 0c46 623d
000003d0: 7d86 c7bc b847 913c 8c21 2abd d202 813d
000003e0: 04e9 36bc 96be 143d e527 16bb e5e5 cebd
000003f0: 6b60 c73b e3c9 9a3d 98c9 20bc 1ff6 313b
0.017379278 -0.09973986 -0.111649185 0.080078624 0.009058983 -0.010605553 -0.06219918 -0.06965798
0.0717823 0.045913115 0.06894353 -0.07135506 -0.049605347 0.0064207725 0.048767824 0.046235647
0.022659417 -0.0042298688 0.07693178 -0.06738786 0.006303307 -0.05659889 0.09711394 -0.041422226
0.10896779 0.026583496 -0.050488766 -0.03726171 0.043813903 0.049791127 0.0468842 -0.023957007
-0.09802577 0.025003588 -0.042985737 -0.043853156 0.015332964 0.07495027 0.000865677 0.02379091
0.13105083 -0.1186752 -0.10103021 0.13362919 0.13944562 0.07719745 -0.11193997 -0.053603146
-0.061524346 0.08608501 -0.08646978 0.011383967 -0.12245828 -0.10286695 0.0073093874 -0.11044444
0.047815967 0.08008126 -0.08403515 -0.0068583633 0.094384246 -0.03859314 0.06754505 -0.008065133
0.12015254 0.086687766 0.056399815 -0.053813964 0.13305905 0.11784243 -0.11972016 -0.03938366
-0.1493673 -0.13456833 0.035661746 -0.09911349 -0.107258424 0.01769511 0.086337544 -0.05564942
0.055722494 -0.0077794082 -0.031119917 -0.08304698 0.0042535975 0.02588399 -0.00078613125 -0.045120496
-0.027993962 -0.03245988 0.09579682 -0.045081846 -0.02421153 -0.041478988 0.08245943 0.09125179
-0.0677939 0.08945689 0.00015446378 -0.01810917 -0.07078546 -0.0356525 -0.10572609 3.4788936e-06
-0.09047449 0.062655054 -0.023326032 -0.07386354 0.040196724 -0.06506976 0.07422729 0.1121427
0.035747267 -0.019452188 0.112901956 0.047416657 0.05168788 -0.03876276 -0.00644653 0.027877286
0.0003050974 -0.14414476 -0.11150383 -0.115144506 -0.046111878 -0.023861816 0.1282948 0.015499942
-0.04020068 -0.07624861 -0.02723209 -0.0075546987 0.026613405 -0.031070992 0.042032182 -0.025064839
0.036517948 -0.0057620043 0.04040109 -0.050717607 -0.030057631 0.0075419564 0.06488573 -0.04769319
0.018844178 0.067442946 -0.039584428 0.03120032 0.0072753066 -0.041126072 -0.04757962 -0.0047394796
-0.07852066 -0.06283162 -0.06430429 -0.023697898 0.06366698 -0.04114238 -0.05355254 -0.015989685
0.07165225 -0.06251009 -0.042134237 -0.01243221 0.018336324 -0.028758591 0.093643665 0.032139167
0.03032667 -0.04616512 -0.006441871 -0.050942585 0.06671123 -0.022585846 0.056324653 -0.033150252
-0.043304972 0.0018112021 0.060108934 -0.031725287 0.0075449315 0.06900272 -0.010684269 -0.05327506
-0.020670626 0.061077755 -0.04738275 -0.060097493 -0.0708028 -0.07025038 0.021216463 0.04127292
-0.004239886 -0.04462434 0.027047979 -0.011134152 -0.02748324 -0.013220055 0.07158043 -0.078866735
0.06775336 0.04138138 -0.013385246 -0.014728712 0.031645 0.089991376 0.07142929 -0.030907126
-0.10143835 -0.06617743 -0.024866322 -0.002423189 0.00310938 0.059737254 -0.060521554 -0.053249404
0.050096754 -0.026224013 0.016345596 -0.058452375 -0.01936829 0.021259308 -0.0007617751 -0.019136025
-0.043102764 -0.009030511 0.020554595 0.019550739 0.07228678 0.03032006 0.02806556 -0.099792786
-0.031893328 0.047894772 0.045940727 0.10420729 0.06758651 -0.006605429 -0.011546871 -0.084599234
-0.0039946227 -0.024132103 -0.0018178591 0.055242583 -0.024356121 0.017734393 -0.0415359 0.06299366
-0.011163954 0.03631457 -0.0022911963 -0.10102443 0.006084492 0.07558038 -0.009813689 0.0027154756

output_layer.0.bias f4 [32]
00000000: 93ee 1f3d 49df 4bbd 56a8 dbbb cff5 10bd
00000010: d06e 583d e58b 8c3d c058 693b abca 923d
00000020: acb8 80bd eab0 5fbd 4f8c 0d3d e334 533d
00000030: 5e7c a9bd 4a4c 0f3d b466 cebc f149 1ebd
00000040: e4fa 48bd 66be 923d 9d10 a03d 65d2 7d3d
00000050: cb85 9e3c f995 f23b 326b 9abd cf5f c13d
00000060: 8705 3bbd 32ac 5abd 3247 843d 1c6c 21bd
00000070: 867a 02bd 8025 543d 7a26 d83d 135e 9f3d
0.03904588 -0.04977349 -0.006703417 -0.03539067 0.052840054 0.0686262 0.0035605878 0.07167562
-0.06285223 -0.054612078 0.034557637 0.05156411 -0.08275674 0.034984864 -0.025195457 -0.038644735
-0.049067393 0.07165222 0.07815669 0.061968226 0.019350907 0.007403132 -0.07539977 0.09442102
-0.04565957 -0.053386874 0.06458892 -0.03940974 -0.03185513 0.051793575 0.10554214 0.07781615

output_layer.3.weight f4 [3, 32]
00000000: d0e6 1a3e 1be0 8bbd 006a cabd 8509 d7bd
00000010: 009a 133e 6219 8a3e efb4 6d3e 0c08 e83d
00000020: b60e 9c3d 91d7 ffbd 7214 eebd 72f4 0d3e
00000030: 590b 0ebe e0c6 01bd 4744 093e c47c 0ebe
00000040: 1057 893e 96ed 533e 5d50 07be b684 9d3d
00000050: 7e2d 01be 9c0e d73d a3de 2b3e b59f 24be
00000060: 49df 20bd 3c7b 0a3e f7e2 89bd 9816 d73d
00000070: dbc6 9bbd 2053 803e 0935 033e 9a13 7cbc
00000080: 8844 d63d 9d12 debd a082 813d fde2 cdbd
00000090: 7b05 413d cf72 32bd 6077 65bd 1d38 1f3d
000000a0: 7ccb 3e3e 99ae 443e 6860 bfbc 9a5c 7c3e
000000b0: c667 503e 5b6e 0f3e 95b0 af3c 7fd2 863e
000000c0: 5e28 0f3e c33f a83d 0ab9 b8bd 830b ef3d
000000d0: d62b e5bd a900 c53d cd57 223e 98cf cbbd
000000e0: 118b 283d db5d 1c3e 1044 c9bc 3937 f93d
000000f0: 6f32 52bd d7f5 623e f56e 803c 7dc7 e3bd
00000100: 9ec1 783d 7ace 78bd b727 133e 036b e5bd
00000110: 9197 adbd 8fe9 7abc 6046 e1bd 05e9 1abe
00000120: fba3 653e 2624 213e b513 c0bd b779 403d
00000130: 1b48 f03c a52f 203e 59b7 0b3e 2b60 99bd
00000140: dd61 cabc 2c94 4a3e 1405 ddbd 88b0 e73d
00000150: c96c cabd 7ba1 883d e485 ebbd 2b93 61bd
00000160: fb06 1b3e f2af 643e f033 89bd 6627 0a3e
00000170: 9e5a 75bd cca5 a2bd 568f 9cbd 86d1 d2bd
0.1512711 -0.06829854 -0.09883499 -0.104998626 0.14414215 0.2697249 0.23213552 0.1132966
0.076199934 -0.12492288 -0.116249934 0.1386278 -0.13871516 -0.031683803 0.13404952 -0.13914782
0.26824236 0.206961 -0.1321425 0.07691328 -0.1261501 0.105008334 0.16784148 -0.16076548
-0.03927544 0.13523573 -0.06732743 0.10502356 -0.07606288 0.2506342 0.128132 -0.015385533
0.1046229 -0.10843394 0.06323743 -0.1005306 0.047124367 -0.04356652 -0.056022048 0.038871873
0.1863231 0.19207229 -0.0233614 0.246447 0.20352086 0.14006941 0.021446506 0.2633247
0.13980243 0.082152866 -0.090196684 0.116721176 -0.11190002 0.096192665 0.15853806 -0.09951705
0.04114825 0.15270178 -0.024568588 0.12168736 -0.05131763 0.22164093 0.015677908 -0.11122034
0.060731523 -0.060743786 0.14370619 -0.112020515 -0.084761746 -0.015314474 -0.10999751 -0.15127952
0.22425835 0.15736446 -0.09378759 0.046991076 0.029331258 0.15643175 0.1364416 -0.07489046
-0.024704868 0.19783086 -0.10791984 0.113129675 -0.0988403 0.06671425 -0.11500147 -0.05507199
0.15139382 0.22332743 -0.066993594 0.13491592 -0.059900872 -0.079417795 -0.07644527 -0.1029387

output_layer.3.bias f4 [3]
00000000: a98b 4e3d 665a f6bc dc7e 593d
0.05042616 -0.030072402 0.0530995
